siamese_network_train.pth (torch, 448468 bytes, 16 tensors)

feature_extractor.0.weight f4 [16, 3, 3, 3]
-0.12339093 -0.11263219 0.013154066 -0.2613225 -0.09708266 -0.23052269 -0.12591146 0.05594295
-0.19777516 0.11395428 0.10434839 -0.08094519 -0.16134533 0.019022947 -0.034007538 -0.1346011
0.0055890605 0.021860423 0.2390807 0.096089765 0.058582343 -0.09476242 0.003616208 0.033965755
0.2127288 0.103868425 0.009817433 -0.087339185 0.16769874 -0.12182855 0.0627449 0.17095347
-0.16217119 -0.063458376 -0.13159613 -0.12512887 -0.13667235 0.024199396 -0.08631692 0.05160013
0.003932356 0.080809 -0.12668405 0.21451591 0.11747253 0.07733351 0.07225793 0.24119562
0.12942643 0.08790948 0.100088865 0.12988546 0.14943278 0.29313326 -0.034663156 0.08573679
-0.00091404055 0.063750744 -0.22296193 0.051200207 0.002548532 -0.12343128 -0.04273823 -0.044568166
-0.2422178 -0.052883867 -0.24693918 -0.17573924 -0.19163552 0.08930683 -0.117919415 -0.16837972
-0.0044692094 -0.0009353013 -0.29067743 -0.07105195 -0.27484617 -0.08825041 0.052500963 -0.08582392
-0.03208236 -0.24241936 0.095391765 -0.089167014 -0.14351377 0.13911048 0.03254719 -0.23139542
-0.100794576 -0.1867542 0.0006244858 -0.10716038 -0.11163914 -0.07991821 -0.026226865 0.13455944
0.109812036 0.23890713 -0.15264612 0.15843697 0.14029405 0.21002586 0.17731535 0.20694193
-0.0928203 0.019183014 0.09746281 0.057964105 -0.24638529 -0.053512435 -0.1052215 -0.15099874
-0.11220583 0.20755295 -0.205803 -0.02182319 -0.136271 -0.13472323 -0.030064933 -0.0017785728
-0.114401765 0.16445707 0.012625258 -0.19653699 -0.16168049 0.24582365 -0.084525004 -0.15675204
0.1252899 -0.10938372 -0.2344038 -0.1075548 -0.15373813 -0.04088014 -0.12401403 0.021391707
-0.014300268 -0.14095296 -0.11424002 0.048853006 -0.1964787 0.008785855 -0.18936668 -0.18081522
-0.04628159 -0.110047445 -0.0077952966 -0.043625187 -0.20173244 0.025351098 0.07685546 -0.0738081
0.017191319 0.2695512 0.26447645 -0.078313805 0.30207935 0.063996844 -0.11716882 0.12949973
0.10373769 -0.12823083 0.09733089 0.056833215 -0.15412053 0.016044633 0.0877229 -0.1124497
-0.020661946 -0.18821698 0.1888348 0.09840781 0.10245405 -0.20264216 -0.22316408 0.000717287
0.094320066 0.029144142 -0.058705922 0.11132439 -0.15112618 -0.37591195 -0.17164066 -0.25381193
-0.42966822 -0.25546765 -0.3535192 -0.33273613 -0.11318552 -0.04102602 -0.08416973 -0.09935166
0.052040655 -0.09497429 0.018886713 -0.2976394 -0.2816372 -0.070236385 0.056408014 -0.11326769
-0.010249029 -0.089585684 -0.17992753 -0.20007278 -0.00041469792 -0.033238966 0.09774309 -0.07329721
-0.05962924 -0.23344532 0.16557851 -0.10337055 -0.23675229 0.062149066 -0.02291388 0.17968276
-0.14724913 0.16629702 -0.025348393 -0.18188462 0.124937184 -0.1938011 -0.14090322 0.106101684
-0.1203984 -0.08287989 -0.022780579 0.11492719 0.114694744 0.08795962 0.074247435 -0.13807875
-0.10918236 -0.17327604 0.20910944 0.22836243 -0.1064335 0.059120595 0.26978087 0.02446384
0.21125749 0.21915469 -0.14939867 -0.0027308667 0.06910499 0.07511318 -0.05452172 0.14689691
0.090296626 -0.0119990865 0.1565935 -0.08581657 -0.2780002 -0.28630355 -0.20433226 -0.036463555
00000000: 62b4 fcbd b5ab e6bd 2784 573c 10cc 85be
00000010: 46d3 c6bd 240e 6cbe efee 00be 6f24 653d
00000020: 9285 4abe dd60 e93d 9cb4 d53d 97c6 a5bd
00000030: b637 25be 03d6 9b3c 7d4b 0bbd dfd4 09be
00000040: 7024 b73b a114 b33c 92d1 743e b6ca c43d
00000050: 0af4 6f3d cd12 c2bd e7fd 6c3b ad1f 0b3d
00000060: 94d5 593e f8b8 d43d 4cd9 203c e3de b2bd
00000070: 38b9 2b3e 3f81 f9bd 6680 803d 6d0e 2f3e
00000080: 3410 26be 77f6 81bd 23c1 06be c821 00be
00000090: d6f3 0bbe d03d c63c edc6 b0bd a85a 533d
000000a0: feda 803b 307f a53d 77b9 01be 0faa 5b3e
000000b0: 7095 f03d 0861 9e3d f7fb 933d fcfb 763e
000000c0: 5d88 043e e309 b43d 64fb cc3d b200 053e
000000d0: e804 193e 9015 963e f4fa 0dbd c596 af3d
000000e0: 399c 6fba c08f 823d 2250 64be 4fb7 513d
000000f0: 4605 273b 8ac9 fcbd 480e 2fbd 1c8d 36bd
00000100: f107 78be c19c 58bd a0dd 7cbe fdf4 33be
00000110: 1a3c 44be 80e6 b63d bc7f f1bd bc6b 2cbe
00000120: 7272 92bb 022f 75ba acd3 94be af83 91bd
00000130: a3b8 8cbe a2bc b4bd 400b 573d 74c4 afbd
00000140: cb68 03bd c83c 78be c25c c33d 329d b6bd
00000150: 46f5 12be fa72 0e3e 3450 053d ecf2 6cbe
00000160: 636d cebd 7e3c 3fbe 88b4 233a e776 dbbd
00000170: 10a3 e4bd 29ac a3bd b9d9 d6bc f3c9 093e
00000180: 22e5 e03d 12a4 743e 444f 1cbe 4d3d 223e
00000190: 3ea9 0f3e 0511 573e 2892 353e 96e8 533e
000001a0: 9218 bebd b225 9d3c 959a c73d c56b 6d3d
000001b0: 6d4c 7cbe db2f 5bbd 5f7e d7bd 6a9f 1abe
000001c0: 2ccc e5bd c388 543e 06be 52be 8cc6 b2bc
000001d0: a08a 0bbe e3f4 09be bc4a f6bc 001f e9ba
000001e0: 794b eabd 6f67 283e 2cda 4e3c fe40 49be
000001f0: 928f 25be 32b9 7b3e 721b adbd 9b83 20be
00000200: ff4b 003e 9204 e0bd 8d07 70be b145 dcbd
00000210: 876d 1dbe ef71 27bd 11fb fdbd a93d af3c
00000220: ac4b 6abc f955 10be acf6 e9bd 171a 483d
00000230: b631 49be 8cf2 0f3c 57e9 41be a027 39be
00000240: c491 3dbd 8e60 e1bd b06f ffbb 53b0 32bd
00000250: f392 4ebe 1bad cf3c 6566 9d3d b328 97bd
00000260: cfd4 8c3c 9d02 8a3e 7569 873e fd62 a0bd
00000270: 25aa 9a3e c710 833d 35f6 efbd 949b 043e
00000280: 6d74 d43d f14e 03be 6b55 c73d f2c9 683d
00000290: c6d1 1dbe 0970 833c 10a8 b33d 074c e6bd
000002a0: 3e43 a9bc f4bb 40be e95d 413e 098a c93d
000002b0: 6ed3 d13d 6d81 4fbe 2085 64be 5108 3c3a
000002c0: e12a c13d b2bf ee3c 9f75 70bd 0bfe e33d
000002d0: d2c0 1abe 8877 c0be 92c2 2fbe a3f3 81be
000002e0: 79fd dbbe a8cc 82be 7800 b5be 645c aabe
000002f0: cfcd e7bd e60a 28bd 2e61 acbd e278 cbbd
00000300: 9528 553d e181 c2bd 4fb8 9a3c 3164 98be
00000310: c032 90be 18d8 8fbd 170c 673d e4f8 e7bd
00000320: 8beb 27bc b378 b7bd ec3e 38be e1df 4cbe
00000330: d06b d9b9 9525 08bd 872d c83d d91c 96bd
00000340: ca3d 74bd 4a0c 6fbe 6a8d 293e f0b3 d3bd
00000350: 316f 72be 0590 7e3d e4b5 bbbc c2fe 373e
00000360: 7ac8 16be c449 2a3e 6fa7 cfbc f63f 3abe
00000370: 11df ff3d cc73 46be ef48 10be d74b d93d
00000380: 7093 f6bd efbc a9bd 569e babc f25e eb3d
00000390: 14e5 ea3d 2c24 b43d 0a0f 983d 8464 0dbe
000003a0: 009b dfbd 466f 31be c920 563e d7d7 693e
000003b0: cff9 d9bd 7028 723d b820 8a3e 6468 c83c
000003c0: e253 583e 166a 603e f7fb 18be 57f8 32bb
000003d0: eb86 8d3d f0d4 993d 2b52 5fbd 256c 163e
000003e0: 70ed b83d d197 44bc 0c5a 203e 99c0 afbd
000003f0: 0b56 8ebe 6196 92be 7a3c 51be cf5a 15bd

feature_extractor.0.bias f4 [16]
-0.024810415 -0.13591011 0.054124802 0.13270274 0.07549669 0.08606793 -0.110898644 -0.0527108
0.012044685 0.01869297 -0.0068799583 -0.054472394 -0.21002339 -0.13876598 0.14308159 -0.17402038
00000000: 363f cbbc 052c 0bbe f8b1 5d3d 3ae3 073e
00000010: 029e 9a3d 6244 b03d d41e e3bd 48e7 57bd
00000020: 1257 453c 0022 993c 4671 e1bb 721e 5fbd
00000030: 5f10 57be ab18 0ebe fb83 123e 6632 32be

feature_extractor.1.weight f4 [16]
0.94980204 0.9489736 1.0084152 1.0394619 0.89663255 1.1787349 0.88096195 0.9872518
1.1533308 1.0587475 1.0464132 0.9632591 1.095502 0.90679485 0.98732334 0.8855002
00000000: 3a26 733f efef 723f c013 813f 160d 853f
00000010: b689 653f c9e0 963f b986 613f 89bc 7c3f
00000020: 58a0 933f 0a85 873f def0 853f 2698 763f
00000030: 6939 8c3f b523 683f 39c1 7c3f 24b0 623f

feature_extractor.1.bias f4 [16]
0.06798411 -0.2469725 -0.028077867 -0.01699807 -0.11365776 -0.020049147 -0.09263391 -0.112983204
-0.032362368 -0.012906657 -0.016069172 0.06958716 -0.038710028 -0.17397973 -0.08737506 -0.11419808
00000000: 413b 8b3d 5ce6 7cbe 8e03 e6bc 893f 8bbc
00000010: 66c5 e8bd 1c3e a4bc d9b6 bdbd bd63 e7bd
00000020: 678e 04bd 7176 53bc 7fa3 83bc b783 8e3d
00000030: 688e 1ebd be27 32be b2f1 b2bd afe0 e9bd

feature_extractor.1.running_mean f4 [16]
-2.0956 -0.38104331 -1.9300283 -1.0876933 -1.7337208 -1.6935766 -0.37909493 -2.3037841
-0.8376247 -0.9315255 -2.6597564 -2.8030264 1.2271805 0.15790038 0.960928 -2.8590038
00000000: 4f1e 06c0 1c18 c3be 2b0b f7bf 8939 8bbf
00000010: 90ea ddbf 1ec7 d8bf bb18 c2be 3371 13c0
00000020: 936e 56bf 7578 6ebf 7339 2ac0 c964 33c0
00000030: 4014 9d3f a3b0 213e 61ff 753f ebf9 36c0

feature_extractor.1.running_var f4 [16]
0.47919247 0.20692173 1.4204394 0.14516577 0.9013956 0.3786154 0.90733004 0.9965299
0.11352485 0.5223294 0.69827604 1.5056763 0.9522827 0.44680157 0.23866814 1.4499404
00000000: b758 f53e 4ae3 533e f5d0 b53f 56a6 143e
00000010: ddc1 663f e1d9 c13e c846 683f 951c 7f3f
00000020: b77f e83d 61b7 053f 38c2 323f 00ba c03f
00000030: cdc8 733f 2dc3 e43e 6c65 743e a697 b93f

feature_extractor.4.weight f4 [32, 16, 3, 3]
-0.027126353 -0.12263352 -0.13605145 0.00047396717 -0.09799775 -0.0033424136 -0.077043176 -0.062381335
0.047988668 0.050760802 -0.028930534 -0.03847985 -0.026357422 0.046097465 0.049067594 -0.09803812
-0.0069055734 0.0042893128 0.075410314 0.064850405 0.14931987 0.14626864 0.18096116 0.023654023
0.1435163 0.14865966 0.1356643 -0.08812896 -0.12076633 -0.046086617 -0.12375253 0.0013261214
-0.06837522 -0.06472859 -0.0083472915 -0.095679075 -0.042611845 0.086709656 -0.048397142 0.023471452
0.0565212 -0.054169435 0.0068247076 0.014654572 -0.07467993 0.014689 -0.011699334 0.067867875
0.043676708 -0.08995038 -0.02293789 0.017626856 -0.04465144 0.004705326 -0.06605339 0.013553317
0.00054678106 0.019653743 0.02356272 -0.09048384 0.05675789 -0.053878084 -0.06888402 0.034276646
0.05768281 -0.05229329 -0.004740152 0.083759606 -0.0470807 0.057015873 -0.04520883 -0.064378604
-0.077768445 -0.078909144 -0.014707758 -0.079018064 -0.076246135 0.01857249 -0.083547786 0.049232427
-0.085928 0.12757072 0.16053428 0.20975024 0.18074696 0.2885139 0.1808117 0.1621076
0.2603678 0.31189725 0.05454793 0.098826125 -0.003837457 0.013205731 0.092484064 0.063937485
0.02315668 0.11556501 -0.010190753 0.08842587 0.015989142 0.007994081 0.026846848 0.016556585
-0.061480083 0.0014167778 0.022754729 0.0630907 -0.096882746 -0.13206324 -0.19217029 -0.17488894
-0.18014267 -0.044106513 -0.050420985 -0.14942966 -0.097863436 0.062032573 -0.021186553 0.12215693
0.101219 0.006022086 -0.017177457 0.0185095 0.11140064 0.0112470705 0.21279742 0.06651658
0.15719628 0.16103446 0.07093364 0.1595499 0.11218038 0.20275322 0.08617958 -0.04138507
0.06446942 0.01064162 0.070304476 -0.036209736 -0.048431788 -0.07143141 -0.073092036 -0.012107916
0.102659464 0.0021500182 0.1508729 0.13749738 -0.028427951 0.05292931 0.057881255 -0.06637178
-0.0760747 0.06428886 0.1268837 0.08270752 0.02810527 0.045301348 -0.04246305 -0.016842231
-0.04875674 -0.030332841 0.10008133 0.07475684 0.24012814 0.06544584 0.16491696 0.16088063
0.12535745 -0.049572434 0.012897121 0.11154439 0.06617809 0.05383649 -0.020257547 -0.11211956
0.099347696 -0.055390183 -0.0022936827 -0.014298977 0.1436088 0.18048279 0.10625566 0.02480965
0.06714326 0.10304986 0.12807088 0.06488347 0.1454281 0.10581335 -0.019089544 0.06902733
0.1051327 -0.038636774 0.051933017 0.0019496587 -0.14647302 -0.07481792 0.12292128 0.14544255
0.10597009 0.12317448 0.14545451 0.11933533 0.06802437 0.091828495 0.26316234 0.12522969
0.13552038 0.22829159 0.16172493 0.100131094 0.03700899 0.12071532 -0.026117643 0.1151925
0.023966467 -0.05192838 0.047491457 0.013123301 -0.12170883 -0.04209094 -0.1253573 -0.042979166
-0.056811605 -0.042353112 0.027305685 0.021278882 -0.0629657 -0.050276935 0.11941993 -0.009876547
-0.0057586525 0.10956508 0.029366815 -0.027999977 0.050121285 -0.05770465 0.023632878 -0.07325321
-0.010563255 -0.17115466 -0.040249404 0.0553011 0.14454943 0.11834745 0.072524294 0.08060979
0.12692933 -0.0051903417 0.12702209 0.087304115 0.01208646 -0.018210674 -0.08182922 -0.013062844
00000000: 1638 debc 4827 fbbd 1251 0bbe cc7e f839
00000010: 0bb3 c8bd 650c 5bbb d0c8 9dbd 9283 7fbd
00000020: c48f 443d 8fea 4f3d baff ecbc 0c9d 1dbd
00000030: 85eb d7bc b2d0 3c3d 1afb 483d 36c8 c8bd
00000040: 2648 e2bb 5d8d 8c3b b970 9a3d 4ad0 843d
00000050: 4fe7 183e 72c7 153e e24d 393e 15c6 c13c
00000060: f0f5 123e 3d3a 183e 95eb 0a3e f57c b4bd
00000070: 5654 f7bd 52c5 3cbd f771 fdbd 40d1 ad3a
00000080: 4f08 8cbd 6c90 84bd 14c3 08bc 64f3 c3bd
00000090: c289 2ebd d594 b13d 153c 46bd 3447 c03c
000000a0: c682 673d c5e0 5dbd cca1 df3b bb19 703c
000000b0: cbf1 98bd 22aa 703c 90ae 3fbc 50fe 8a3d
000000c0: 59e6 323d e837 b8bd 3ee8 bbbc 3266 903c
000000d0: 6ee4 36bd 232f 9a3b 0047 87bd bb0e 5e3c
000000e0: db55 0f3a e300 a13c 9b06 c13c 974f b9bd
000000f0: f67a 683d 44af 5cbd 1113 8dbd ab65 0c3d
00000100: cf44 6c3d 7d31 56bd 4753 9bbb 288a ab3d
00000110: b1d7 40bd 7a89 693d e52c 39bd eed8 83bd
00000120: 1045 9fbd 1e9b a1bd cff8 70bc 39d4 a1bd
00000130: ef26 9cbd 5625 983c 1a1b abbd f1a7 493d
00000140: 05fb afbd e6a1 023e 1963 243e c4c8 563e
00000150: bb15 393e 18b8 933e b426 393e 89ff 253e
00000160: ee4e 853e ffb0 9f3e a66d 5f3d 5a65 ca3d
00000170: d87d 7bbb da5c 583c 4968 bd3d a8f1 823d
00000180: 14b3 bd3c 59ad ec3d 1ef7 26bc 9f18 b53d
00000190: a9fb 823c 9bf9 023c eced db3c ada1 873c
000001a0: 8ad2 7bbd 2db3 b93a 2068 ba3c b235 813d
000001b0: 766a c6bd 963b 07be 4ac8 44be 1616 33be
000001c0: 5277 38be 08a9 34bd 3c86 4ebd 1704 19be
000001d0: a06c c8bd de15 7e3d 6c8f adbc 6a2d fa3d
000001e0: e84b cf3d eb54 c53b bdb7 8cbc 3ca1 973c
000001f0: 0526 e43d a245 383c 91e7 593e d839 883d
00000200: 10f8 203e 38e6 243e a845 913d 0d61 233e
00000210: d4be e53d 8a9e 4f3e eb7e b03d 6483 29bd
00000220: 8b08 843d 305a 2e3c cbfb 8f3d a950 14bd
00000230: 6960 46bd a24a 92bd 47b1 95bd 4860 46bc
00000240: 203f d23d 52e7 0c3b 6d7e 1a3e 1dcc 0c3e
00000250: bce1 e8bc 67cc 583d e514 6d3d eeed 87bd
00000260: 0dcd 9bbd e1a9 833d cded 013e 8f62 a93d
00000270: 063d e63c e88d 393d bced 2dbd b8f8 89bc
00000280: 26b5 47bd 947c f8bc 71f7 cc3d 1d1a 993d
00000290: 27e4 753e 7808 863d fedf 283e e4bd 243e
000002a0: b45d 003e 770c 4bbd 724e 533c 6371 e43d
000002b0: 6188 873d a783 5c3d 28f3 a5bc f19e e5bd
000002c0: ce76 cb3d d1e0 62bd 9c51 16bb 4246 6abc
000002d0: 2f0e 133e 7bd0 383e 919c d93d 9b3d cb3c
000002e0: 6882 893d ce0b d33d 0325 033e a0e1 843d
000002f0: 1beb 143e abb4 d83d ad61 9cbc 335e 8d3d
00000300: d04f d73d 9841 1ebd b7b7 543d b18b ff3a
00000310: 06fd 15be 233a 99bd 27be fb3d e4ee 143e
00000320: d906 d93d e742 fc3d 07f2 143e 1566 f43d
00000330: 5c50 8b3d 9410 bc3d 37bd 863e 363c 003e
00000340: dbc5 0a3e 45c5 693e 389b 253e 8811 cd3d
00000350: bd96 173d 9839 f73d abf4 d5bc 0cea eb3d
00000360: 5355 c43c dab2 54bd 6786 423d 1d03 573c
00000370: 7b42 f9bd 8d67 2cbd aa5d 00be ec0a 30bd
00000380: 49b3 68bd 757a 2dbd 2cb0 df3c 0d51 ae3c
00000390: 29f4 80bd 30ef 4dbd 7092 f43d 3ed1 21bc
000003a0: 14b3 bcbb a863 e03d ad92 f03c 3560 e5bc
000003b0: fa4b 4d3d b65b 6cbd bd99 c13c c705 96bd
000003c0: 8111 2dbc 2b43 2fbe 8fdc 24bd 6883 623d
000003d0: c404 143e 2660 f23d 9e87 943d bf16 a53d
000003e0: c3f9 013e be13 aabb 1412 023e 80cc b23d
000003f0: 4a06 463c 8d2e 95bc 1496 a7bd 8a05 56bc

feature_extractor.4.bias f4 [32]
0.03084553 -0.053028096 -0.017049246 0.0799522 0.01960282 -0.044309374 0.048495904 -0.018198976
-0.053329714 -0.02960524 0.04871418 -0.019813731 0.059219714 0.06256631 0.06501011 0.033774115
-0.0010029355 -0.060517564 -0.06811611 -0.03178252 -0.07471169 -0.076385394 0.039224733 0.031261366
-0.063601434 0.002982888 -0.056288633 -0.03310586 0.06880418 0.06056043 0.03793036 0.06862844
00000000: c4af fc3c fd33 59bd dcaa 8bbc fbbd a33d
00000010: 1896 a03c bf7d 35bd a4a3 463d 0516 95bc
00000020: 4270 5abd b086 f2bc 8588 473d 6850 a2bc
00000030: 5f90 723d c422 803d 0524 853d ba56 0a3d
00000040: ee74 83ba 44e1 77bd 7680 8bbd 632e 02bd
00000050: 7102 99bd f26f 9cbd 1daa 203d eb0b 003d
00000060: 7841 82bd 8e7c 433b e98e 66bd 039a 07bd
00000070: 35e9 8c3d 370e 783d dd5c 1b3d 118d 8c3d

feature_extractor.5.weight f4 [32]
1.064772 1.0319352 1.0712914 0.94501835 1.176014 0.9999639 0.95210177 0.7467908
0.94686496 1.0302153 1.0762826 0.9666373 0.93038017 0.7841437 0.85655624 0.8286635
1.0660503 1.1123681 1.0276484 0.96975213 1.1491921 1.1061097 0.9336231 1.0381471
1.0660874 1.0869901 0.7664501 1.0096958 1.1376146 0.826229 0.9789496 0.9321951
00000000: 734a 883f 7416 843f 1420 893f b9ec 713f
00000010: a087 963f a2fd 7f3f f1bc 733f af2d 3f3f
00000020: be65 723f 18de 833f a1c3 893f 8b75 773f
00000030: 652d 6e3f a4bd 483f 4547 5b3f 4b23 543f
00000040: 5674 883f 1462 8e3f fc89 833f ad41 783f
00000050: ba18 933f 0195 8d3f ec01 6f3f 01e2 843f
00000060: 8d75 883f 7e22 8b3f 1336 443f b63d 813f
00000070: 5b9d 913f be83 533f 719c 7a3f 57a4 6e3f

feature_extractor.5.bias f4 [32]
0.014505781 -0.08969012 -0.06573193 -0.12726472 -0.025012944 0.115649804 -0.07132067 -0.21007061
-0.045347925 -0.107723646 -0.113664284 -0.020543367 -0.07041463 -0.18310663 -0.114628494 -0.19776557
-0.08247504 -0.03927856 0.007271591 -0.052838743 0.0059151086 -0.039848916 -0.08993688 -0.059081927
0.08492217 0.013796518 -0.18516968 0.012288616 -0.120483644 -0.13142288 -0.04239709 -0.09530359
00000000: a8a9 6d3c 74af b7bd 769e 86bd af51 02be
00000010: f2e7 ccbc ced9 ec3d 9210 92bd c01c 57be
00000020: bfbe 39bd 379e dcbd d2c8 e8bd 904a a8bc
00000030: 8c35 90bd 4e80 3bbe 58c2 eabd 0f83 4abe
00000040: ace8 a8bd 8ee2 20bd 8746 ee3b 706d 58bd
00000050: 87d3 c13b 9e38 23bd d430 b8bd e4ff 71bd
00000060: adeb ad3d ca0a 623c 1f9d 3dbe 3156 493c
00000070: 21c0 f6bd b893 06be 92a8 2dbd 872e c3bd

feature_extractor.5.running_mean f4 [32]
0.80962694 1.1638196 1.0002428 0.22320557 1.3674535 -1.7139744 -0.10177473 -0.5078023
1.9989277 2.1076906 1.0663517 1.2970395 -2.5168707 -1.9084928 -1.6206628 1.776356
0.5837304 1.2376301 0.8858379 1.1914765 0.5670209 1.2047278 0.64545894 0.96412385
0.6728109 0.42585713 -1.3304358 0.094209254 1.0134988 1.0501797 0.1852072 0.4717503
00000000: b643 4f3f 0af8 943f f507 803f 0090 643e
00000010: b708 af3f 8363 dbbf 456f d0bd 55ff 01bf
00000020: dddc ff3f 67e4 0640 367e 883f 6405 a63f
00000030: 6914 21c0 7e49 f4bf e171 cfbf a25f e33f
00000040: 5b6f 153f aa6a 9e3f 46c6 623f 4d82 983f
00000050: 4828 113f 8534 9a3f cc3c 253f d2d0 763f
00000060: 563d 2c3f f209 da3e b84b aabf c8f0 c03d
00000070: 54ba 813f 4a6c 863f f5a6 3d3e 4189 f13e

feature_extractor.5.running_var f4 [32]
6.0190516 12.976499 6.2225647 4.3681984 10.923026 14.324513 6.3039618 5.3124504
20.388058 17.765009 5.151012 11.817614 24.178413 16.634165 12.72143 9.025061
4.2497187 10.43396 8.891413 13.566486 7.584892 8.305367 7.6301117 6.422341
6.730163 5.6809497 9.334519 4.8831096 6.101174 4.263618 4.157539 4.676955
00000000: 129c c040 bd9f 4f41 401f c740 48c8 8b40
00000010: b7c4 2e41 3531 6541 0eba c940 98ff a940
00000020: be1a a341 bd1e 8e41 17d5 a440 f214 3d41
00000030: 646d c141 c512 8541 fa8a 4b41 a666 1041
00000040: b2fd 8740 80f1 2641 3a43 0e41 5410 5941
00000050: 6fb7 f240 c9e2 0441 e029 f440 d183 cd40
00000060: 7f5d d740 57ca b540 315a 1541 6f42 9c40
00000070: d13c c340 8f6f 8840 8f0a 8540 9ea9 9540

feature_extractor.9.weight f4 [16, 32, 3, 3]
0.17103067 0.062443286 0.014290109 0.13718793 0.1220634 0.070378385 0.112868965 0.08541726
0.16479865 -0.0010115393 -0.09193674 0.16416526 0.026554022 -0.0673343 0.13505343 0.09359885
0.05121966 0.07282234 -0.0138071375 0.00608978 0.08053673 0.047179807 0.0074204495 0.0011408651
0.029687352 -0.06420418 0.067263156 -0.10948912 -0.13041833 -0.05531788 -0.042973954 -0.0821791
-0.022983348 -0.04803775 -0.005470746 -0.033122953 0.017791169 -0.035893813 0.17284797 0.08606515
0.04314509 0.20007089 0.12423215 0.005007368 0.105888546 -0.010872371 -0.0461942 0.11089059
-0.0055593434 -0.10383162 0.009688925 -0.035314046 -0.0808589 -0.026471494 -0.0978262 -0.05080792
-0.036707163 -0.0809267 -0.07252799 -0.08555049 -0.08889267 -0.08143869 0.013727321 0.06757552
0.06969202 0.12427572 0.011906886 -0.03708249 -0.030712232 -0.064015746 -0.07969342 -0.03365025
0.032484535 -0.109636724 0.006288995 0.0023735773 -0.11892485 -0.076414466 -0.065068364 -0.15070911
-0.05791675 -0.017678332 -0.15695567 -0.052850373 -0.017776925 -0.1309882 -0.04857175 -0.06015933
-0.16518082 -0.0166289 0.07020644 -0.056175712 0.22733736 -0.054523293 -0.054664556 -0.034522768
-0.07769771 -0.11836845 -0.21858269 0.08619918 0.015092698 0.11186781 0.023132602 -0.03864779
0.08414976 0.02657781 -0.0274908 -0.0367313 0.014416928 0.01610901 0.04939007 -0.031961087
-0.101972885 -0.015339071 0.01832381 -0.08484832 0.0016439745 0.074280515 -0.004233557 0.035491362
-0.033761874 -0.007922422 -0.04894267 0.064587 -0.014701415 -0.038818005 -0.0019349073 -0.035924353
-0.090423256 -0.023764564 -0.04602687 -0.060891878 -0.03896527 -0.02389025 -0.022180112 -0.010640173
-0.10443471 -0.047496747 -0.115332186 -0.09144715 -0.10141763 -0.0757066 -0.0815336 -0.069771685
0.0019911493 0.0011895411 0.042800743 0.08378277 -0.07225924 0.10599825 0.15934397 -0.046277873
0.13855481 0.11370465 -0.06078319 0.16186696 0.037808053 -0.085212134 0.17019144 0.0038374804
-0.012569245 0.0054886136 -0.0022330417 -0.10506247 0.18883725 0.06730692 -0.1196153 0.05801114
-0.07646242 -0.09672971 -0.0063370885 0.0023462982 -0.05617885 -0.045247994 0.02583702 -0.096534856
-0.027864896 -0.033155214 -0.060282506 -0.054493845 0.020439975 -0.10419725 0.09521556 0.13992587
-0.10578936 0.093176655 0.09804689 -0.0071239993 -0.020822192 0.047562465 -0.14123017 0.081838764
0.115754604 -0.08352056 0.09986465 -0.10209899 -0.06699557 -0.078021646 -0.04096787 -0.15989491
0.07400207 -0.0390591 -0.15308751 -0.013275823 0.024328686 -0.079851896 -0.022889534 -0.007740357
-0.061510075 0.03286061 0.1088006 -0.14235364 0.051706944 -0.10914439 -0.13126874 0.0057665776
-0.03701422 0.04748794 0.19549417 0.120631404 -0.010970575 0.20939471 0.06864168 0.06325115
0.21437983 0.05456604 -0.05570386 -0.011559339 0.010402794 -0.089220725 0.030247629 0.044912174
-0.107957676 0.053492405 -0.036815286 0.027868424 0.02419909 -0.028790731 -0.015159639 -0.04063505
-0.004523885 -0.011970494 -0.09045559 -0.07370494 -0.16441032 -0.027543426 0.076900184 -0.08003205
-0.0032309988 -0.028229883 -0.106018476 -0.053773645 -0.03483328 -0.06702302 -0.051679652 0.056474667
00000000: aa22 2f3e 88c4 7f3d 1021 6a3c fe7a 0c3e
00000010: 60fc f93d 8b22 903d d827 e73d 3fef ae3d
00000020: fac0 283e a095 84ba 5449 bcbd f01a 283e
00000030: d287 d93c 91e6 89bd 724b 0a3e c1b0 bf3d
00000040: b5cb 513d e123 953d 5537 62bc c78c c73b
00000050: 71f0 a43d 9d3f 413d 3e27 f33b 1589 953a
00000060: e432 f33c 7b7d 83bd 44c1 893d d53b e0bd
00000070: 628c 05be 0095 62bd 7505 30bd 844d a8bd
00000080: 9347 bcbc 3bc3 44bd f243 b3bb efab 07bd
00000090: c9be 913c 6405 13bd 0fff 303e ed42 b03d
000000a0: e8b8 303d 62df 4c3e 6d6d fe3d d914 a43b
000000b0: 18dc d83d 0722 32bc 2136 3dbd 9b1a e33d
000000c0: 272b b6bb aca5 d4bd 4cbe 1e3c 76a5 10bd
000000d0: 5a99 a5bd bfda d8bc 1a59 c8bd f71b 50bd
000000e0: 405a 16bd e6bc a5bd 8e89 94bd 1835 afbd
000000f0: 5c0d b6bd 54c9 a6bd 8fe8 603c 0965 8a3d
00000100: b1ba 8e3d 4584 fe3d 1915 433c cfe3 17bd
00000110: 3898 fbbc b01a 83bd 4e36 a3bd d8d4 09bd
00000120: 810e 053d 3889 e0bd ea13 ce3b 058e 1b3b
00000130: df8e f3bd 307f 9cbd 9042 85bd 7d53 1abe
00000140: 1d3a 6dbd 26d2 90bc fdb8 20be a279 58bd
00000150: eaa0 91bc c521 06be 2cf3 46bd a169 76bd
00000160: 2925 29be 5539 88bc 65c8 8f3d 8118 66bd
00000170: 20cb 683e d153 5fbd f1e7 5fbd bf67 0dbd
00000180: fa1f 9fbd 286b f2bd 24d4 5fbe 3289 b03d
00000190: 5d47 773c f31a e53d 9580 bd3c 254d 1ebd
000001a0: b656 ac3d b5b9 d93c 6334 e1bc 8f73 16bd
000001b0: fb34 6c3c 0bf7 833c 3e4d 4a3d a1e9 02bd
000001c0: 29d7 d0bd ba50 7bbc d11b 963c f5c4 adbd
000001d0: a17a d73a 6220 983d a6b9 8abb 645f 113d
000001e0: e449 0abd 0ccd 01bc 1c78 48bd 3046 843d
000001f0: 34de 70bc a1ff 1ebd b79c fdba 6a25 13bd
00000200: d42f b9bd e7ad c2bc ac86 3cbd c369 79bd
00000210: 0c9a 1fbd 7cb5 c3bc 11b3 b5bc 1f54 2ebc
00000220: dee1 d5bd f38b 42bd 4833 ecbd a548 bbbd
00000230: 0cb4 cfbd 100c 9bbd 17fb a6bd 75e4 8ebd
00000240: f17d 023b 60ea 9b3a d54f 2f3d 4d96 ab3d
00000250: a7fc 93bd 9c15 d93d 112b 233e de8d 3dbd
00000260: 50e1 0d3e fcdd e83d cbf7 78bd 74c0 253e
00000270: 9edc 1a3d b383 aebd aa46 2e3e 3d7e 7b3b
00000280: 3cef 4dbc d4d9 b33b 3958 12bb fe2a d7bd
00000290: 8d5e 413e 36d8 893d def8 f4bd 179d 6d3d
000002a0: 5498 9cbd 3a1a c6bd 5aa7 cfbb 5ac4 193b
000002b0: cb1b 66bd f655 39bd 28a8 d33c 11b4 c5bd
000002c0: ec44 e4bc c3cd 07bd caea 76bd f034 5fbd
000002d0: bc71 a73c 5e65 d5bd 6000 c33d ba48 0f3e
000002e0: 18a8 d8bd 67d3 be3d cfcc c83d 7070 e9bb
000002f0: 4d93 aabc dcd0 423d a49e 10be 159b a73d
00000300: c010 ed3d d40c abbd d685 cc3d 4619 d1bd
00000310: f934 89bd d0c9 9fbd edcd 27bd 7ebb 23be
00000320: 668e 973d 6ffc 1fbd f9c2 1cbe d682 59bc
00000330: f44c c73c 6489 a3bd d582 bbbc d2a2 fdbb
00000340: fdf1 7bbd d998 063d d9d2 de3d 27c5 11be
00000350: a9ca 533d 1887 dfbd 506b 06be 8ff5 bc3b
00000360: 399c 17bd b782 423d a02f 483e 990d f73d
00000370: edbd 33bc 916b 563e 0294 8c3d d289 813d
00000380: 6386 5b3e a480 5f3d bb29 64bd 6263 3dbc
00000390: 7b70 2a3c 5bb9 b6bd e0c9 f73c d4f5 373d
000003a0: ea18 ddbd da1a 5b3d a0cb 16bd 524c e43c
000003b0: 2c3d c63c 8ada ebbc 2260 78bc f070 26bd
000003c0: 193d 94bb e41f 44bc c840 b9bd 9ef2 96bd
000003d0: 2e5b 28be c0a2 e1bc d87d 9d3d d8e7 a3bd
000003e0: 2abf 53bb 5b42 e7bc 3720 d9bd c141 5cbd
000003f0: 57ad 0ebd 5d43 89bd 0bae 53bd fb51 673d

feature_extractor.9.bias f4 [16]
0.02116557 -0.08491181 -0.10269981 -0.06615546 -0.02770406 -0.08117764 -0.117231876 -0.0327807
-0.08387765 -0.03778735 -0.052616898 0.0329999 -0.11178305 -0.056053378 -0.06912635 -0.06843126
00000000: 6b63 ad3c 3ee6 adbd 4754 d2bd 847c 87bd
00000010: a0f3 e2bc 7640 a6bd 4417 f0bd 0e45 06bd
00000020: 0cc8 abbd e9c6 1abd d184 57bd e72a 073d
00000030: 83ee e4bd 3a98 65bd 1e92 8dbd b025 8cbd

head.0.weight f4 [128, 784]
0.037629273 0.05513336 0.046277054 0.069913656 0.06871224 0.08278165 0.014478922 0.071333945
0.005443127 0.007969369 0.08010531 -0.06949771 -0.03428267 0.061575364 0.08680636 0.15048371
-0.021603903 -0.011467387 0.12307874 0.22278519 0.12345204 0.11293719 0.08693467 0.06858978
0.012573147 0.0230981 0.12202976 0.06099961 0.08134579 0.13427822 -0.07249858 -0.051078722
0.096209824 0.1710195 0.0421725 0.07472844 0.124622956 0.081928186 0.04711563 0.07847118
0.12005789 -0.05693017 0.08127707 0.046548452 0.16669764 0.036362022 0.14946258 0.16076995
-0.044053864 -0.03844338 0.06722153 0.03937336 0.07962034 0.037534807 0.07061057 0.039881464
0.014624603 0.07137001 0.073824264 -0.049357414 -0.017868724 -0.17609796 0.08515164 0.0067226817
0.08456204 0.075551145 0.010307558 0.12609233 -0.045643054 0.069589056 -0.012059013 0.059108578
0.033145938 0.064286776 -0.15082447 0.16833499 0.031321123 -0.009368799 0.024858318 0.052011933
-0.034342762 -0.011254762 0.06483542 0.08193223 0.012942094 0.06460759 -0.02903554 0.08854006
0.07128374 0.06164421 0.058480076 0.053165898 0.04192513 0.028746305 0.08990755 -0.060182936
0.06380411 0.050907005 0.068005875 0.05300158 0.15239838 0.040064305 -0.0015334061 -0.15784676
0.0565542 0.037722915 0.010943905 0.048742663 -0.042508177 -0.096691154 -0.06337863 0.07721305
0.05503923 0.09309636 0.069637105 0.017914806 0.018831322 0.02440504 0.00855748 0.054859128
0.005877347 0.054435175 0.040620323 -0.027030207 0.09139695 0.018593607 0.04511684 0.02660562
0.018204043 0.03401189 0.031263713 0.0172938 -0.1260395 0.092340544 0.05087465 0.07397695
0.0865494 0.11598127 0.050853726 -0.111112855 0.025060924 0.0016749223 0.051393725 -0.052404277
-0.053520095 0.010188067 0.028538283 0.08024361 0.036879815 0.05096528 0.025531387 -0.1090099
-0.05627236 -0.03972414 0.0746884 -0.018006437 0.022129096 0.028455365 0.08556887 0.055200845
0.003003586 0.037664957 -0.018641101 -0.105911344 0.020217502 0.031852674 -0.016440514 0.061646387
0.05407059 0.045288295 0.10437241 0.036861416 0.050248608 0.017736414 0.054285113 0.057191864
0.021588566 0.012746677 0.04206712 -0.079945676 0.016565733 0.08260603 -0.03333193 0.015792929
0.054676488 -0.107286535 0.073367156 0.039900962 0.03609451 -0.08322064 0.058858328 -0.007723631
0.033354927 0.021639364 -0.0014911825 0.036765832 -0.064493544 -0.105821095 -0.11009393 -0.07333626
-0.09353208 -0.16149426 -0.0683673 -0.009476352 -0.030803593 -0.10880642 0.005740855 -0.03370217
-0.04146635 0.112746835 0.002887867 -0.029168036 -0.07457462 -0.060680542 0.0060470887 -0.00026326187
0.04229429 -0.044771094 -0.013755231 -0.0014166845 -0.03667394 -0.05347258 -0.03292324 0.04039634
-0.11956403 -0.0028520422 -0.017081363 -0.041444488 0.03772452 -0.0354647 -0.06043329 -0.016794993
-0.03224651 -0.0011600091 0.036036767 -0.03800837 -0.037871957 -0.009641208 -0.052270588 -0.09124862
-0.0661847 -0.08663961 -0.02924373 -0.03801031 -0.09300177 -0.05945866 0.020918055 -0.03420375
0.041938376 -0.060037278 0.04604709 0.0836191 0.10337851 0.07285336 0.00062825746 -0.06120566
00000000: 2721 1a3d 85d3 613d 028d 3d3d e42e 8f3d
00000010: 01b9 8c3d 6d89 a93d 0039 6d3c 8817 923d
00000020: 425c b23b f591 023c 410e a43d d154 8ebd
00000030: fc6b 0cbd 7336 7c3d 88c7 b13d 6718 1a3e
00000040: abfa b0bc b5e1 3bbc b510 fc3d cd21 643e
00000050: 6cd4 fc3d 9d4b e73d ce0a b23d cc78 8c3d
00000060: 9aff 4d3c 3a38 bd3c bdea f93d bada 793d
00000070: 9f98 a63d 3b80 093e 237a 94bd ec37 51bd
00000080: a809 c53d bc1f 2f3e 12bd 2c3d 390b 993d
00000090: 523a ff3d f7c9 a73d 52fc 403d 7fb5 a03d
000000a0: e9e0 f53d 9c2f 69bd 9874 a63d 97a9 3e3d
000000b0: c9b2 2a3e 58f0 143d b80c 193e e1a0 243e
000000c0: d371 34bd ce76 1dbd 71ab 893d f645 213d
000000d0: fd0f a33d 19be 193d 469c 903d bf5a 233d
000000e0: 089c 6f3c 712a 923d 2d31 973d 002b 4abd
000000f0: 6e61 92bc 0653 34be fc63 ae3d f149 dc3b
00000100: dd2e ad3d 8fba 9a3d 08e1 283c 591e 013e
00000110: 36f4 3abd b584 8e3d 2b93 45bc d61b 723d
00000120: 09c4 073d c9a8 833d bb71 1abe 0260 2c3e
00000130: 944a 003d 977f 19bc aca3 cb3c 770a 553d
00000140: ffaa 0cbd e565 38bc 6fc8 843d 16cc a73d
00000150: 140b 543c fc50 843d f1db edbc 7e54 b53d
00000160: 36fd 913d a47e 7c3d ce88 6f3d 7cc4 593d
00000170: afb9 2b3d 5f7d eb3c 7321 b83d 6282 76bd
00000180: bbab 823d dd83 503d aa46 8b3d 2f18 593d
00000190: 520e 1c3e 781a 243d 92fc c8ba 95a2 21be
000001a0: 60a5 673d 5883 1a3d 114e 333c 63a6 473d
000001b0: 0e1d 2ebd 0306 c6bd a8cc 81bd e021 9e3d
000001c0: d170 613d 4ea9 be3d e69d 8e3d 12c2 923c
000001d0: 2544 9a3c 14ed c73c ac34 0c3c f7b3 603d
000001e0: c396 c03b 6bf7 5e3d 7f61 263d 746e ddbc
000001f0: 532e bb3d 9f51 983c 70cc 383d 07f4 d93c
00000200: a520 953c 0d50 0b3d 610e 003d baab 8d3c
00000210: 8010 01be 0a1d bd3d f061 503d 3a81 973d
00000220: d040 b13d 9787 ed3d ff4b 503d 238f e3bd
00000230: 914c cd3c 1189 db3a 3a82 523d dea5 56bd
00000240: e337 5bbd daeb 263c 1ec9 e93c c356 a43d
00000250: 4a0f 173d f8c0 503d 3327 d13c 9540 dfbd
00000260: d97d 66bd c8b5 22bd 3bf6 983d 3c82 93bc
00000270: 1448 b53c 3a1b e93c bb3e af3d 481a 623d
00000280: d0d7 443b 9246 1a3d 39b5 98bc 0ce8 d8bd
00000290: 2d9f a53c f377 023d 42ae 86bc ec80 7c3d
000002a0: 1f79 5d3d 3880 393d 34c1 d53d fffb 163d
000002b0: 7cd1 4d3d f54b 913c 115a 5e3d 0442 6a3d
000002c0: 81da b03c 70d7 503c 934e 2c3d 8fba a3bd
000002d0: dcb4 873c 5a2d a93d 1087 08bd 2c60 813c
000002e0: 74f4 5f3d 0bb9 dbbd 8541 963d 316f 233d
000002f0: d6d7 133d 956f aabd 6e15 713d 8316 fdbb
00000300: 2d9f 083d 0945 b13c c873 c3ba c597 163d
00000310: 3115 84bd bbb8 d8bd ed78 e1bd 5231 96bd
00000320: bf8d bfbd c05e 25be 2804 8cbd b342 1bbc
00000330: d157 fcbc e6d5 debd c81d bc3b 490b 0abd
00000340: 9fd8 29bd d0e7 e63d 5e42 3d3b cef1 eebc
00000350: 94ba 98bd 298c 78bd a826 c63b 6906 8ab9
00000360: c73c 2d3d e561 37bd 9f5d 61bc 0bb0 b9ba
00000370: 6a37 16bd 1006 5bbd 85da 06bd a276 253d
00000380: fcdd f4bd 54e9 3abb 37ee 8bbc b2c1 29bd
00000390: 0785 1a3d 6f43 11bd e688 77bd a795 89bc
000003a0: eb14 04bd 720b 98ba 4a9b 133d aaae 1bbd
000003b0: a01f 1bbd 28f6 1dbc af19 56bd 8ee0 babd
000003c0: d88b 87bd 1c70 b1bd 8c90 efbc b3b0 1bbd
000003d0: b677 bebd ed8a 73bd 575c ab3c 3b19 0cbd
000003e0: 93c7 2b3d a6e9 75bd e09b 3c3d 7e40 ab3d
000003f0: 1db8 d33d 2434 953d a5b1 243a c9b2 7abd

head.0.bias f4 [128]
0.03628907 -0.0028189123 0.097329184 -0.0983274 -0.09511254 -0.10972147 -0.04128573 -0.043963894
0.04543069 -0.07500388 0.05922271 -0.02956092 0.06402099 0.15749231 -0.14831847 0.00097642094
-0.013137272 -0.079886526 -0.0838536 0.037345447 0.013824702 -0.019028638 0.076058194 0.024278788
-0.09789612 0.0022849464 0.0408753 -0.025562938 -0.036828328 0.11848022 -0.07500154 -0.09447403
0.03769665 -0.062419694 -0.03467771 -0.044803575 0.06563295 0.0432174 -0.017571773 0.059012223
0.07481856 -0.034154925 0.12999925 -0.0055875056 0.08671455 0.016789872 -0.014598947 0.12274972
0.11219905 -0.09906125 -0.053305436 -0.039271556 -0.092149645 -0.07402501 -0.10185498 -0.13101444
0.09152433 0.032892406 0.029991118 0.034493677 -0.05354382 0.0024534867 -0.04313915 0.1391707
-0.0047789975 0.07521189 -0.05727676 0.12203175 -0.11422247 0.082516186 -0.057381395 0.008536773
-0.021374496 0.13521951 0.19402438 -0.06811806 -0.007839463 0.16354947 0.056262687 0.012142777
-0.024676269 0.07299503 0.06859335 0.04610367 -0.0603881 0.099995956 -0.09233575 -0.02387477
-0.0041232123 -0.0015088627 0.008428153 0.045390714 0.068472326 0.14569956 0.080808155 0.014222709
0.029124435 0.013824892 -0.054654304 -0.054896254 0.10763997 0.010263016 -0.0038076518 -0.13397026
-0.06812283 -0.053043332 -0.11922544 -0.08914443 0.019408943 -0.105243914 0.08816632 0.02649666
0.09359716 0.0457264 0.06168885 0.036983397 0.0661653 0.063455515 -0.08097497 -0.09288009
-0.05733972 0.03922748 -0.04188083 0.0665228 -0.010489913 0.09111944 -0.036718383 -0.057884146
00000000: d9a3 143d 80bd 38bb 8654 c73d e05f c9bd
00000010: 5dca c2bd a6b5 e0bd 3a1b 29bd 7c13 34bd
00000020: 8815 3a3d a29b 99bd 8393 723d be29 f2bc
00000030: 701d 833d aa45 213e cce0 17be 80f6 7f3a
00000040: b63d 57bc 8c9b a3bd 70bb abbd 8af7 183d
00000050: 0181 623c f2e1 9bbc 66c4 9b3d 4fe4 c63c
00000060: c37d c8bd 0abf 153b dc6c 273d 5e69 d1bc
00000070: 4dd9 16bd c2a5 f23d 689a 99bd 9a7b c1bd
00000080: cd67 1a3d cbab 7fbd 370a 0ebd f483 37bd
00000090: 916a 863d ba04 313d aef2 8fbc cdb6 713d
000000a0: 793a 993d 09e6 0bbd 861e 053e 6517 b7bb
000000b0: 6697 b13d ea8a 893c 6c30 6fbc 3564 fb3d
000000c0: 9ec8 e53d a0e0 cabd cd56 5abd 36db 20bd
000000d0: f4b8 bcbd 6d9a 97bd 5899 d0bd a628 06be
000000e0: 1c71 bb3d 30ba 063d efaf f53c 3e49 0d3d
000000f0: c450 5bbd adca 203b adb2 30bd c482 0e3e
00000100: 2399 9cbb b108 9a3d 099b 6abd c8eb f93d
00000110: 78ed e9bd 3ffe a83d c108 6bbd d2dd 0b3c
00000120: 9119 afbc fc76 0a3e 54ae 463e 7b81 8bbd
00000130: 1771 00bc 8379 273e b473 663d 80f2 463c
00000140: e325 cabc 6b7e 953d ac7a 8c3d 34d7 3c3d
00000150: 8359 77bd aeca cc3d 871a bdbd 0695 c3bc
00000160: 031c 87bb 08c5 c5ba 3c16 0a3c 9deb 393d
00000170: 383b 8c3d 4432 153e bf7e a53d 5e06 693c
00000180: 5e96 ee3c cd81 623c 31dd 5fbd e5da 60bd
00000190: 5872 dc3d 3626 283c cc89 79bb 802f 09be
000001a0: fb83 8bbd f743 59bd 782c f4bd 5b91 b6bd
000001b0: 81ff 9e3c 1f8a d7bd 8b90 b43d 860f d93c
000001c0: deaf bf3d 9b4b 3b3d 73ad 7c3d e77b 173d
000001d0: ac81 873d f7f4 813d 34d6 a5bd eb37 bebd
000001e0: 0edd 6abd feac 203d 3c8b 2bbd 1b3d 883d
000001f0: e2dd 2bbc d49c ba3d 0466 16bd ed17 6dbd
