siamese_network_train.pth (torch, 84776 bytes, 12 tensors)

feature_extractor.0.0.weight f4 [32, 3, 3, 3]
0.0145854205 -0.1519266 0.10687966 0.1801435 0.018499665 0.15411197 -0.00458984 -0.028963402
0.09835022 -0.2591711 0.055602428 -0.080795564 -0.2648013 -0.09144493 -0.22459589 -0.28309023
0.009400531 -0.22197366 -0.0416625 -0.07524339 -0.07447 -0.07820556 -0.09027765 0.055514134
0.108203635 -0.19790488 -0.07120633 0.015579486 0.24178557 0.023443867 0.22302715 0.12593462
0.21955216 0.23813018 0.31209293 -0.024272144 0.21243446 -0.09248836 -0.12760192 -0.020951016
0.13597436 0.13673533 0.2231605 0.14260803 -0.12741302 -0.028306358 0.060135935 -0.1254529
0.00310247 0.14758135 -0.12591967 -0.0632406 0.16932416 -0.026091186 0.33168644 0.17275037
0.07587104 0.25648856 0.27068213 0.19130334 0.22373778 0.28618708 0.25672427 0.07886528
0.0664253 0.12968048 0.048270203 0.09915816 -0.030324545 0.16474381 -0.14548206 -0.020941354
-0.028175287 0.14938325 0.050465014 0.089283675 -0.10491263 0.24663955 0.0010742216 0.037143666
-0.030155497 0.018588578 -0.2059249 -0.20228681 -0.19516605 -0.21113755 0.06976304 -0.09351161
0.024017295 -0.18152171 -0.20394595 -0.1546492 -0.02346042 -0.1263057 -0.012917589 -0.07510533
-0.07657721 0.11519466 -0.021230465 -0.20729908 -0.07580731 0.030578166 -0.18825847 -0.32390058
-0.15951692 -0.089733966 -0.06961122 -0.24221097 0.09920101 -0.14579435 0.034396462 -0.017783612
-0.11905115 0.19835791 0.044622608 0.17858563 -0.14584145 -0.086782224 -0.04842252 -0.0100509515
-0.26422274 -0.10932801 0.033170175 -0.029947266 0.016728211 0.057224497 0.09379084 0.429164
0.22970559 0.26412442 0.3936686 0.31362885 0.28042153 0.32869527 0.23890607 -0.25574306
-0.09916502 -0.06333312 -0.19535644 -0.09135669 -0.13749446 0.004400196 -0.093620434 -0.18374425
0.23310786 -0.100301154 0.109459065 0.039697852 0.18650036 0.019785248 0.01223222 0.07303735
0.08443027 0.0022893217 -0.2844654 -0.1809453 -0.048198316 -0.010796026 -0.065856 -0.2855376
-0.15573579 -0.28786755 0.03252224 -0.015307576 -0.0010455579 0.25568467 0.008124037 0.1788742
0.14111155 0.19099735 0.24065414 0.05786888 0.19589509 -0.0801714 0.045277067 0.16799591
-0.0616614 0.24176808 -0.020175029 0.097831465 0.011708563 -0.16796987 -0.020442372 -0.14968188
-0.09262457 -0.20792648 -0.24253294 -0.021635234 0.120852344 0.021900963 -0.07123225 0.2682926
0.25606528 -0.029515816 0.13351402 0.14541589 -0.059604783 0.25179017 -0.051699154 -0.15585437
0.109932445 -0.15470725 0.14506282 0.08044869 0.08283778 0.09415623 0.10433 -0.0010928275
0.29575142 -0.014790934 0.27935037 -0.056231804 0.016245516 0.23207632 0.1369759 0.3096327
0.062678546 0.21134172 0.05985693 -0.033950746 -0.10830921 0.016917463 0.061536193 0.2034063
-0.009189355 -0.01657095 -0.32989162 -0.08251627 -0.20621975 -0.02272114 -0.14186819 -0.2284477
-0.04689569 -0.04800675 0.19082116 0.29638273 0.044790987 0.33116993 0.21736991 0.2488875
0.06458568 0.21389692 0.15581758 -0.017724236 0.11605704 -0.20080803 -0.2579467 -0.029531902
0.09594073 -0.18505348 -0.024445496 -0.07975204 -0.16806018 -0.061184246 -0.15864606 0.0890611
00000000: b0f7 6e3c a692 1bbe b9e3 da3d 8a77 383e
00000010: 9c8c 973c 87cf 1d3e 5e66 96bb a844 edbc
00000020: d76b c93d 13b2 84be 5fbf 633d 2578 a5bd
00000030: 0994 87be 7b47 bbbd 77fc 65be 34f1 90be
00000040: af04 1a3c 104d 63be 4ca6 2abd 3519 9abd
00000050: ba83 98bd 3d2a a0bd 7de3 b8bd ca62 633d
00000060: de99 dd3d 94a7 4abe a0d4 91bd 1a41 7f3c
00000070: a396 773e 5a0d c03c 3b61 643e 01f5 003e
00000080: 48d2 603e 66d8 733e a5ca 9f3e 60d6 c6bc
00000090: 6b88 593e 8a6a bdbd 14aa 02be 77a1 abbc
000000a0: dd3c 0b3e 5904 0c3e 3084 643e d707 123e
000000b0: 8f78 02be bce2 e7bc 1951 763d ba76 00be
000000c0: cf52 4b3b 911f 173e 16f1 00be 4a84 81bd
000000d0: 5063 2d3e 2fbd d5bc ced2 a93e 79e5 303e
000000e0: 4762 9b3d 7852 833e d996 8a3e 06e5 433e
000000f0: 841b 653e 1d87 923e 5d71 833e 1f84 a13d
00000100: fd09 883d f6ca 043e fab6 453d 6f13 cb3d
00000110: 2e6b f8bc 9ab2 283e 40f9 14be 348d abbc
00000120: dccf e6bc ecf7 183e 67b4 4e3d 5cda b63d
00000130: 6fdc d6bd 148f 7c3e e5cc 8c3a f523 183d
00000140: a908 f7bc 1347 983c fadd 52be 4624 4fbe
00000150: 9cd9 47be 7134 58be eddf 8e3d 0483 bfbd
00000160: ebbf c43c d4e0 39be 35d7 50be 5c5c 1ebe
00000170: 1130 c0bc 4856 01be 4ca4 53bc d3d0 99bd
00000180: 83d4 9cbd 2eeb eb3d 83eb adbc 3646 54be
00000190: dd40 9bbd 107f fa3c d4c6 40be 4cd6 a5be
000001a0: 6758 23be 71c6 b7bd 5490 8ebd 2706 78be
000001b0: e629 cb3d 1d4b 15be 4ee3 0c3d f0ae 91bc
000001c0: 17d1 f3bd 561e 4b3e 32c6 363d 27df 363e
000001d0: 7657 15be e1ba b1bd b156 46bd bfac 24bc
000001e0: 3448 87be 5de7 dfbd 73dd 073d f853 f5bc
000001f0: 9a09 893c 3c64 6a3d 6915 c03d 62bb db3e
00000200: f137 6b3e 513b 873e ee8e c93e f693 a03e
00000210: 6993 8f3e bf4a a83e cba3 743e c1f0 82be
00000220: 0817 cbbd cbb4 81bd 850b 48be 3719 bbbd
00000230: 59cb 0cbe 852f 903b 12bc bfbd 7427 3cbe
00000240: d4b3 6e3e b16a cdbd 132c e03d 379a 223d
00000250: f3f9 3e3e ac14 a23c a669 483c 9b94 953d
00000260: c7e9 ac3d 7208 163b 73a5 91be ba49 39be
00000270: 996b 45bd d1e1 30bc 83df 86bd fc31 92be
00000280: 3479 1fbe 6063 93be 0a36 053d a1cc 7abc
00000290: 1a0b 89ba 1ae9 823e ae1a 053c cc2a 373e
000002a0: 8c7f 103e cf94 433e 0a6e 763e eb07 6d3d
000002b0: b998 483e e730 a4bd 7274 393d 1f07 2c3e
000002c0: aa90 7cbd 0d92 773e 1a46 a5bc dd5b c83d
000002d0: 46d5 3f3c 4b00 2cbe c376 a7bc 3546 19be
000002e0: f3b1 bdbd aeea 54be 8e5a 78be 603c b1bc
000002f0: 6f81 f73d a669 b33c 37e2 91bd a65d 893e
00000300: fd1a 833e 27cb f1bc e6b7 083e e7e7 143e
00000310: 2524 74bd a4ea 803e 7ec2 53bd 4a98 1fbe
00000320: 4324 e13d 946b 1ebe 598b 143e 48c2 a43d
00000330: dba6 a93d fbd4 c03d f8aa d53d 353d 8fba
00000340: bb6c 973e ac55 72bc 0307 8f3e 5253 66bd
00000350: 5115 853c 6aa5 6d3e 6943 0c3e 2d88 9e3e
00000360: 9c5d 803d f769 583e 8a2c 753d f00f 0bbd
00000370: 38d1 ddbd 7e96 8a3c 600d 7c3d be49 503e
00000380: f38e 16bc cdbf 87bc 8ee7 a8be 4afe a8bd
00000390: 452b 53be af21 babc e545 11be 32ee 69be
000003a0: b215 40bd baa2 44bd 9f66 433e 7abf 973e
000003b0: c176 373d 1b8f a93e 3896 5e3e 5ddc 7e3e
000003c0: 7f45 843d cb07 5b3e a58e 1f3e 6b32 91bc
000003d0: 50af ed3d 9fa0 4dbe 9711 84be e3ec f1bc
000003e0: 937c c43d a97e 3dbe ec41 c8bc 0a55 a3bd
000003f0: f817 2cbe 559c 7abd 1d74 22be aa65 b63d

feature_extractor.0.0.bias f4 [32]
-0.15681776 0.037979912 -0.122359715 0.19640522 0.08274098 -0.119231656 0.107853316 -0.01263738
-0.17315866 0.16981529 -0.20340285 0.08151741 -0.08126805 0.13330175 -0.02861716 0.081938125
-0.05797426 -0.18965198 0.0013356713 -0.18420462 -0.154112 -0.0066078804 0.11077509 -0.061239716
-0.056913253 0.0069044954 -0.063218296 0.100064054 -0.021321751 0.07884874 -0.24752381 -0.120849855
00000000: d694 20be d390 1b3d bb97 fabd 731e 493e
00000010: 1a74 a93d ba2f f4bd 33e2 dc3d 030d 4fbc
00000020: 8150 31be 0fe4 2d3e d648 50be 9af2 a63d
00000030: dd6f a6bd 4180 083e 896e eabc 2dcf a73d
00000040: 6b76 6dbd 2134 42be b111 af3a 23a0 3cbe
00000050: 89cf 1dbe eb86 d8bb 0dde e23d 7fd6 7abd
00000060: df1d 69bd 1b3f e23b 9878 81bd 62ee cc3d
00000070: f4aa aebc 737b a13d e276 7dbe 2180 f7bd

feature_extractor.0.1.weight f4 [32]
0.954865 0.9455094 1.0332683 0.8837297 0.98240477 1.0500383 0.9650855 0.95074064
1.0659918 0.915023 0.8929277 0.868689 1.109842 0.9723568 1.0224415 0.8736748
0.9879042 0.98149693 1.005816 1.0197548 1.0204438 0.9002721 0.95006514 0.9494327
1.2305008 0.88123757 1.029211 0.9954823 0.9540257 1.1710588 1.0035748 0.9678319
00000000: 0872 743f e70c 723f 2342 843f 1c3c 623f
00000010: e17e 7b3f a867 863f d80f 773f bd63 733f
00000020: 6b72 883f f33e 6a3f e996 643f 6762 5e3f
00000030: 4d0f 8e3f 60ec 783f 5ddf 823f 27a9 5f3f
00000040: 4ae7 7c3f 6243 7b3f 94be 803f 5387 823f
00000050: e79d 823f 3b78 663f 7837 733f 050e 733f
00000060: 0d81 9d3f c998 613f 30bd 833f eed7 7e3f
00000070: 073b 743f 41e5 953f 2475 803f d5c3 773f

feature_extractor.0.1.bias f4 [32]
-0.014183664 0.0009931062 0.0014129622 0.04624844 -0.08024455 -0.15217346 0.06033527 -0.07575118
0.015993562 0.018293006 -0.11430173 -0.07907867 -0.018287348 -0.027907606 -0.05506952 0.008976024
-0.19291247 -0.0675155 -0.09675609 0.057311077 -0.09819901 -0.04240719 0.01955638 0.00015500447
0.19218089 0.03475963 -0.10263259 0.01244331 -0.03766117 0.12905088 -0.04730929 -0.04486385
00000000: 9962 68bc 1d2b 823a 2533 b93a 016f 3d3d
00000010: 4157 a4bd 5cd3 1bbe 1e22 773d 6f23 9bbd
00000020: ee04 833c 37db 953c 0717 eabd fff3 a1bd
00000030: 59cf 95bc 7e9e e4bc 9490 61bd 2c10 133c
00000040: d98a 45be 9145 8abd 0f28 c6bd 05bf 6a3d
00000050: 901c c9bd 29b3 2dbd b434 a03c b288 2239
00000060: 11cb 443e 1d60 0e3d 0931 d2bd 06df 4b3c
00000070: 9942 1abd ea25 043e 63c7 41bd 28c3 37bd

feature_extractor.0.1.running_mean f4 [32]
-1.2089164 2.7398946 3.5465405 -2.0334067 -0.27503365 -1.1360408 2.470223 1.6065947
-0.7030176 -1.4590597 2.307218 -0.81585443 -1.7493459 -0.06021089 0.65588635 -2.0192235
0.2766738 2.7512422 1.793782 0.34569663 -1.5386171 2.5601363 -1.2022582 -0.28398713
0.4742449 -1.1945795 0.643373 -1.0100867 2.8070195 -2.100754 0.8644999 0.5422586
00000000: c6bd 9abf 6f5a 2f40 85fa 6240 5623 02c0
00000010: 36d1 8cbe c969 91bf 2218 1e40 e5a4 cd3f
00000020: f6f8 33bf 78c2 babf 76a9 1340 d6db 50bf
00000030: 91ea dfbf b29f 76bd 2be8 273f f53a 01c0
00000040: 30a8 8d3e 5a14 3040 a69a e53f 26ff b03e
00000050: 68f1 c4bf 46d9 2340 99e3 99bf c366 91be
00000060: 3ad0 f23e fbe7 98bf 18b4 243f 854a 81bf
00000070: 35a6 3340 c172 06c0 de4f 5d3f 76d1 0a3f

feature_extractor.0.1.running_var f4 [32]
1.5301545 2.4625456 4.856014 3.3531065 1.1965483 1.321338 1.3572958 1.9611251
0.7999643 2.403354 1.6289483 1.2696662 0.6076742 0.81914896 0.3241811 2.8369148
0.6114538 2.8659499 1.7681782 1.1919932 1.9575752 1.7408645 2.5068116 0.72312325
0.96254516 1.681197 1.3723582 1.7729295 2.6076 0.7693569 0.354676 1.3399152
00000000: 1adc c33f 599a 1d40 7764 9b40 4c99 5640
00000010: 7f28 993f 9b21 a93f debb ad3f 2606 fb3f
00000020: 76ca 4c3f 8dd0 1940 6181 d03f 6c84 a23f
00000030: 8990 1b3f bfb3 513f 11fb a53e 0390 3540
00000040: 3c88 1c3f b96b 3740 aa53 e23f 3c93 983f
00000050: d391 fa3f a6d4 de3f 9a6f 2040 9b1e 393f
00000060: 5c69 763f 7731 d73f 6fa9 af3f 5bef e23f
00000070: ebe2 2640 93f4 443f 1898 b53e 5782 ab3f

feature_extractor.0.4.weight f4 [64, 32, 3, 3]
-0.027239775 0.028039388 -0.06504915 -0.0337398 0.019255865 0.0016468129 -0.06773089 0.0019541578
-0.06950823 -0.008985315 -0.07033032 -0.047422335 -0.036360092 -0.06559326 -0.031919304 0.0004886938
0.0038512184 -0.012240343 0.049420048 0.02108125 0.05592843 0.019760948 0.02220104 0.02764995
0.059139088 -0.01876833 0.029522507 -0.029617304 -0.04491903 -0.088718325 -0.022913769 -0.041582726
-0.023266565 -0.12713642 -0.07061619 -0.09935155 0.04432786 -0.011785475 -0.016464697 -0.047818683
0.05956305 -0.026613016 0.024615474 -0.054737885 -0.039595548 -0.14591514 -0.20674236 -0.21955231
-0.17145263 -0.20828496 -0.20968415 -0.17856584 -0.2523761 -0.1932911 -0.23664966 -0.23105112
-0.17129119 -0.17505336 -0.21974832 -0.12630315 -0.20292424 -0.23168065 -0.27432972 0.01256764
-0.053039208 -0.0016759929 0.019217301 -0.050809734 -0.05353795 0.022481732 -0.06744042 -0.05478753
0.15135105 0.11476363 0.10688291 0.13761157 0.111067526 0.06893221 0.1637959 0.10490521
0.16626705 -0.07172406 -0.04396954 -0.10255899 -0.037443306 -0.024290081 -0.095285125 -0.061623264
-0.033771843 -0.0916784 -0.0062610116 0.0022643025 -0.03403628 -0.070539914 -0.008357265 -0.04014816
-0.031112289 -0.024642304 -0.06100825 0.025751963 0.089727126 -0.006973359 -0.022998445 0.06348524
0.0008029826 0.06634983 0.004391003 -0.02864468 -0.014538222 -0.101105735 -0.09095644 -0.10007486
-0.1157675 -0.016032202 -0.09894131 -0.088118605 -0.10098983 -0.079001196 -0.044684555 -0.09801396
-0.057590872 -0.108827814 -0.053774104 -0.0950103 -0.13942775 -0.05785529 0.010748607 -0.043548264
-0.024267832 -0.059736606 -0.015789768 0.0112183 0.010891069 0.023189083 0.035670996 -0.087953515
-0.09949401 -0.048437506 -0.08678543 -0.11277427 -0.07152233 -0.10673841 -0.106860414 -0.045639906
-0.08557741 -0.0654522 -0.13200194 -0.16286387 -0.118970364 -0.09350319 -0.14369965 -0.17724276
-0.09580196 0.012035262 0.0010654904 0.013361928 -0.015619203 -0.026814066 -0.03730436 -0.019131957
-0.07752272 -0.07984911 0.0014972532 0.07745082 0.05777303 0.0040531303 0.044705372 0.00045559448
0.056512527 0.07342777 0.049815822 0.030669536 0.0063059344 0.03821163 0.06671253 0.023514718
0.032451943 0.06343652 0.07217536 0.021519233 -0.20399567 -0.21003832 -0.1457509 -0.16359252
-0.12956613 -0.15206265 -0.21372503 -0.22201106 -0.15352963 -0.19066288 -0.16037208 -0.13847764
-0.15690152 -0.07949807 -0.13773456 -0.13731363 -0.16721113 -0.16161962 -0.05124552 -0.1358024
-0.10205709 -0.079711854 -0.12429251 -0.08436793 -0.1269859 -0.054442137 -0.029667413 0.020601233
0.069831036 0.054285206 0.029475557 -0.00070482335 0.067520134 0.04228463 0.021750273 0.024297608
0.15175238 0.108818814 0.12579967 0.07486984 0.0845303 0.15433088 0.097186655 0.064607844
0.117234595 -0.24396896 -0.12041783 -0.11883471 -0.17357846 -0.19014414 -0.14486949 -0.18726279
-0.22329669 -0.22719453 -0.10656665 -0.06517976 -0.051195994 -0.091287225 -0.06652332 0.0008982815
-0.013846614 -0.002558878 -0.077154316 -0.10495555 -0.007857029 -0.07083305 -0.00923491 -0.070317514
-0.029057091 -0.01721736 -0.052941203 -0.11713977 -0.07971481 -0.06188261 -0.03933271 -0.034745958
00000000: f325 dfbc dcb2 e53c 7d38 85bd bf32 0abd
00000010: 7abe 9d3c dfd9 d73a 7eb6 8abd 5411 003b
00000020: 555a 8ebd 2537 13bc 5809 90bd ec3d 42bd
00000030: 52ee 14bd c255 86bd d1bd 02bd b01b 003a
00000040: b964 7c3b b88b 48bc ad6c 4a3d 96b2 ac3c
00000050: 3615 653d b6e1 a13c f5de b53c 2682 e23c
00000060: d43b 723d 0ac0 99bc 2fd9 f13c fd9f f2bc
00000070: 04fd 37bd f4b1 b5bd a8b5 bbbc a652 2abd
00000080: 8699 bebc 0d30 02be 399f 90bd d378 cbbd
00000090: 2191 353d dd17 41bc f9e0 86bc 86dd 43bd
000000a0: 62f8 733d 8a03 dabc 64a6 c93c d534 60bd
000000b0: f12e 22bd c76a 15be 45b4 53be 52d2 60be
000000c0: 4791 2fbe a748 55be 71b7 56be f7d9 36be
000000d0: 7137 81be 1aee 45be 4a54 72be aa98 6cbe
000000e0: f566 2fbe 3041 33be b405 61be 9d55 01be
000000f0: 5fcb 4fbe b13d 6dbe f274 8cbe 81e8 4d3c
00000100: a43f 59bd fdac dbba 9a6d 9d3c de1d 50bd
00000110: 9c4a 5bbd 9c2b b83c 341e 8abd e468 60bd
00000120: c5fb 1a3e 3209 eb3d 6de5 da3d 0cea 0c3e
00000130: 5f77 e33d 552c 8d3d 1dba 273e 8bd8 d63d
00000140: e941 2a3e 10e4 92bd 6819 34bd 730a d2bd
00000150: 275e 19bd fefb c6bc d924 c3bd ad68 7cbd
00000160: 5854 0abd e3c1 bbbd 2c29 cdbb b164 143b
00000170: a069 0bbd 3b77 90bd e9ec 08bc 6672 24bd
00000180: 33df febc a8de c9bc c9e3 79bd c8f5 d23c
00000190: dbc2 b73d c680 e4bb 3c67 bcbc 8d04 823d
000001a0: 407f 523a 6be2 873d 67e2 8f3b 3fa8 eabc
000001b0: b931 6ebc 8610 cfbd 5f47 babd 0cf4 ccbd
000001c0: 8317 edbd f755 83bc bea1 cabd 8777 b4bd
000001d0: c2d3 cebd 61cb a1bd 2707 37bd 8bbb c8bd
000001e0: 68e4 6bbd 1ee1 debd 3c42 5cbd c394 c2bd
000001f0: 26c6 0ebe abf9 6cbd ed1a 303c aa5f 32bd
00000200: 55cd c6bc 5fae 74bd 8b59 81bc f6cc 373c
00000210: 7470 323c 08f7 bd3c c01b 123d f920 b4bd
00000220: 84c3 cbbd 6866 46bd 8fbc b1bd 32f6 e6bd
00000230: 4d7a 92bd ab99 dabd a2d9 dabd e9f0 3abd
00000240: 3643 afbd ce0b 86bd 842b 07be c9c5 26be
00000250: bca6 f3bd 9a7e bfbd 0026 13be 207f 35be
00000260: d133 c4bd 8c2f 453c eda7 8b3a fdeb 5a3c
00000270: b0e7 7fbc 2ca9 dbbc 75cc 18bd 9fba 9cbc
00000280: 3bc4 9ebd ee87 a3bd 7b3f c43a 899e 9e3d
00000290: 6aa3 6c3d 1fd0 843b fb1c 373d dbdc ee39
000002a0: ae79 673d 4c61 963d ad0b 4c3d ae3e fb3c
000002b0: 03a2 ce3b cc83 1c3d 94a0 883d f0a1 c03c
000002c0: 54ec 043d 02eb 813d add0 933d 1a49 b03c
000002d0: 3ee4 50be 4914 57be b93f 15be cc84 27be
000002e0: fcac 04be 50b6 1bbe bcda 5abe de56 63be
000002f0: df36 1dbe 213d 43be 9438 24be 15cd 0dbe
00000300: cbaa 20be e2cf a2bd 4a0a 0dbe f29b 0cbe
00000310: 6539 2bbe 9d7f 25be d3e6 51bd c90f 0bbe
00000320: 4f03 d1bd f83f a3bd 128d febd 18c9 acbd
00000330: 9708 02be b8fe 5ebd 1309 f3bc ebc3 a83c
00000340: 9303 8f3d 2a5a 5e3d b976 f13c e5c3 38ba
00000350: ff47 8a3d a632 2d3d a12d b23c c70b c73c
00000360: fa64 1b3e 66dc de3d a1d1 003e 5c55 993d
00000370: 391e ad3d ea08 1e3e cc09 c73d 1e51 843d
00000380: b118 f03d 00d3 79be a09d f6bd 9d5f f3bd
00000390: 8dbe 31be 25b5 42be ab58 14be d1c1 3fbe
000003a0: e3a7 64be afa5 68be 9e3f dabd f77c 85bd
000003b0: e4b2 51bd ccf4 babd 613d 88bd a77a 6b3a
000003c0: e9dc 62bc d9b2 27bb 1503 9ebd eff2 d6bd
000003d0: c5ba 00bc eb10 91bd 054e 17bc a102 90bd
000003e0: 2309 eebc 6c0b 8dbc e0d8 58bd fae6 efbd
000003f0: 8541 a3bd 9f78 7dbd 561b 21bd c751 0ebd

feature_extractor.0.4.bias f4 [64]
0.048401985 0.047908213 0.009122706 -0.04113858 -0.020025205 -0.0019028389 0.0309897 0.05105937
-0.034825597 0.02426887 0.022526398 -0.019005071 -0.04437401 0.046147868 0.0067928443 -0.025804095
0.02646013 -0.0019114943 -0.045017704 0.01982003 0.0029031076 0.063002355 0.019740662 0.0007144434
0.034561682 -0.02502999 0.004723741 -0.043313187 0.010070163 -0.038304262 -0.015048295 -0.022883192
0.036332656 0.03514029 0.02528141 -0.066764295 0.0043904623 -0.032626145 0.00090041995 0.006825283
0.04161803 0.05152193 -0.03663119 -0.01889979 -0.04417439 0.041389216 0.017007865 -0.0012705992
-0.023944927 0.010448649 -0.054165337 0.03168631 -0.033247434 0.033367205 -0.05152148 0.025083642
-0.020764075 -0.055596553 -0.025625149 0.020634498 0.014662228 0.0024525349 0.025914244 0.022647433
00000000: 2941 463d 673b 443d 6777 153c ed80 28bd
00000010: e60b a4bc ae68 f9ba 1dde fd3c a123 513d
00000020: 49a5 0ebd 82cf c63c 4889 b83c 86b0 9bbc
00000030: 86c1 35bd 8c05 3d3d 8296 de3b 1c63 d3bc
00000040: eac2 d83c 1b8b faba 7c64 38bd 9e5d a23c
00000050: 1042 3e3b 6107 813d 2bb7 a13c 7c49 3b3a
00000060: 8d90 0d3d b20b cdbc 9dc9 9a3b 2b69 31bd
00000070: 53fd 243c eee4 1cbd 208d 76bc 8875 bbbc
00000080: 8dd1 143d 44ef 0f3d f61a cf3c b8bb 88bd
00000090: dedd 8f3b fea2 05bd 290a 6c3a a0a6 df3b
000000a0: ab77 2a3d a908 533d 960a 16bd bbd3 9abc
000000b0: 35f0 34bd bd87 293d 1454 8b3c 3c8a a6ba
000000c0: 2728 c4bc cf30 2b3c 79dc 5dbd 81c9 013d
000000d0: 762e 08bd 0dac 083d 3008 53bd 367c cd3c
000000e0: 6c19 aabc 36b9 63bd d5eb d1bc ae09 a93c
000000f0: d739 703c b5ba 203b 1c4a d43c 1c87 b93c

feature_extractor.0.5.weight f4 [64]
0.9760369 0.9253492 0.9086171 0.819118 0.8148261 0.9195872 0.86513895 1.3058699
0.95236653 1.0996596 0.88549876 0.9429908 0.81189984 1.0859816 0.94382906 0.8102476
1.0126264 0.96191025 0.97187763 0.90776175 0.9124841 1.1059177 1.2303398 1.0131009
0.889978 1.0208446 1.0876902 0.9662028 0.854989 1.0381795 0.95381933 0.8273652
1.1760981 0.9388516 1.1544108 1.0998003 0.87667996 0.8873353 0.9290937 0.88365155
1.0641817 0.87953633 0.8678217 1.1363356 1.147339 1.0065392 0.8894822 0.9908486
0.8795298 0.9713616 0.9647642 0.74922514 1.2226005 0.80308414 0.84341586 0.8126146
0.8752609 0.9030158 0.9586175 1.2785723 0.9149882 0.9501648 0.78947 0.8833536
00000000: 8edd 793f afe3 6c3f 219b 683f b8b1 513f
00000010: 7198 503f 116a 6b3f bf79 5d3f bf26 a73f
00000020: 4bce 733f a5c1 8c3f 0cb0 623f d867 713f
00000030: abd8 4f3f 7201 8b3f c89e 713f 636c 4f3f
00000040: be9d 813f c03f 763f f9cc 783f 1363 683f
00000050: 8f98 693f b68e 8d3f c67b 9d3f 4aad 813f
00000060: 99d5 633f 09ab 823f 6f39 8b3f 1159 773f
00000070: 8fe0 5a3f 11e3 843f 812d 743f 35ce 533f
00000080: 628a 963f 9458 703f bcc3 933f 42c6 8c3f
00000090: 196e 603f 6828 633f 16d9 6d3f fd36 623f
000000a0: 1b37 883f 4b29 613f 9029 5e3f 7273 913f
000000b0: 01dc 923f 47d6 803f 1bb5 633f 41a8 7d3f
000000c0: dd28 613f 27ab 783f c9fa 763f 38cd 3f3f
000000d0: 2c7e 9c3f ec96 4d3f 1aea 573f 8307 503f
000000e0: 1911 603f 0b2c 673f f567 753f 42a8 a33f
000000f0: ab3c 6a3f 003e 733f b51a 4a3f 7623 623f

feature_extractor.0.5.bias f4 [64]
-0.082279906 -0.29329675 -0.2093525 -0.3596877 -0.28030175 -0.1745896 -0.26262587 -0.21862535
-0.12785588 -0.01697946 -0.29224953 -0.2062184 -0.2602991 0.052891593 -0.25257483 -0.26129633
-0.18615876 -0.1384809 -0.119517826 -0.22060418 -0.29308286 -0.19443238 -0.14828952 -0.20917861
-0.29896736 -0.17433508 -0.1232364 -0.3151831 -0.33791077 -0.18438852 -0.0018087273 -0.23477708
-0.09890208 -0.3093124 -0.06631371 -0.25551024 -0.1454487 -0.28391525 -0.2743874 -0.27400815
-0.006276031 -0.32209432 -0.2716742 -0.07018879 -0.12452228 -0.06312914 -0.2827922 -0.20290095
-0.28594875 -0.16198207 -0.093439065 -0.2370226 -0.004806767 -0.27566826 -0.2863342 -0.30666795
-0.27053615 -0.23703207 -0.24933816 0.09567114 -0.21180707 -0.27027997 -0.2675346 -0.12092875
00000000: 5e82 a8bd fe2a 96be 8060 56be fc28 b8be
00000010: b683 8fbe 9ec7 32be e676 86be 53df 5fbe
00000020: a7ec 02be 8218 8bbc bba1 95be eb2a 53be
00000030: ec45 85be dba4 583d 7d51 81be a2c8 85be
00000040: 67a0 3ebe f0cd 0dbe c3c5 f4bd 10e6 61be
00000050: f50e 96be 4819 47be 35d9 17be eb32 56be
00000060: 4012 99be e584 32be 5e63 fcbd ae5f a1be
00000070: a402 adbe 58d0 3cbe d112 edba 6769 70be
00000080: 2c8d cabd 325e 9ebe 7bcf 87bd 3dd2 82be
00000090: 81f0 14be 575d 91be 817c 8cbe cc4a 8cbe
000000a0: 2aa7 cdbb 8ce9 a4be e118 8bbe 24bf 8fbd
000000b0: 8a05 ffbd da49 81bd 24ca 90be 44c5 4fbe
000000c0: e067 92be a1de 25be fb5c bfbd 0db6 72be
000000d0: 1682 9dbb 6424 8dbe 659a 92be 9503 9dbe
000000e0: b783 8abe 89b8 72be 8152 7fbe 3bef c33d
000000f0: f4e3 58be 2362 8abe 4cfa 88be 7ea9 f7bd

feature_extractor.0.5.running_mean f4 [64]
-3.780873 -1.3403072 -3.4392085 -0.8973889 0.24035819 3.9875035 -5.570097 3.0205116
2.912662 -2.6211588 2.331706 3.7248788 1.0136374 1.9028544 -1.042005 -5.2290726
-1.5584179 1.6667926 1.7031491 -4.9925623 -0.22511472 2.3771923 5.5077085 1.6282338
-4.5566006 4.7815647 2.947622 4.4307594 3.7853253 1.165763 -3.9450552 1.6571132
2.0469036 0.5163686 5.9124093 4.5652146 1.2064683 -5.405436 3.8386292 1.8760823
-0.28379872 0.26152262 -4.7810655 1.7870474 -0.69039613 3.733277 -0.2607571 -0.6564054
-1.1395339 -4.601602 -3.8911965 4.0177364 -2.4364917 -0.82862157 -1.0974755 4.400956
0.7666307 -5.3334246 -1.7033482 1.3455206 -0.10667873 -5.1821146 -4.716218 -1.107574
00000000: d3f9 71c0 308f abbf fe1b 5cc0 47bb 65bf
00000010: 7520 763e 4233 7f40 3c3e b2c0 1050 4140
00000020: 0e69 3a40 11c1 27c0 ac3a 1540 6a64 6e40
00000030: dfbe 813f bc90 f33f 6b60 85bf 9054 a7c0
00000040: 3d7a c7bf 7659 d53f ca00 da3f 12c3 9fc0
00000050: 7984 66be eb23 1840 263f b040 f769 d03f
00000060: accf 91c0 9402 9940 d7a5 3c40 c8c8 8d40
00000070: c542 7240 b937 953f c97b 7cc0 491c d43f
00000080: 7800 0340 bc30 043f 7532 bd40 3d16 9240
00000090: 8e6d 9a3f 55f9 acc0 1aac 7540 7723 f03f
000000a0: 114e 91be 4be6 853e 7dfe 98c0 f8bd e43f
000000b0: cdbd 30bf 03ee 6e40 f481 85be 2f0a 28bf
000000c0: 3fdc 91bf 5340 93c0 5d09 79c0 4c91 8040
000000d0: 7bef 1bc0 8b20 54bf 147a 8cbf a2d4 8c40
000000e0: e941 443f 6aab aac0 5007 dabf 053a ac3f
000000f0: 617a dabd e2d3 a5c0 42eb 96c0 fcc4 8dbf

feature_extractor.0.5.running_var f4 [64]
36.097126 11.741075 11.927465 15.535615 14.12157 21.42978 25.892971 7.204755
29.966545 7.987083 15.686075 27.898062 10.706472 24.3513 12.51952 30.901241
12.148311 17.182438 16.288202 21.766384 13.315264 6.0264726 10.700209 9.027481
19.945179 15.582948 6.895311 17.98088 22.50449 17.850956 22.76371 8.353548
14.70648 10.734765 13.183691 15.55476 17.586391 10.460995 18.74914 22.281742
27.271816 10.617992 22.907055 12.288673 7.198969 13.207806 13.713966 23.191431
15.325738 16.871931 18.986898 19.497562 8.182631 27.1049 28.199835 13.269926
9.628688 38.235935 11.745272 9.21982 23.92586 15.430603 16.17702 33.706245
00000000: 7563 1042 71db 3b41 e6d6 3e41 e191 7841
00000010: f3f1 6141 3070 ab41 ce24 cf41 5a8d e640
00000020: 7cbb ef41 2f96 ff40 2afa 7a41 3b2f df41
00000030: b64d 2b41 76cf c241 f44f 4841 be35 f741
00000040: 7b5f 4241 a275 8941 3d4e 8241 8e21 ae41
00000050: 520b 5541 ddd8 c040 0e34 2b41 9070 1041
00000060: ba8f 9f41 c153 7941 63a6 dc40 d8d8 8f41
00000070: 3209 b441 c2ce 8e41 141c b641 22a8 0541
00000080: be4d 6b41 99c1 2b41 66f0 5241 4ce0 7841
00000090: eeb0 8c41 3c60 2741 3dfe 9541 0241 b241
000000a0: ae2c da41 4ce3 2941 a641 b741 689e 4441
000000b0: f45d e640 2c53 5341 686c 5b41 0d88 b941
000000c0: 3936 7541 b7f9 8641 2be5 9741 02fb 9b41
000000d0: 0eec 0241 d6d6 d841 4399 e141 9e51 5441
000000e0: 1b0f 1a41 99f1 1842 a2ec 3b41 6284 1341
000000f0: 2968 bf41 c0e3 7641 896a 8141 32d3 0642
