optim/models/siamese_net_trained_[<ImagePreprocessing.CROPPING: 'cropping'>, <ImagePreprocessing.BACKGROUND_REM: 'background_rem'>].pth (torch, 869930 bytes, 16 tensors)

feature_extractor.0.weight f4 [16, 3, 3, 3]
00000000: 7bbf 42be af8b a93d d9b5 61bd b50c a53e
00000010: c94b 32bc 78f9 9fbd fb18 8b3e 70a0 8a3d
00000020: 6b03 01be b730 67be b4e6 fb3a e0f1 15be
00000030: e3aa 87be 5bf4 0b3d ca4b 43be 2f7c 91bd
00000040: da96 84bc 9477 aebe 9f76 1abe c84a 3c3e
00000050: b564 9fbe 8df4 53bc 4087 cb3d 25b5 4dbc
00000060: ea5a 063e 9388 18be 92f2 64be b26c 86bd
00000070: e21d c13d 1a58 893d daa6 92bc 2a85 bebc
00000080: c460 c33c 0168 a7bd 76de c13d a36a c53d
00000090: 5bcd cf3c f550 b73e cb82 17bd 50f2 11bd
000000a0: 3596 79be 8600 9bbd 9974 41be f112 46be
000000b0: 413c 1d3d ba50 2ebe 0eef a73e 690d 53be
000000c0: 09a0 cebd fde7 b5bc f25c 71be c73d 09be
000000d0: f15e 56bc dab4 66be 5828 0bbe 36a9 13be
000000e0: c9fa 66be 75f9 913d 2b9e 5c3d 31b7 ba3d
000000f0: 620d e73e e551 cf3e b32d 253d e624 8ebe
00000100: 8c44 6ebd c99f 1cbe dce2 5ebe 1622 91be
00000110: 949f 46be a980 46bd 9ede 1ebe d637 ebbc
00000120: 6f05 68bc 205c 37be fdc2 213d 5a6a 6fbd
00000130: eda9 7cbd e01c 73be 30f9 903e c51b 81bc
00000140: 699a 323d e246 573d b8a3 2cbe 8d21 f9bd
00000150: 8ec9 21be 5e87 72be 0491 ddbd 0e72 50be
00000160: a004 aebd 454b 2e3d 4289 80bd e576 86bd
00000170: 912f 1fbc ec01 17be 850a d4bd 4bb3 9c3d
00000180: 1bb1 47be 2d55 4a3d 01e0 5abd deec debd
00000190: 3bdd febc 7659 4abd 6077 213e 5ad1 543d
000001a0: 8c0d e53b e1c7 143e 7bbd bc3d 6394 213e
000001b0: b5fa 4e3d 8560 3ebe ab06 debd 81c9 e5bb
000001c0: 94e5 3fbc 83b3 983d 9d61 b43e 9a5c 903e
000001d0: 06d2 7c3e b14c 2cbe 8849 7ebd f1cc 89be
000001e0: 6851 34be 3a4d 1dbe 832f e93d 2a51 0cbe
000001f0: e41e 90bd 2222 06be e67e a3bc dae5 48bd
00000200: 4d38 91be dc35 1cbe 0cb6 42be 48e6 49be
00000210: 073d 083e e0cc 0e3e 2890 963d e996 96bd
00000220: f76c 66be b176 1dbe 1723 c7bd 3f36 0c3d
00000230: 5554 24bd 1072 e9bc 5bf4 15be 48f4 61be
00000240: 403c 47be 7497 d63d a27c d33d ff85 e63c
00000250: f351 46be ba71 3abb 465a a5bd c2a9 b4bc
00000260: 71a4 29be 5171 883d 86c7 043e 1be2 3ebe
00000270: eaa2 5a3d 4623 f5bd 569a 42bd 1729 1dbe
00000280: 9083 10be 8131 b43d d1d2 3f3d 8c43 5dbe
00000290: 8e44 fabd 37b2 a6be e105 993d ce56 60bd
000002a0: c86f a63e 1712 833e 85ab 6a3d 4bcb 80bb
000002b0: 1fb0 673d 7a24 143d 4be9 1fbe 42dc c2bd
000002c0: 3fde 11be ee09 29bd 8c0f 193e f715 0dbe
000002d0: b2a7 21be 8da2 8abd 30d7 e6bd ad6b 52be
000002e0: 4bf7 0d3b 818d ccbd e17d 853e 1d5c 833e
000002f0: cfd4 e43b f56f 1cbe 957e ea3c e690 5c3d
00000300: f3b4 d5bd bb1d 93bd 70f6 bdbd a99a 42be
00000310: ba65 f0bc 85c0 c3bd c024 efbd eea2 1bbe
00000320: f4db d9bd 6625 32bd 5b09 93bc 58d7 d63d
00000330: 9a40 97be 01f4 0c3e cd8f 48be dc1e c83d
00000340: 98a3 f43e c3f7 243e f0e0 6b3e a343 393f
00000350: 0eb6 423e f355 5a3e f0a3 d13e 998a 663e
00000360: eefc a4be ed47 8cbe 95f4 b33d face 62be
00000370: 4cbd aabe fefe 08be 6b30 723e 282c c63b
00000380: b876 bd3e 4f89 afbd ecef 33be 87bb 8c3e
00000390: 24ee 33bc 03a0 26be 93f3 60bc 3da9 713e
000003a0: 0d67 5d3c 8f49 443e 8369 be3c cb9a 1fbc
000003b0: 8cbc 4e3e d263 c03d 03a9 92be 9775 fb3d
000003c0: ded3 9f3d 0646 013e bda2 aa3e a553 88be
000003d0: 2776 09be 1f71 82bd 375e 9abd 6a03 81be
000003e0: ced7 ecbd 6d2e 5fbe fbfb 7dbe 6093 bc3d
000003f0: f626 78bb e8d3 003d 60d9 49be 248f f5bc
-0.19018357 0.08278596 -0.055105064 0.32236257 -0.010882326 -0.07811254 0.27167496 0.06768882
-0.1259896 -0.22577177 0.0019218535 -0.14643049 -0.26497564 0.034168582 -0.1907188 -0.07103764
-0.016185213 -0.34075606 -0.15084313 0.18387902 -0.3113152 -0.012936723 0.09937906 -0.012555395
0.13120618 -0.14895849 -0.22358158 -0.06563701 0.09429528 0.06706257 -0.017901827 -0.023256857
0.023849852 -0.08174134 0.09466259 0.0963948 0.025366476 0.35803953 -0.03698997 -0.035631478
-0.24373706 -0.07568459 -0.18892135 -0.19343163 0.03838754 -0.17022982 0.32799572 -0.20610584
-0.10089118 -0.022205347 -0.23570612 -0.13402472 -0.013084159 -0.22529927 -0.13589609 -0.14420018
-0.22556604 0.07127658 0.05386178 0.09116972 0.45127398 0.40492168 0.040326785 -0.27762526
-0.05817084 -0.15295328 -0.21766227 -0.28346318 -0.19396812 -0.048462544 -0.15514609 -0.028713148
-0.014161452 -0.17906237 0.039492596 -0.058451034 -0.06168549 -0.23741484 0.28315115 -0.015760312
0.04360429 0.052557833 -0.16859329 -0.121646024 -0.15799543 -0.23684451 -0.10818675 -0.20356008
-0.08496976 0.04255225 -0.0627618 -0.06565646 -0.009715931 -0.14746827 -0.10353569 0.07651385
-0.19501154 0.049397636 -0.053436283 -0.108850226 -0.03111135 -0.049401723 0.15768194 0.051957466
0.0069901403 0.14529373 0.09215828 0.15779261 0.05053206 -0.18591507 -0.108411156 -0.0070125465
-0.0117124505 0.07456114 0.35230723 0.2819565 0.24689493 -0.1682613 -0.062081844 -0.2691417
-0.17609179 -0.15361491 0.11386015 -0.13702837 -0.07037142 -0.13098958 -0.01995797 -0.04904733
-0.28363267 -0.1525492 -0.19014758 -0.19716752 0.1330453 0.13945341 0.073517144 -0.073530026
-0.22502504 -0.15377308 -0.0972349 0.03423142 -0.040119488 -0.028496772 -0.14643995 -0.22065842
-0.19456577 0.10478106 0.10326506 0.028140066 -0.19367199 -0.0028449134 -0.08073859 -0.022053603
-0.16566636 0.066622384 0.12966737 -0.1864094 0.053378023 -0.119696185 -0.047510467 -0.15347706
-0.14112687 0.087985046 0.04683191 -0.21607798 -0.12220107 -0.32557842 0.074718244 -0.054770283
0.32507157 0.2559974 0.05729248 -0.0039304844 0.056564447 0.0361676 -0.15616338 -0.09514667
-0.14244936 -0.041269235 0.14947337 -0.1377791 -0.15786627 -0.06769285 -0.112715125 -0.20548888
0.002166229 -0.09987927 0.260726 0.25656214 0.0069833766 -0.15277083 0.028624812 0.053849123
-0.10434904 -0.07183405 -0.0927552 -0.1900431 -0.029345382 -0.095582046 -0.116769314 -0.15198871
-0.10637656 -0.043492697 -0.017948797 0.10490292 -0.29541475 0.13764955 -0.19586106 0.09771511
0.47781062 0.16110139 0.23035026 0.7236883 0.19014761 0.2132185 0.40945387 0.22513808
-0.3222422 -0.27398625 0.08786885 -0.22149268 -0.33347547 -0.13378522 0.23651282 0.0060477443
0.37004638 -0.085711114 -0.17571992 0.27486822 -0.01098207 -0.16271977 -0.013729948 0.23599716
0.013513339 0.19168685 0.023243671 -0.009741495 0.20189112 0.09394039 -0.2864457 0.12278288
0.07804082 0.12624368 0.33327284 -0.26626316 -0.13423978 -0.063692324 -0.07537501 -0.25197917
-0.11564599 -0.21795054 -0.24803154 0.09207797 -0.003786502 0.03145209 -0.19711828 -0.029975481

feature_extractor.0.bias f4 [16]
00000000: 4d71 78bb d6fe 083e d4d5 3d3c 8428 71bd
00000010: a27e 1fbd 49a0 33bd 582e a63e bc89 8b3c
00000020: fd81 22bd 259c 5cbd 6880 ecbd 8c52 433e
00000030: f6b1 323e a277 bdbc b130 703d 97a0 1ebd
-0.003790933 0.13378462 0.011586625 -0.05887653 -0.038939126 -0.04385403 0.32457232 0.01703345
-0.039674748 -0.05385985 -0.11547929 0.19074458 0.17450699 -0.023128334 0.058640186 -0.03872737

feature_extractor.1.weight f4 [16]
00000000: 14ba 633f 2da8 453f 66df 8f3f 5ae3 623f
00000010: 2d90 a73f df2f 583f 9b2b 8c3f 6e4f 5c3f
00000020: 78c3 b43f f867 593f 707b 5d3e 4143 773f
00000030: 4fb9 423f 3d6b 143f ab8f 633f f8be 633f
0.8895581 0.7720974 1.1240051 0.8862816 1.3090874 0.84448045 1.0950807 0.860587
1.4122152 0.8492427 0.21629119 0.96586996 0.7606401 0.5797613 0.88891095 0.8896327

feature_extractor.1.bias f4 [16]
00000000: 2484 06be 330e 2dbe cc17 2a3e 7bc2 0bbe
00000010: de6a 56bb fde5 953c efea 1bbd e975 d6bd
00000020: 5b70 0cbe 125a 7abd 9990 98be 48ce 05be
00000030: ddcd 1abe f0a1 b8be 53c4 5bbe 171d 96bc
-0.13136345 -0.16899948 0.1661064 -0.13648407 -0.0032717506 0.018298144 -0.038065847 -0.10471708
-0.13714735 -0.061121054 -0.2979782 -0.13066971 -0.15117593 -0.36061049 -0.2146161 -0.018324418

feature_extractor.1.running_mean f4 [16]
00000000: 1f3d 2340 5318 e13f 67f1 ee3f f73f 0b40
00000010: e5e0 c33f c404 4f40 823c 953f c5cd 03c0
00000020: ebcd 08bf fcec e73f c935 07c1 7956 ce3f
00000030: 4219 9a40 a4b0 97c0 2d21 a240 bea5 3740
2.5506055 1.7585548 1.866742 2.175779 1.5303007 3.2346659 1.165909 -2.0594342
-0.53439206 1.8119197 -8.450631 1.6120139 4.815583 -4.7403126 5.06655 2.869491

feature_extractor.1.running_var f4 [16]
00000000: 17fb aa3e c44e 1d3e b22d 853e 4ffe a13e
00000010: ccff 513e 2f94 043f 7c81 6b3d 1fed ec3e
00000020: 088e ad3d 5067 8e3e 3034 4840 1a7b de3d
00000030: 61a0 803f 79ee 993f f563 9d3f 1fd0 d23e
0.3339469 0.15362078 0.26011425 0.31639335 0.20507735 0.5178861 0.057496533 0.4627466
0.08474356 0.27813196 3.1281853 0.108633235 1.0048944 1.2025901 1.229613 0.4117441

feature_extractor.4.weight f4 [32, 16, 3, 3]
00000000: 6f1b a1bc b42e dbbd 5677 5ebd bc98 6fbb
00000010: cc77 c5bb f058 5fbd 4f33 653d 4227 e4bd
00000020: 345a 78bd c0fc c9bd b42a 01bd 3024 eebc
00000030: 9b06 aeba 2d53 b5bd 8f46 99bc d191 08bc
00000040: daa8 02ba 0884 63bc 419b 153e 5a65 cd3d
00000050: f6f2 aa3c faca 543d 8066 973d 8dfc a2bb
00000060: 0593 183d e45d 243e 8bf2 68bd f79f 80bd
00000070: 1796 0dbe 568a a33d 8eec b33c eaa4 63bd
00000080: fd75 90bd 4d6c 97bc 8d92 d73b f340 09be
00000090: dc34 91bd 0fd1 c03d 3cff 583d f57a b3ba
000000a0: 3171 533d bb99 183c 4edd 0a3d d479 173e
000000b0: da4d c63c e8dc d73d 92d9 e93d 0923 dbb9
000000c0: 4ad2 923d 49fc b63c 4872 02bd 1dfb db3d
000000d0: 820f 993c 8a7a 46bc 1fff 15bd 205b a7bd
000000e0: 67dd cbbd de7e 63bc 5866 40bc 264d e1bd
000000f0: 8239 0abe 70ae ebbd 50d2 18bd ce7b 6ebe
00000100: 6dbf d6bd 981b 5bbe 68dc 5abe 2fef 6fbe
00000110: c092 0dbe 2725 39be 560d 85be d584 64be
00000120: 4dda d8bd adc1 d7bc bdb3 963d 2ecd 67be
00000130: e589 49be d1f3 b1be d1dc 03be b864 0fbe
00000140: 8ee2 88be 96b3 e43d 2f9f 06be 45f2 cdbb
00000150: 40eb e4bc 7a31 02be 29b0 80bd f78d acbc
00000160: b1d5 cfbd ec2f b6bd 0317 3b3d 6f48 413c
00000170: 709a 923c 7339 a1bd 4b65 2abc 7b0d 79bd
00000180: 08d9 4dbd 7a78 cc3c ab44 afbd 12a8 9f3d
00000190: 4a82 003d b92d 893d 1d43 8b3c 34ee 673d
000001a0: 8b11 8b3d 9b37 a73d f136 483d 15d7 383c
000001b0: 19e8 923d dc75 2d3d ba4a a6bc 71cf 123e
000001c0: d92c c03d b325 9ebc 7567 043e 7ddc ce3d
000001d0: f544 013e 067e f8bc 8617 043d 7f1b 653d
000001e0: e6f6 daba 4e34 86bd cd00 d5bd 51c1 7abd
000001f0: 7f3d 0bbe 8695 71bc 668c d8bd 229b d1bd
00000200: d6c9 f7bc 29e7 aabc 53bd a0bd 6473 03be
00000210: 6894 aa3c 8079 dbbb b88e c13c 9dcf 19bd
00000220: a2b5 97bd a1eb 7abd 13dc a3bc b66d e7bd
00000230: cc0a 1d39 3cee 32bd ec84 aabd ff9e 033d
00000240: 27b1 e5bd d5f7 0bbd 7580 5bbc 22ee b3bc
00000250: f1f9 b1bd aa58 94bd b7a7 67bd 2ed6 b43d
00000260: 7f50 af3c 4aa3 d33d 9308 b73c 6e14 07bc
00000270: 4bbb 85bd d150 7dbc b591 913d 1976 e8bc
00000280: 6b5f d83d 6657 433d c38a 23be 8d6b 65bc
00000290: 3e49 e7bd 336d 61bd 2029 2ebe dcb4 ccbd
000002a0: 086e 543e 874c 713e facb 0e3e dfd8 0b3c
000002b0: 878f 323d 9543 adbd 03cc 05bd 15ff 0cbd
000002c0: c087 cebd 63cc 92bd b678 833d cd67 0ebe
000002d0: 805c 05be 4a7e de3c fb8e e33b 9bcb cfbd
000002e0: 09ec 2bbe ef2e 8fbd 8636 403e 3a0b 883e
000002f0: a1ff 3f3e d0b2 b73d 55cd cf3d 5c83 9a3d
00000300: bde4 e43c ebd1 063e 5032 9d3d e848 bd3c
00000310: 6e50 26bd 42d8 c6bd c963 f5bc 2fcb 8a3d
00000320: 8fc3 a5bd 9506 dabd a637 8bbd a372 a83d
00000330: c86c 6bbd 1ab6 703e 5774 0d3e 5ec4 aebd
00000340: 7eef 6bbd e76e f4bd 089b 23be 8432 25bd
00000350: c584 e2bd 4b38 afbd c26b 4abd a580 42bd
00000360: 0694 28be 0643 6cbd f185 02bd 8a89 4cbc
00000370: 28eb 2ebe 10db 0ebe 1b40 68bc 9d37 333e
00000380: 85dc e6bc af48 d2bc 0730 e3bd 759f 3b3c
00000390: 02ce dfbd 6d29 273d 0d39 1dbd bcaa c43c
000003a0: b9ab 693d be27 06be 0d0a 563c 6f94 8c3d
000003b0: ad6b 863d 4ded 3abd 7d65 29bd 5350 00be
000003c0: 2df3 12bd 0177 17be 7ddf bcbe 4219 db3c
000003d0: 18d6 9c3c bac5 c9bd 7f37 97bb 80ca 0a3d
000003e0: ae0d 46bd 821d 873c aa71 85bd cd85 e03d
000003f0: 9d39 d43d a668 7b3d 01f6 993d dbc3 5e3b
-0.019666402 -0.10702267 -0.054313026 -0.0036559543 -0.006026244 -0.054528177 0.055957135 -0.111403
-0.0606329 -0.09862661 -0.031534865 -0.02906999 -0.0013277115 -0.08853755 -0.018710403 -0.008335547
-0.0004984267 -0.013886459 0.14610006 0.10029097 0.020867806 0.051951386 0.07392597 -0.004973954
0.037249584 0.16051441 -0.056871932 -0.06280511 -0.13826786 0.0798537 0.021963384 -0.055577196
-0.070537545 -0.018484259 0.0065787495 -0.13403682 -0.0709016 0.09414875 0.052977785 -0.001369326
0.05162162 0.009313996 0.03390246 0.14792567 0.024207044 0.105401814 0.11418451 -0.00041797038
0.07169016 0.022337096 -0.03184727 0.107412554 0.018684153 -0.0121141765 -0.036620256 -0.081716776
-0.099543385 -0.013885228 -0.011743151 -0.11001043 -0.134985 -0.11507881 -0.037309945 -0.23289415
-0.1048573 -0.21397245 -0.21373141 -0.23431085 -0.13825512 -0.18080579 -0.25986737 -0.22316296
-0.105885126 -0.026337469 0.07358501 -0.22636864 -0.19681509 -0.3475633 -0.12877204 -0.14003265
-0.26735348 0.11167066 -0.13146661 -0.0062849843 -0.027944207 -0.12714186 -0.062836 -0.021063788
-0.1014818 -0.08895859 0.045676243 0.011797055 0.017895907 -0.07872286 -0.010400127 -0.06080387
-0.050255805 0.024959791 -0.08558019 0.07795729 0.031374253 0.06698174 0.016999776 0.056623653
0.067904554 0.08164903 0.04888052 0.011281748 0.07173175 0.042348728 -0.020299304 0.14336945
0.09383554 -0.019305086 0.1293009 0.101006486 0.12623961 -0.03033353 0.032248996 0.055934425
-0.0016705662 -0.06552945 -0.10400543 -0.061219517 -0.13597678 -0.014745122 -0.10573654 -0.10234667
-0.03024761 -0.020862179 -0.07848611 -0.12836987 0.020822719 -0.0066978335 0.023627624 -0.03755151
-0.074076906 -0.06125987 -0.0200024 -0.113002226 0.00014976709 -0.04368423 -0.08326134 0.032134052
-0.1121543 -0.034171898 -0.013397326 -0.021964137 -0.08690251 -0.07243474 -0.05655643 0.08829914
0.021400688 0.10333879 0.022342956 -0.008244617 -0.06529864 -0.015461163 0.071078695 -0.028376626
0.105650745 0.04769077 -0.15970902 -0.014002693 -0.11293267 -0.05503578 -0.17007875 -0.09995434
0.20745099 0.23564349 0.13944998 0.008535593 0.04359391 -0.08460156 -0.032665264 -0.034422953
-0.10084486 -0.0716789 0.06419508 -0.13906784 -0.13023567 0.027159829 0.006944535 -0.101462565
-0.16789259 -0.06991374 0.18770799 0.26571065 0.18749858 0.08969653 0.10146586 0.07544586
0.027941102 0.13166015 0.07675612 0.023106053 -0.040604047 -0.09709217 -0.029954808 0.067770354
-0.080939405 -0.10645787 -0.067977235 0.0822499 -0.05747679 0.23506966 0.13813911 -0.08533548
-0.057601444 -0.119352154 -0.15977108 -0.04033138 -0.1106048 -0.08555659 -0.049419172 -0.047485966
-0.16462716 -0.057681106 -0.031866018 -0.012483964 -0.17081892 -0.13950753 -0.01417544 0.17501684
-0.028181324 -0.025669424 -0.11093145 0.011451592 -0.10927965 0.04081099 -0.038384486 0.024007194
0.057048533 -0.13101098 0.01306392 0.06864249 0.06563506 -0.045636464 -0.041356552 -0.12530641
-0.03587644 -0.1479149 -0.36889258 0.026745442 0.019145057 -0.098521665 -0.00461477 0.033884525
-0.04835289 0.016493563 -0.0651582 0.109630205 0.10362551 0.061379097 0.07517625 0.003399125

feature_extractor.4.bias f4 [32]
00000000: 0b7e f4bc cd2b a1bd cdf9 213d d746 f3bb
00000010: 48e3 96bd 2764 b2bd c34d 2fbd 47a2 32bd
00000020: cb8e e2bc 8e17 b2bc 3c62 dd3c 9209 39bd
00000030: 75ae b8bc fa6a 96bd aa63 243c 6319 89bc
00000040: 8764 533d 89ac 21bb ca89 8ebc f9c1 84bd
00000050: 0327 533d 3818 483d ee3c 713d 43a8 6a3d
00000060: adfb fd3c efb9 78bd eb67 5e3d 0b59 a4bd
00000070: 8325 6fbd 77ca e2bd c7e4 c3bb 6cc1 bd3c
-0.029845258 -0.078696825 0.03954487 -0.0074242163 -0.07367569 -0.08710509 -0.04279877 -0.04361179
-0.02765598 -0.021739747 0.02702438 -0.045175143 -0.022544125 -0.07344623 0.010033527 -0.016735738
0.051609542 -0.002466949 -0.017399687 -0.0648231 0.051550876 0.04885122 0.058895998 0.057289373
0.031003797 -0.060724195 0.054298323 -0.08024796 -0.058385383 -0.11073773 -0.0059782 0.02316352

feature_extractor.5.weight f4 [32]
00000000: c5bd 3e3f 0c5f 673f a5c8 4f3f 727b 663f
00000010: fa48 723f 3732 7c3f da35 883f 5c8d 3a3f
00000020: e5d5 883f 39d4 2c3f d0e2 3e3f ca5e 953f
00000030: b1a6 4b3f 4ff2 a13f 16e8 843f 70be 823f
00000040: 6aac 643f ad37 463f 84a8 343f a8cd 803f
00000050: 818e 783f 6b25 8c3f b8d5 8c3f 0b99 7c3f
00000060: 8d60 5d3f c351 743f ec12 5d3f 54e6 613f
00000070: 3925 983f 467f 453f c75d 7c3f 34b0 583f
0.74508315 0.90379405 0.81165534 0.9003211 0.94642603 0.9851412 1.0641434 0.7287195
1.0690275 0.67511326 0.7456484 1.1669552 0.79551226 1.2652072 1.0383327 1.0214367
0.89325583 0.77428705 0.70569634 1.0062761 0.97092444 1.0948919 1.1002722 0.98671025
0.8647545 0.9543726 0.86357 0.8824208 1.188636 0.7714733 0.9858059 0.84643865

feature_extractor.5.bias f4 [32]
00000000: 5e91 ffbd 5163 0dbe 3664 1abe 2463 69be
00000010: 9307 0dbe 9b3a 24be 46da 4abd 911c 27be
00000020: 5174 04be 7042 e7bd 4252 45be 84e7 a5bd
00000030: 5ef3 5abe bb34 58be ea85 a6bd f5d3 3fbe
00000040: b6eb 8bbe 18a2 28be be89 e8bd 91ae 82be
00000050: b57a 93bc 013b 01be ce7a 7ebe f1ae 26be
00000060: 70a9 14be 4a67 47be 232e a2bd 8ef9 0ebd
00000070: 2d0a 6abe 721a 4ebd d66c 07be 910d dcbd
-0.124788985 -0.13807417 -0.1507729 -0.22791725 -0.1377242 -0.16037981 -0.049524568 -0.16319491
-0.12934996 -0.11291969 -0.1926966 -0.08100799 -0.213819 -0.21113865 -0.08131011 -0.18733199
-0.2732827 -0.16468084 -0.11354397 -0.2552381 -0.018002847 -0.12620164 -0.24851534 -0.16277672
-0.1451776 -0.19472995 -0.07918956 -0.034905963 -0.22855444 -0.05031819 -0.13225111 -0.10744775

feature_extractor.5.running_mean f4 [32]
00000000: 15a7 e6be dcaa 3dbe 6c52 6fbe a506 4b3e
00000010: c88c 17be 440a dc3e 86c6 023e de4a 92bf
00000020: 5b4f f83e 3a84 bbba 1c43 95be 92d9 2d3f
00000030: cba3 2ebf aeaa d13e 9730 b73e 1c3c 003e
00000040: 8718 bb3d 03d5 2abf 6955 35be e359 973e
00000050: d2a9 153f 810a a53e 67bc 263f 6287 693f
00000060: 5f37 a83f 8500 553f e20c 113f 5073 cf3c
00000070: f0bc 8ebe cebf d53e 4c3c b03e c501 253e
-0.45049348 -0.18522209 -0.23371285 0.19826753 -0.14799798 0.42976582 0.12771043 -1.1429098
0.48498043 -0.0014306374 -0.29152763 0.6791011 -0.6821868 0.4095053 0.3577926 0.1252293
0.091355376 -0.6673128 -0.17708363 0.29560766 0.5846225 0.32234576 0.6513123 0.912222
1.3141898 0.8320392 0.5666028 0.02532354 -0.27878523 0.41747898 0.34421003 0.16113956

feature_extractor.5.running_var f4 [32]
00000000: 54d9 1241 8563 0a40 d5f6 c63f 7b76 e43f
00000010: 24c6 0840 e032 a140 fdd9 9f3f 15df f940
00000020: 8812 f93f f06c c43f 9fd8 4e40 89c5 8e3f
00000030: 76f1 f23f 4b41 1640 f0a2 793f 9124 cc3f
00000040: 8c2d 1340 5c2a b740 e893 8a3f 8cb7 0b40
00000050: 6940 2240 b6ac 853f e29c 9740 1235 0941
00000060: 857b 3340 5a47 e63f 6a01 6940 8b6f 7e40
00000070: 18d3 e03f ecc1 b83f ac3d cb3f f2f1 0340
9.178059 2.1623242 1.5544077 1.7848657 2.1370935 5.0374603 1.24884 7.8084817
1.945878 1.5345745 3.2319715 1.1154033 1.8979938 2.3477352 0.9751425 1.5948659
2.299655 5.723921 1.0826387 2.1830778 2.5351813 1.0443332 4.7379007 8.575457
2.804414 1.7990525 3.6407113 3.975558 1.7564421 1.443418 1.5878196 2.0616422

feature_extractor.9.weight f4 [16, 32, 3, 3]
00000000: fce6 9cbd 07f1 41bd 2d8f 573c e2ca 2d3c
00000010: 30e3 debb e058 0d3d 347f aa3c 3a43 833c
00000020: 0c16 43bc 9566 0c3c cae3 09bd ad43 253d
00000030: 5e60 66bd af8b c13d d553 57bd f27d 20bd
00000040: 1a54 7a3c c749 453d 37e1 0c3c 7787 fa3c
00000050: 55ac 683b da3b 40bd 1769 ed3c 8063 363d
00000060: 1417 863d 5bdc 453c a0d5 b63c dc2f a9bd
00000070: 92dc 9bbd f0ba 7a3b 5f34 bf3c d322 2cbc
00000080: aa7b 533d 0d40 31bd ce67 a43d 54ce b4ba
00000090: 6977 c9bc 5e92 0fbd 0e8a debc 0d18 2abd
000000a0: 8b44 2ebd fc4a 13bd 3dd9 6dbc b548 873d
000000b0: bc58 b1bc b84e 2abc 6100 c4bd e539 a3bd
000000c0: b12b fcbc ebef b4bc 0976 22bd 942c a6bd
000000d0: 30c3 933d 02cc c9bd 05be 9cbd fe87 d9bc
000000e0: 2bde 3ebc 8828 bbbd 319a e3bd 2b8f 1e3e
000000f0: ec08 153c fe28 823e 98ff 133e 6ac8 b7bb
00000100: 4356 73bc ad55 ff3c 1ce6 b2bc 19c9 c53b
00000110: 7c14 31ba 6430 86bd fef8 73bd ef23 773b
00000120: 1e7c ecbd 9b99 dcbd 80e5 02be 300b bcbd
00000130: ef55 7d3d 6adf 443b 75b1 bebd 92d6 f33b
00000140: 9177 fcbd b41b 32bd 920b d0bc 4d81 2d3d
00000150: 5654 d4ba d79b 8d3d 9062 8ebc 92bd 16bd
00000160: f167 a03c 0c47 853d 3bb3 063d b2e1 6dbb
00000170: 502d 803c 2003 7dbd f8b7 98bc 5b14 3fbc
00000180: bb99 59bd f3a9 5fbd 5419 c4bc 19d1 d0bd
00000190: 0b3e 8abc acd7 00bd 0ce0 d2bd c520 d4bd
000001a0: 7759 ea3c 6874 2abc 7683 8d3e 9e34 163e
000001b0: 6738 d6bc 3b2a debc 4218 e6bd b2ff 88bd
000001c0: dd04 06be cab1 a4bd 690d 7bbd 8067 4a3d
000001d0: ad3b e5bd ebad 1dbe e583 e9bd 887b c2bd
000001e0: 5858 e1bd a924 823c df4a b3b9 80d2 15be
000001f0: 708e 7abd 7e6d 77bd 0f9f babd 1eda c0bd
00000200: 79f0 8fbd cb90 2d3d ed64 693d 10aa 58bc
00000210: c74a d9bd 34db c6bb 4009 a0bc 21ed 4abd
00000220: 4f21 f9bd b184 febd 3339 7dbd faba 01be
00000230: 6eec eebd a491 7fbd eeac 88bd 11ca 81bd
00000240: d992 c6bc 0e05 28bd 27af 7abd e65e a4bd
00000250: d8ff 30bc d622 1d3d 7ee2 ddbc 1e74 d33c
00000260: e8c7 143b 872b 75bc 628c 5cbd 88b1 c6bb
00000270: 2054 a5bc a55d 11bd 1e98 cb3b 1e38 973c
00000280: 2419 0bbb 1be9 31bd a0c1 57bd c197 60bd
00000290: ca05 b23c aec1 8abd 514d d9bb 87f2 053c
000002a0: 935f 053d b1c4 a03d ca9a d1bc adfd 5aba
000002b0: 2e42 09bd f99d 58bd 428e e0bd 2a6e 10be
000002c0: c403 c0bd 1579 a63d ac25 21bc 5978 8bbd
000002d0: f7be dbbd a12a ffbd aadd d5bd 41d7 0ebd
000002e0: e4ff efbc aea9 b13c 98d8 32bd 0f97 7abd
000002f0: 8f92 80bd 5ed5 11be 274b e8bb 8048 bebd
00000300: 6cb8 7dbc 9cec 7abd 5880 e63d 9a42 08bd
00000310: 4343 eb3d 6cf1 0b3c 80f0 d0bd 9f30 c7bc
00000320: f397 babc e8c1 d63c 040a 9cbd 15e7 d8bc
00000330: 2804 a4bc b470 85bc 3200 18be cd53 4dbd
00000340: f210 14bd 9f05 c9bd bf5a 033c 56a4 8ebd
00000350: 642c ccbd 63ea 63bd b57c 48bd 1e37 eabd
00000360: 1424 a2bd 0682 ccbd 0af8 dbbd de8d 01be
00000370: 28ab 11be e9e3 a0bd 4c06 b2bd c456 bdbd
00000380: 58e8 24be bff7 bbbd daef 61bd f377 6bbd
00000390: fb41 7cbd f544 eabd 27c2 86bd ccf1 7dbc
000003a0: 0a0f 903d 480a 10be 0c91 a7bd 7618 4abd
000003b0: 844d 2bbc 4ef2 0f3d dbc5 50bb 13b7 e13d
000003c0: d875 633c d82f 1a3e 697e 543d f2cd 09be
000003d0: 6c7c dfbd fa20 0bbd 95d0 ddbd 1522 c1bc
000003e0: 1151 1abd f562 e6bd 99b9 c03c c412 973b
000003f0: 22f6 b4bd d1d6 7dbd cd44 44bd 382f 2dbd
-0.07661244 -0.047349002 0.013156694 0.010607453 -0.006801985 0.034508586 0.020812608 0.016023267
-0.011907112 0.008569379 -0.033664502 0.040347744 -0.056244247 0.09450471 -0.052570183 -0.03918261
0.01527884 0.048166063 0.008598617 0.030582173 0.0035503109 -0.04693208 0.028980775 0.044528484
0.065473706 0.012076463 0.022318661 -0.082610816 -0.0761043 0.0038258396 0.023340402 -0.01050635
0.051631607 -0.043273974 0.08027612 -0.0013794401 -0.024593072 -0.035051696 -0.027165439 -0.041526843
-0.042545836 -0.035960183 -0.014517126 0.06605665 -0.021648757 -0.010394745 -0.09570385 -0.07970027
-0.030782552 -0.022087058 -0.03966335 -0.08113971 0.072149634 -0.098533645 -0.07653431 -0.026554104
-0.011649649 -0.0913859 -0.11113394 0.15484302 0.009096365 0.254219 0.1445297 -0.005608608
-0.014852109 0.031168783 -0.02183824 0.0060359356 -0.00067550666 -0.065521985 -0.05956363 0.0037710627
-0.11547111 -0.107714854 -0.1278286 -0.09181821 0.06184953 0.0030040392 -0.09311191 0.0074413503
-0.12327493 -0.04348345 -0.025396142 0.04235964 -0.001619945 0.0691449 -0.017380983 -0.036801882
0.019580813 0.06507692 0.03288577 -0.0036297855 0.015646607 -0.06177056 -0.01864241 -0.011662568
-0.053125124 -0.054605436 -0.023937859 -0.10196132 -0.016875288 -0.03145568 -0.1029664 -0.10357813
0.028607113 -0.01040373 0.2763936 0.1466851 -0.026149942 -0.027119746 -0.112350956 -0.06689395
-0.13087793 -0.08041723 -0.061292086 0.04941511 -0.11193023 -0.15398376 -0.1140211 -0.09496218
-0.11003178 0.015886622 -0.00034197324 -0.1463108 -0.061170995 -0.060407154 -0.09112369 -0.094166026
-0.070282884 0.042374413 0.056981016 -0.01322414 -0.10609966 -0.0060686115 -0.01953566 -0.04954255
-0.12164556 -0.124276526 -0.061822128 -0.12668982 -0.11666189 -0.062394753 -0.06673609 -0.06337369
-0.024239944 -0.041020446 -0.061202195 -0.08025913 -0.010803185 0.0383633 -0.027085539 0.025812205
0.0022702161 -0.014963991 -0.053844817 -0.006063644 -0.020181715 -0.035489697 0.006213202 0.018459376
-0.0021224702 -0.043435197 -0.05267489 -0.054832224 0.021731276 -0.06775223 -0.0066315313 0.008175499
0.03256185 0.07850016 -0.025586504 -0.00083538407 -0.03351038 -0.05288503 -0.109646335 -0.14104524
-0.09375718 0.08128563 -0.009835642 -0.06810064 -0.10729783 -0.12459303 -0.1044267 -0.03487325
-0.029296823 0.021687355 -0.04366359 -0.061179217 -0.06277954 -0.1424155 -0.007089037 -0.09291172
-0.015485864 -0.061260805 0.112549484 -0.03326664 0.114874385 0.008541446 -0.10202122 -0.024315177
-0.022777533 0.026215509 -0.07619098 -0.026477376 -0.020021513 -0.016289093 -0.14843825 -0.050128747
-0.036148973 -0.09815525 0.008017241 -0.06964938 -0.09969404 -0.05564345 -0.048947055 -0.11436294
-0.079170376 -0.099857375 -0.10740669 -0.12651774 -0.14225447 -0.078559704 -0.08692607 -0.09245065
-0.16104257 -0.09178113 -0.05516038 -0.05748744 -0.06158636 -0.11438934 -0.0658 -0.015499543
0.070341185 -0.14066422 -0.08181962 -0.049339734 -0.010455493 0.03514319 -0.0031856212 0.11021247
0.013883077 0.15057313 0.051878367 -0.13457468 -0.109124035 -0.033966996 -0.108307995 -0.023575822
-0.037674967 -0.11249343 0.023526 0.0046103913 -0.088360086 -0.061972443 -0.047917176 -0.04228136

feature_extractor.9.bias f4 [16]
00000000: c2c0 76bc d59e f7bd 3cee af3d a1d7 24bb
00000010: 0e6e 57bd dce9 34be d87b ab3c d7f1 20bd
00000020: 02ea f03d 0c3e bebd 066b 203e bc26 17bd
00000030: 43ce 70bd 58da 9dbb 0758 3fbd 5425 7fbd
-0.0150606055 -0.12090842 0.085903615 -0.002515294 -0.05259519 -0.17667335 0.020933077 -0.039293136
0.117633834 -0.09289178 0.15665826 -0.036902174 -0.058790457 -0.0048172884 -0.04671481 -0.06229146

head.0.weight f4 [128, 1600]
00000000: 3b12 693c cdd6 13bd 9df0 84bd 1a88 c3ba
00000010: b880 3a3d fa43 853d e2a2 733c 0677 853d
00000020: 65ee 383c 3f8e e4bb b6bf 74bc 9c0a 4c3d
00000030: 94d4 5bbd 7093 5a3d 4c06 cfbd c74c f03c
00000040: 42ba f1bc 930a 24bd 8b58 303d cd93 a63c
00000050: 2ef7 b7bd b232 de3b decc 76bd 89ee 96bd
00000060: 3ef1 45bd 67ce d5bc 5842 2ebe 82bb b4bd
00000070: c171 153d daad e43c 874c dcbb 21e6 bcbd
00000080: 8c2a 763d 90ed 96bd c979 363c 6339 1c3d
00000090: 512a ce3d 8e2a 2a3c 4b68 b43d 9d80 723c
000000a0: fbda 19be dbc0 05bc b12f 90bd 0403 01bd
000000b0: 0a2a 173d 707b 7a3d 7c4a bd3d af9f be3c
000000c0: efce a13d 9562 f23d 437b 70bb 7e29 cebc
000000d0: 370e 88bc c350 8fba 62bb 063c 6967 bc3b
000000e0: fb70 033e a3a6 983d 7318 48bd 46de d3bb
000000f0: ef87 34bd 5663 2c3d 9da0 8c3d c437 63bb
00000100: 66c4 013d 2b4a 0cbe fda4 da3d 4c88 9e3d
00000110: 2fdd 01bc fe38 283b 3fad 8cbc a7cc 6a3c
00000120: 474d 3fbc 6fe5 f63c 9531 54bd 4fe1 8b3c
00000130: cbe4 42bd d901 983c 4fd8 02bc 29dc aa3c
00000140: ba14 2abc 43f0 a73c e8f6 263d bd94 933c
00000150: 77d2 dd3d 5bda 8b3d d201 7c3c 9aaf f63c
00000160: 6c53 7d3b fca8 dfbb c8af b63c c3e2 0a3d
00000170: 92e8 cf3c 86b7 8a3c 6d35 7e3d beb1 bd3c
00000180: d083 afbc 785d e03c 742f 2e3d 9450 b3ba
00000190: 5b10 e0bd c49b 8fbe b934 d2be 67d1 4a3e
000001a0: 8ec6 2f3e c826 7ebc fca7 573e 971e 513e
000001b0: 06e8 3f3d 5695 0ebe 3a56 94bc f8ee 3cbe
000001c0: f270 c9bc ff7f 64bc 4ce7 14be 0d7e 893e
000001d0: d18a 98bd d9f2 073d 795f 393d dec1 bf3d
000001e0: 3740 59be 94cf eabd 0504 e1be ca60 a5bd
000001f0: fed4 e0bd d2ce 75be 295c 09bd 1923 423e
00000200: e134 803e deef 1f3e 9448 2dbe 7107 863c
00000210: 6017 0bbe 66b6 7a3c abe0 de3d cf88 803d
00000220: d454 dabd 2169 143e 9efe ef3d 03e6 a23e
00000230: 423a 8cbe 8163 0b3c 1f3b 513d e3fb 3dbd
00000240: 8d6f 703e 6c0a c83e b4e1 c7be 539d 86be
00000250: 5e40 e53d 17cb 02bf 7fe4 d83d a458 49bd
00000260: 0fe6 ae3e c82a c43e 59cb b8bd c184 a13e
00000270: b2cc 893d 789b 793e 92d2 cdbd 4b3d 4a3b
00000280: d082 37bd 6459 babd 944a 1e3e f7c6 613d
00000290: a102 973d ad17 a8be 6b50 943e 0cdf 423e
000002a0: b831 9cbc 877e 413d efaa fcbc 6314 57bc
000002b0: 5d02 f6bd 47fe e13d 61f5 9c3e bf72 8c3d
000002c0: ee4d 543c bb2c da3d 9e2b 4abe 0d3c d1bd
000002d0: 9169 db3a 46e9 10be d497 4f3f a4e8 bc3d
000002e0: 76f7 cc3e f05b 6a3d 9e64 6d3e 4091 24be
000002f0: 383d 103f d633 3bbe fe69 d9bc 266c 3bbe
00000300: 2441 78be 7866 103d f971 a93e f189 2f3d
00000310: d309 ae3e 00db 283d 1797 8d3e a531 56be
00000320: dbad 62be 9336 88be 4de6 9fbe 2fa2 093e
00000330: b1d4 833e a8f4 573c b58d e63d 70cd 2a3d
00000340: 9ce2 c53d 2f30 a3be fd98 58bd ba62 e9bd
00000350: fb58 62bd 6d50 e5bd 05df 75be f5ac fd3e
00000360: 55d1 683d faef b8bd 6224 603d 699e a6bd
00000370: e6ee 67be c3bd 4bbe 2a7a 69be 097e 92bd
00000380: 531b 27bd 8a19 cfbc e845 cebd 5d18 29bb
00000390: 772a da3d e5fb 163d b29f 243e d873 183e
000003a0: ce84 593b bbce dbbd 9a74 2d3d b859 163c
000003b0: bcb6 9bbd 7526 863c dfeb 033e e201 163e
000003c0: be3e a4be 33d5 dc3d 1dd7 56bd 8f5a 37be
000003d0: 3e6e 0ebe 45ce 903e b1e3 83be 11a9 cfbe
000003e0: 3f07 613e 43fd 273e 28b2 c5bd a69e 17be
000003f0: 6569 30bd cdef 3b3d e373 eabd a043 0f3f
0.014225538 -0.036093522 -0.06491206 -0.0014917881 0.045532912 0.06507106 0.014870377 0.065168425
0.011287306 -0.006974965 -0.014938286 0.049814805 -0.053669527 0.053363264 -0.10108623 0.029333485
-0.02950776 -0.040049147 0.04305319 0.020334149 -0.08982693 0.0067809457 -0.06025397 -0.07369716
-0.04832577 -0.026099397 -0.17017496 -0.08824827 0.036485437 0.02791493 -0.00672299 -0.09223581
0.06009917 -0.0736953 0.011137434 0.038140666 0.10066665 0.010386122 0.08808955 0.014801172
-0.1502494 -0.008163656 -0.070403464 -0.031497017 0.036905326 0.061152875 0.092427224 0.023269502
0.079007976 0.11835209 -0.0036694563 -0.02516627 -0.01660834 -0.0010934103 0.0082233865 0.005749632
0.12836067 0.074536584 -0.04885144 -0.006465706 -0.04407495 0.04208692 0.06866572 -0.003467069
0.03168144 -0.13700168 0.10676 0.0774084 -0.007926269 0.0025668736 -0.017172454 0.0143310195
-0.011676139 0.0301387 -0.051805098 0.017075209 -0.047581475 0.018555569 -0.007986142 0.020856934
-0.010380918 0.020500308 0.040762812 0.01801526 0.108311586 0.068287574 0.015381293 0.03011303
0.003865446 -0.0068255644 0.022300616 0.033907663 0.025379453 0.016933214 0.06206267 0.023156043
-0.021425158 0.02738832 0.042525724 -0.001368063 -0.109406196 -0.28048527 -0.4105585 0.19806443
0.17165586 -0.015512176 0.21060175 0.20421825 0.046852134 -0.13924155 -0.018107522 -0.18450534
-0.02458999 -0.013946532 -0.14541358 0.26853982 -0.07448352 0.033190582 0.045257065 0.09363149
-0.21215902 -0.11465374 -0.4394838 -0.08075102 -0.10978125 -0.24004677 -0.033535156 0.18958701
0.25040343 0.15618846 -0.16922218 0.01636097 -0.13583136 0.015302276 0.10882696 0.06276094
-0.10660711 0.14493228 0.11718486 0.3181611 -0.27388197 0.00850761 0.051081773 -0.046382796
0.23480053 0.3907045 -0.39039385 -0.26291904 0.11193918 -0.5109114 0.10590457 -0.0491568
0.34159896 0.3831389 -0.090231605 0.31546596 0.06728496 0.24375713 -0.10049929 0.0030859287
-0.044802487 -0.09099081 0.15458137 0.05512139 0.07373548 -0.32830563 0.28967604 0.19030398
-0.019066676 0.047239807 -0.030843226 -0.013127419 -0.120121695 0.11034828 0.3065596 0.068578236
0.012958033 0.10653063 -0.19743201 -0.10216532 0.0016739835 -0.14151487 0.81091046 0.0922406
0.40032548 0.057216585 0.23182914 -0.16071033 0.5634341 -0.18281493 -0.026539799 -0.18302974
-0.24243599 0.03525397 0.33094767 0.04285616 0.3399187 0.04122448 0.27654335 -0.20917375
-0.22136633 -0.26604137 -0.31230393 0.13440774 0.25748208 0.013180889 0.11257497 0.041699827
0.09662363 -0.318727 -0.052880276 -0.11395784 -0.05526064 -0.111969806 -0.24010856 0.49546018
0.05684026 -0.09030147 0.054722197 -0.08135683 -0.22649726 -0.19896607 -0.22800508 -0.071529455
-0.040797543 -0.025280733 -0.10071927 -0.0025801875 0.10652631 0.03686132 0.16076544 0.14887941
0.003319073 -0.1073279 0.042347528 0.009176664 -0.07603213 0.01637576 0.12882946 0.14649156
-0.32079118 0.10782852 -0.05245124 -0.17905639 -0.13909242 0.2828237 -0.25759652 -0.40558675
0.2197542 0.16405205 -0.09653121 -0.14806613 -0.043069262 0.04588299 -0.11447885 0.5596256

head.0.bias f4 [128]
00000000: 1918 d0bc 4153 d1bd 7e15 753d afd5 f0bc
00000010: 7341 cabd 4f7e 9bbd e319 94bc e91e 8abc
00000020: 6b34 2dbe be98 143e 605c 3d3d 6d2a a1bd
00000030: 4215 923d a683 3dbe 5b24 a6bd f278 18bd
00000040: 1863 463e 3b4f 1f3d d792 3b3d 1840 8c3c
00000050: 8146 5ebd 1497 033c 9e61 e23d 5950 453d
00000060: 4dc7 fe3a 6b37 173e ef9c 0ebd 3a4a c0bd
00000070: 0a10 403c 45b8 b33b 4ddd f63d 7d8d 183d
00000080: 2152 e73b f029 b33d ab13 c63d 23b4 ecbd
00000090: 96e0 5d3d 6369 75bd 2d17 023e 7c01 803d
000000a0: be5a 40be 8171 89bd e4e4 bd3b b532 8abd
000000b0: 0e33 e13d 458a 043e aed8 c2bd 9287 0f3d
000000c0: 859f bdbc b209 273c 05fd 1b3e 46c0 783d
000000d0: ec1b 56bc 1bda de3d 77b1 5e3d 419d ba3c
000000e0: 7a69 b1bd 8375 e43d 6d7e ed3c ff58 843d
000000f0: b067 4cbd dc43 85bd 549d 08bd 2c65 cdbc
00000100: d60e 7bbd 07c0 45bc 111d be3d 5170 22be
00000110: c72e 133e 1caf 45bd c8a5 4ebd 3b27 f63d
00000120: 2a49 143d 7103 9bbd 34f4 cebd ebde f3bd
00000130: f3a3 9cbd 7f5b f33d 722f 8fbd bd41 763c
00000140: f25e 39be 1116 5c3d 1c98 88bc 295d 13bd
00000150: 8f78 893d 99e9 7fbd 054d 533d 1a25 7c3d
00000160: 5378 bd3d 482b 05be c8dd 8ebd 018e 8d3d
00000170: 6ea8 f6bc ff7c 32bd 0f08 1fbe 5b8a 013d
00000180: 58ee 1e3d 401b 593d d533 9e3d ab9c de3b
00000190: 2568 383e 1006 533b 2329 b8bd 848e e63d
000001a0: a001 22bd a890 b13d 9785 40bd 6b5a aa3d
000001b0: 6be0 8bbd 668c 98bd 19cd 90bc 5916 8cbd
000001c0: 1fdc 9a3d 4e95 733d 1c3c 923d 60e3 67bd
000001d0: d58e f1bd 51ff d93d 7c03 313a 8669 acbc
000001e0: ce68 6c3d 38e5 aebc d0ed 2f3e 6679 04bc
000001f0: 4b0f 49bc 8fe8 e63c 701c 67bd 493b 3ebd
-0.025402116 -0.102209575 0.05983495 -0.029398767 -0.09875765 -0.07592451 -0.01807875 -0.016860442
-0.16914527 0.14511392 0.046230674 -0.0786942 0.07132961 -0.18507251 -0.08112403 -0.037224717
0.19373739 0.03889392 0.045794334 0.017120406 -0.054266457 0.008031625 0.11053775 0.04817233
0.0019438058 0.14767234 -0.034817632 -0.093891576 0.011722574 0.005484613 0.120539285 0.03724431
0.007059351 0.08748233 0.0967172 -0.11557796 0.05416926 -0.059914958 0.12704153 0.06250283
-0.18784615 -0.06711102 0.005795108 -0.06747953 0.10996066 0.1294337 -0.095139846 0.0350414
-0.023147354 0.010195183 0.15233238 0.06073024 -0.0130681805 0.10881444 0.054368462 0.022780063
-0.08662696 0.11155226 0.028990949 0.06462287 -0.04990357 -0.06507084 -0.033353165 -0.025072657
-0.061293446 -0.012069709 0.09282888 -0.15863158 0.14373313 -0.0482627 -0.05045107 0.12019201
0.036202587 -0.07569016 -0.10105172 -0.119077526 -0.07648458 0.11882686 -0.06991471 0.015030322
-0.18102625 0.05373198 -0.016674094 -0.035977516 0.06712448 -0.062478635 0.051587123 0.06155882
0.09251466 -0.13004792 -0.06975895 0.06911851 -0.03010961 -0.043576237 -0.15530418 0.031626087
0.03880152 0.053004503 0.0772473 0.0067935786 0.18008478 0.0032199658 -0.08992221 0.112576514
-0.03955233 0.08670169 -0.0470024 0.08318027 -0.06829914 -0.07448654 -0.017675923 -0.068402
0.07561516 0.05946856 0.07140371 -0.056613326 -0.11794821 0.10644401 0.00067525334 -0.021046411
0.057717137 -0.021349534 0.17180562 -0.008085584 -0.0122717125 0.028187064 -0.056423604 -0.046443257
