optim/models/siamese_net_trained_[<ImagePreprocessing.CROPPING: 'cropping'>, <ImagePreprocessing.GREYSCALE: 'greyscale'>].pth (torch, 869646 bytes, 16 tensors)

feature_extractor.0.weight f4 [16, 3, 3, 3]
0.10029517 0.09386715 0.082189105 -0.16018182 -0.26482862 -0.29622442 -0.020277463 0.16628717
0.0933552 -0.11982069 0.014657471 0.014798806 -0.3214064 -0.12268488 -0.27917108 -0.14414763
0.0781714 -0.0853701 0.08931841 -0.04905607 -0.19234498 -0.27984792 0.001224117 -0.24086672
-0.2584063 0.20310596 0.038648076 -0.0031737525 -0.15479876 -0.110917315 -0.041554417 -0.016319027
-0.0855058 -0.010492156 -0.26071122 -0.21247849 -0.0023958955 -0.0338019 -0.14553198 -0.31856897
-0.23401035 -0.08808884 -0.12381348 0.043037087 -0.22549249 -0.09118447 -0.01171111 -0.16274206
-0.25290424 -0.1020899 -0.18073387 0.10313124 -0.086435065 -0.15430243 0.12259854 -0.037763156
0.27328134 0.22850884 0.35949603 0.13853158 0.36987 0.17560571 0.03401881 0.0475597
0.012450968 0.26010364 -0.016759241 0.20590803 -0.13748325 0.20025364 0.17092358 0.22761403
-0.11141068 0.11505886 0.31178725 0.28735366 0.37635055 0.03965877 0.354085 0.20057698
0.23851529 0.16290559 -0.032636683 0.25953475 0.012270323 -0.123008914 0.37099007 -0.17500398
0.054244213 -0.1890193 0.012358565 -0.17302482 -0.03771197 0.10829798 0.01870983 0.32006463
0.066352345 -0.002139047 -0.2343325 0.19048016 0.032343414 0.10147547 0.19449204 0.044234596
0.39734843 0.034814633 -0.10457367 -0.22537008 -0.221248 -0.1710928 0.09499812 -0.03351016
-0.25723356 -0.115791894 -0.048095755 -0.16767727 -0.20842005 -0.32540065 -0.03498371 0.07904141
-0.06929523 0.041554254 -0.26020777 -0.07139341 -0.0060853246 -0.23568848 -0.28912243 -0.03146295
0.22817689 -0.06982913 -0.11723484 -0.08274684 -0.02144829 -0.009581533 0.0757168 -0.09850646
0.03211984 0.29923758 0.027429163 0.024196655 -0.007837515 0.21680261 -0.07857274 0.17235681
-0.05585844 -0.0042257304 0.24543843 0.023495879 0.061504636 0.03364211 0.04160954 0.22244358
0.22850104 0.16270848 -0.061861683 0.15713744 0.20097642 -0.093184106 -0.071937144 0.072265245
0.07904855 0.22049323 0.1634662 0.20638673 0.17139977 0.123833686 0.117690556 0.12484933
0.018487232 0.20435432 0.20448415 0.09202385 0.087315336 0.16732185 0.10271688 0.23192984
-0.06698962 0.087167084 0.102162786 0.09595803 -0.061076846 0.06285488 -0.044597104 0.06757435
0.20611133 0.0076319464 0.25158104 0.10880716 0.1759259 -0.08610384 -0.032028306 0.07805104
0.019736871 0.0034482551 -0.13435227 0.11416268 0.029260244 -0.20168842 0.024830326 -0.31718794
-0.056407783 0.18136077 -0.112649426 -0.029900866 -0.09563776 -0.18925011 -0.13598189 -0.18090639
-0.14660439 0.0026547 0.055869944 -0.20311642 -0.08191057 -0.012630069 -0.17733276 -0.166664
0.094110176 0.0038887227 -0.2227652 -0.018686116 0.12531629 0.030246355 0.016939165 -0.35448745
0.039128095 0.1495089 -0.15023096 -0.07141558 -0.036899284 0.07727428 0.030440623 0.11040584
-0.30292204 -0.212533 0.16920705 -0.2635064 0.078931786 0.09695296 0.013227255 0.25298154
-0.13694164 -0.32958907 -0.29020634 0.006393711 -0.094899036 -0.10309721 -0.057528146 -0.30653623
-0.14065243 0.10412113 -0.406268 -0.14645663 0.095251374 -0.14526123 -0.0013113646 0.11515498
00000000: 8e67 cd3d 6c3d c03d c352 a83d b406 24be
00000010: 9e97 87be baaa 97be ec1c a6bc 2f47 2a3e
00000020: 0331 bf3d 8d64 f5bd e425 703c b176 723c
00000030: 618f a4be 3642 fbbd 83ef 8ebe 709b 13be
00000040: 5418 a03d 85d6 aebd 92ec b63d 05ef 48bd
00000050: 15f6 44be 3a48 8fbe 8d72 a03a c4a5 76be
00000060: d54d 84be 02fb 4f3e 724d 1e3d bbfe 4fbb
00000070: 9183 1ebe 9e28 e3bd f734 2abd 7baf 85bc
00000080: aa1d afbd 4be7 2bbc f17b 85be f693 59be
00000090: 7504 1dbb dc73 0abd 5606 15be 791b a3be
000000a0: 69a0 6fbe ec67 b4bd ec91 fdbd a847 303d
000000b0: 81e7 66be ecbe babd f5df 3fbc dba5 26be
000000c0: aa7c 81be 8214 d1bd 4d12 39be 7936 d33d
000000d0: de04 b1bd 7501 1ebe f114 fb3d 8aad 1abd
000000e0: 88eb 8b3e 39fe 693e dd0f b83e 39db 0d3e
000000f0: 9a5f bd3e fcd1 333e 4f57 0b3d f6cd 423d
00000100: 25ff 4b3c 4e2c 853e ad4a 89bc 8ed9 523e
00000110: 69c8 0cbe 4a0f 4d3e 9706 2f3e a713 693e
00000120: 482b e4bd fba3 eb3d 94a2 9f3e 0520 933e
00000130: 05b1 c03e 3c71 223d a14a b53e 0d64 4d3e
00000140: 5a3d 743e b9d0 263e 0bae 05bd bde1 843e
00000150: 7709 493c 19ec fbbd 69f2 bd3e 3e34 33be
00000160: 2e2f 5e3d 468e 41be 947b 4a3c 6b2d 31be
00000170: de77 1abd 55cb dd3d 5b45 993c 83df a33e
00000180: bde3 873d 412f 0cbb dcf4 6fbe 3b0d 433e
00000190: 877a 043d 5fd2 cf3d ec28 473e 562f 353d
000001a0: 4171 cb3e ca99 0e3d b82a d6bd 6ac7 66be
000001b0: d68e 62be f332 2fbe 608e c23d f341 09bd
000001c0: 1eb4 83be 4d24 edbd 0e00 45bd 97b3 2bbe
000001d0: 116c 55be ea9a a6be 144b 0fbd 76e0 a13d
000001e0: a8ea 8dbd cb34 2a3d f439 85be b536 92bd
000001f0: 6767 c7bb 5258 71be db07 94be 4bdf 00bd
00000200: 34a7 693e 9302 8fbd d218 f0bd 2d77 a9bd
00000210: 53b4 afbc ddfb 1cbc 6911 9b3d c1bd c9bd
00000220: 1890 033d ab35 993e 20b3 e03c 1038 c63c
00000230: ec68 00bc 8101 5e3e bfea a0bd 4e7e 303e
00000240: d2cb 64bd ff77 8abb 3654 7b3e 6e7a c03c
00000250: 49ec 7b3d 4fcc 093d c46e 2a3d 40c8 633e
00000260: 2dfc 693e 0d9d 263e ad62 7dbd a3e8 203e
00000270: c3cc 4d3e 4fd7 bebd c853 93bd cdff 933d
00000280: 35e4 a13d fac8 613e af63 273e 0b57 533e
00000290: 6c83 2f3e 849c fd3d bf07 f13d 01b1 ff3d
000002a0: 8972 973c 4242 513e 4b64 513e 0077 bc3d
000002b0: 62d2 b23d 6b56 2b3e 3a5d d23d 047f 6d3e
000002c0: db31 89bd a884 b23d b93a d13d a585 c43d
000002d0: b72b 7abd 0fba 803d 74ab 36bd 6c64 8a3d
000002e0: d90e 533e 6815 fa3b 3bcf 803e 4ad6 de3d
000002f0: eb25 343e 3657 b0bd 1d30 03bd 39d9 9f3d
00000300: 38af a13c 1ffc 613b a493 09be 20ce e93d
00000310: 2eb3 ef3c 6987 4ebe f868 cb3c 7566 a2be
00000320: d90b 67bd a3b6 393e beb4 e6bd a9f2 f4bc
00000330: bbdd c3bd c8ca 41be d63e 0bbe 863f 39be
00000340: 761f 16be 7afa 2d3b e2d7 643d c0fd 4fbe
00000350: bbc0 a7bd 59ee 4ebc b896 35be f8a9 2abe
00000360: d6bc c03d f1d9 7e3b 901c 64be a013 99bc
00000370: ea52 003e 34c7 f73c 01c4 8a3c 617f b5be
00000380: c844 203d dc18 193e 25d6 19be 5542 92bd
00000390: b423 17bd fa41 9e3d 9d5e f93c 751c e23d
000003a0: 9918 9bbe 40a2 59be 9d44 2d3e 50ea 86be
000003b0: fda6 a13d 468f c63d 21b7 583c cc86 813e
000003c0: 6e3a 0cbe e6bf a8be ed95 94be 5682 d13b
000003d0: 6d5a c2bd a124 d3bd a2a2 6bbd 51f2 9cbe
000003e0: 3107 10be 763d d53d 5c02 d0be baf8 15be
000003f0: 2713 c33d 5cbf 14be 18e2 abba 60d6 eb3d

feature_extractor.0.bias f4 [16]
-0.15399458 0.19258146 0.10078206 0.21015063 -0.04285165 0.10176426 -0.110968545 0.012189795
0.08769691 -0.13298032 0.2899839 -0.10210554 -0.11130136 -0.025218729 0.032640837 -0.20645306
00000000: c1b0 1dbe 1334 453e d366 ce3d ba31 573e
00000010: 3685 2fbd c869 d03d 7a43 e3bd b5b7 473c
00000020: 709a b33d fe2b 08be c578 943e b61c d1bd
00000030: f8f1 e3bd 8297 cebc 66b2 053d 6e68 53be

feature_extractor.1.weight f4 [16]
0.727429 0.5771857 1.2012306 0.8943778 0.64774406 1.009731 1.0647846 0.60193986
0.7479505 0.5926311 0.7353722 1.0240911 1.493029 1.2095039 1.1105831 0.57286763
00000000: c938 3a3f 71c2 133f edc1 993f f2f5 643f
00000010: 8ed2 253f de3e 813f dd4a 883f bb18 1a3f
00000020: af79 3f3f acb6 173f 5a41 3c3f 6b15 833f
00000030: 931b bf3f 06d1 9a3f 9627 8e3f 74a7 123f

feature_extractor.1.bias f4 [16]
-0.089880094 -0.3409405 0.23784888 -0.111807235 -0.36843586 -0.12007198 0.10987199 -0.5022595
-0.20853308 -0.38126388 -0.2663413 0.056275267 -0.32877222 0.38778746 0.089435466 -0.4383937
00000000: 0e13 b8bd c18f aebe a88e 733e 31fb e4bd
00000010: a0a3 bcbe 4ce8 f5bd 9104 e13d 1494 00bf
00000020: b289 55be 0535 c3be e35d 88be e580 663d
00000030: d554 a8be 148c c63e f129 b73d 2475 e0be

feature_extractor.1.running_mean f4 [16]
-2.924573 -4.1071234 6.592759 1.8486787 -3.2580023 3.08269 4.152367 -2.8089066
-1.5466819 -4.4427867 -1.9258242 2.6873674 0.03923816 2.2973614 6.1841087 -3.9734914
00000000: 342c 3bc0 8e6d 83c0 e2f7 d240 81a1 ec3f
00000010: 1c83 50c0 cb4a 4540 31e0 8440 20c5 33c0
00000020: acf9 c5bf 4f2b 8ec0 6881 f6bf d4fd 2b40
00000030: 31b8 203d f807 1340 38e4 c540 af4d 7ec0

feature_extractor.1.running_var f4 [16]
0.6002765 1.4561558 3.2780395 0.21608937 0.9102746 0.69959044 1.4970801 0.5820512
0.22060789 1.4879757 0.45002973 0.65410167 0.038820926 0.42217603 3.1382573 1.134231
00000000: b9ab 193f 5063 ba3f 66cb 5140 8846 5d3e
00000010: c207 693f 5c18 333f 52a0 bf3f 4f01 153f
00000020: 09e7 613e fd75 be3f 4c6a e63e 3573 273f
00000030: b102 1f3d 7527 d83e 35d9 4840 7b2e 913f

feature_extractor.4.weight f4 [32, 16, 3, 3]
-0.2052369 -0.10499863 -0.09040903 -0.19034567 -0.029850636 -0.049892105 -0.025794547 0.001177596
-0.107280344 -0.117883086 -0.032247514 -0.0158439 -0.06999768 -0.02470841 0.015196467 0.05990629
0.009908275 0.02937046 0.29164156 0.2595864 0.11422033 0.09915573 0.060153488 0.023384878
-0.22177036 -0.14906788 -0.14613794 -0.08661696 0.014528569 -0.026434576 -0.14358579 0.0014960358
-0.0047698068 -0.06478132 -0.27470487 -0.32482612 -0.10470854 0.003929274 0.015965415 -0.024672959
-0.008480492 0.07134776 0.027216263 -0.048729107 -0.035446644 -0.060781494 -0.028164247 0.056346145
-0.10587424 -0.056689274 0.024427673 0.025839595 0.008623152 -0.046133563 0.33549985 0.31929708
0.10646771 0.04328557 0.13411814 -0.016355183 -0.15705986 -0.21595988 -0.12142472 -0.12406397
0.0127984565 -0.059914816 -0.1127711 -0.02953181 0.053393725 0.08429933 0.0028434102 0.014100559
-0.12414617 0.22170751 -0.17892843 -0.22829165 -0.05875712 -0.08493179 0.102569245 0.034803305
-0.1958741 -0.03679497 -0.07419599 -0.040586963 -0.07878463 0.068510816 -0.05461168 0.033566
0.08010028 -0.043554094 -0.13153999 -0.14399037 -0.05276455 -0.26855487 -0.058504436 -0.117467634
0.05045955 -0.01853114 -0.009112582 0.2060081 0.2680208 -0.025820065 0.029446391 0.08431694
-0.1417038 -0.043615174 -0.15153547 -0.13650213 0.25876814 0.6554369 0.33644375 0.19899942
0.21823353 0.1827925 0.11967602 0.04371548 -0.14035459 0.08903598 0.07818721 0.16858307
0.07863476 0.105349764 -0.011883888 -0.08473749 -0.050097775 -0.0782708 0.19971721 0.31211835
0.09517768 0.042217337 0.04183971 -0.001174976 -0.24027364 -0.30911657 -0.21354057 0.008918179
0.010282484 0.0016766164 -0.08204247 0.11360275 -0.06288632 -0.014634418 0.041504048 0.045678165
0.30908546 0.13659075 0.13026005 0.04588957 -0.062493555 -0.029292846 0.0022956708 0.0076613203
0.045188483 0.1746372 0.100059785 0.056996986 -0.04359183 -0.07487833 0.10236571 0.01832329
0.0068018404 -0.039217394 0.09835355 0.13686103 0.07624954 0.021728054 -0.09399795 -0.021070253
0.1324083 0.0051709004 -0.05100506 0.14504817 0.12739477 0.019968946 -0.10446261 -0.18189909
-0.08616467 -0.0065370235 -0.033831287 -0.15206356 0.27411395 0.1578394 0.1562255 0.031768974
0.060936622 -0.025924675 -0.060654785 -0.010985151 0.0364446 0.21668467 0.11267846 0.24675277
0.030969782 0.016018063 0.08647546 -0.009860854 -0.10042616 0.057636205 0.11562417 0.0057509565
0.04018377 0.0036155046 -0.091383375 -0.041396298 0.04097734 -0.12659349 -0.07134665 0.061651986
0.028866401 -0.0016270047 0.09539107 0.07968977 0.052771453 0.06325197 0.029001698 0.044891104
0.2721931 0.21838076 0.008379256 0.087935954 0.011008265 0.21076746 -0.08328984 -0.005848461
0.025634324 0.2632597 0.07725069 0.13127625 0.018528908 0.08594255 0.119468875 -0.06581619
-0.04022524 -0.024080371 0.18704794 0.049134895 0.0966428 -0.04770816 0.026805041 -0.012622529
0.07147116 -0.0271937 0.008882272 0.09518254 0.048898973 0.11358407 -0.09422064 0.001567571
-0.010662652 0.06605787 0.02679295 -0.0023683761 0.1066452 0.059659928 0.005129577 -0.030663917
00000000: 9f29 52be 8609 d7bd 5f28 b9bd fae9 42be
00000010: 5289 f4bc aa5b 4cbd 164f d3bc 9159 9a3a
00000020: ccb5 dbbd b06c f1bd f815 04bd 11cb 81bc
00000030: f25a 8fbd 4b69 cabc 9afa 783c 4c60 753d
00000040: 5156 223c 529a f03c 0b52 953e 82e8 843e
00000050: 59ec e93d 2912 cb3d 8163 763d a591 bf3c
00000060: c517 63be 40a5 18be 2fa5 15be 3c64 b1bd
00000070: 3c09 6e3c 538d d8bc 2708 13be a216 c43a
00000080: 0a4c 9cbb 12ac 84bd 1ea6 8cbe 9c4f a6be
00000090: 6e71 d6bd 24c1 803b e7c9 823c f21e cabc
000000a0: c3f1 0abc c61e 923d a4f4 de3c 2c98 47bd
000000b0: 8030 11bd 04f6 78bd b5b8 e6bc 37cb 663d
000000c0: 98d4 d8bd 0333 68bd 8b1c c83c 8fad d33c
000000d0: 1f48 0d3c 8cf6 3cbd a3c6 ab3e e87a a33e
000000e0: be0b da3d 364c 313d 4456 093e 4efb 85bc
000000f0: 4dd4 20be 9624 5dbe 86ad f8bd 4015 febd
00000100: 9eb0 513c 3d69 75bd 89f4 e6bd b2ec f1bc
00000110: 61b3 5a3d 21a5 ac3d 8258 3a3b 0806 673c
00000120: 5940 febd 4b07 633e 0439 37be 49c5 69be
00000130: 4eab 70bd b8f0 adbd d30f d23d e98d 0e3d
00000140: 3893 48be 53b6 16bd 11f4 97bd 843e 26bd
00000150: d659 a1bd 664f 8c3d 7fb0 5fbd 817c 093d
00000160: 9e0b a43d c765 32bd 6bb2 06be 3672 13be
00000170: a41f 58bd 0680 89be 59a2 6fbd df92 f0bd
00000180: acae 4e3d 9ece 97bc f04c 15bc caf3 523e
00000190: 063a 893e 9a84 d3bc 8f39 f13c 5cae ac3d
000001a0: cd1a 11be d3a5 32bd 1d2c 1bbe 37c7 0bbe
000001b0: 427d 843e b6ca 273f 5b42 ac3e 81c6 4b3e
000001c0: 9c78 5f3e f52d 3b3e b418 f53d 010f 333d
000001d0: 1db9 0fbe 7f58 b63d 9e20 a03d 0aa1 2c3e
000001e0: 430b a13d 9ec1 d73d a4b4 42bc d98a adbd
000001f0: 5333 4dbd 714c a0bd ab82 4c3e facd 9f3e
00000200: 84ec c23d 16ec 2c3d 1e60 2b3d a701 9aba
00000210: 4b0a 76be 8744 9ebe 61aa 5abe 8e1d 123c
00000220: dd77 283c e9c1 db3a e205 a8bd 8fa8 e83d
00000230: 8bca 80bd 33c5 6fbc 2600 2a3d 0719 3b3d
00000240: 7340 9e3e 72de 0b3e e462 053e b4f6 3b3d
00000250: 3ef9 7fbd 8df7 efbc f772 163b d00b fb3b
00000260: 8f17 393d 18d4 323e 25ec cc3d ac75 693d
00000270: 598d 32bd cf59 99bd 1da5 d13d b91a 963c
00000280: f9e1 de3b 6ba2 20bd 966d c93d 4c25 0c3e
00000290: b828 9c3d 08ff b13c ff81 c0bd 869b acbc
000002a0: 0b96 073e a870 a93b afea 50bd 8287 143e
000002b0: c673 023e ea95 a33c 7ef0 d5bd c143 3abe
000002c0: 1a77 b0bd 8734 d6bb ad92 0abd 8db6 1bbe
000002d0: aa58 8c3e a7a0 213e 94f9 1f3e 2f20 023d
000002e0: ae98 793d fc5f d4bc 2771 78bd 10fb 33bc
000002f0: ef46 153d 96e2 5d3e f7c3 e63d c2ac 7c3e
00000300: 57b4 fd3c 5038 833c 0c1a b13d 6b8f 21bc
00000310: 3bac cdbd f113 6c3d 5dcc ec3d 8572 bc3b
00000320: bd97 243d 1af2 6c3b 3527 bbbd 2a8f 29bd
00000330: dbd7 273d b9a1 01be 311e 92bd cb86 7c3d
00000340: 3b79 ec3c 3841 d5ba 655c c33d 6434 a33d
00000350: e126 583d 408a 813d f894 ed3c bcdf 373d
00000360: e55c 8b3e 359f 5f3e 2649 093c c417 b43d
00000370: 035c 343c 6dd3 573e dd93 aabd 72a4 bfbb
00000380: 13ff d13c fac9 863e 9c35 9e3d 486d 063e
00000390: f0c9 973c a602 b03d 19ac f43d a3ca 86bd
000003a0: 39c3 24bd 3344 c5bc 7f89 3f3e ac41 493d
000003b0: a9ec c53d a269 43bd 3f96 db3c b9ce 4ebc
000003c0: 795f 923d 53c5 debc f386 113c 10ef c23d
000003d0: 4a4a 483d c49e e83d c0f6 c0bd f476 cd3a
000003e0: 67b2 2ebc 5949 873d e47c db3c c236 1bbb
000003f0: cc68 da3d f85d 743d 0316 a83b e532 fbbc

feature_extractor.4.bias f4 [32]
-0.07976935 0.026305826 0.028665153 -0.020096323 -0.093448915 -0.055022493 0.072189234 -0.05346909
-0.006589862 0.029180745 0.06354694 0.07283053 -0.052721754 0.023733955 0.04287774 -0.091312274
-0.04532047 0.023792615 -0.011203551 -0.025434202 -0.034543246 -0.009506728 0.0060483105 0.055885408
-0.06500915 -0.031357747 0.09140848 0.043064132 -0.08357659 0.0011601367 0.049260322 -0.097013764
00000000: 1d5e a3bd 517f d73c 2fd3 ea3c 0ba1 a4bc
00000010: 2562 bfbd 445f 61bd f3d7 933d 6802 5bbd
00000020: c5ef d7bb 750c ef3c e624 823d 2c28 953d
00000030: c4f2 57bd b66d c23c 92a0 2f3d ee01 bbbd
00000040: f5a1 39bd bbe8 c23c 198f 37bc 635b d0bc
00000050: 387d 0dbd 1bc2 1bbc e830 c63b 19e8 643d
00000060: 8423 85bd fb70 00bd 5f34 bb3d 0464 303d
00000070: 342a abbd ba0f 983a 31c5 493d 27af c6bd

feature_extractor.5.weight f4 [32]
0.9647113 0.8145682 1.2420996 1.083863 0.88252383 0.8490362 0.82885903 0.79917437
0.882834 0.8616837 0.73890936 0.9228456 0.7546826 0.8470441 1.0747983 0.4596645
0.68368065 0.9092801 0.7189431 0.89040244 0.7700513 0.9123596 0.7206454 0.6799704
0.9844518 0.878558 0.9945585 0.92744035 1.0530341 0.9206902 1.3766029 1.1237354
00000000: 52f7 763f 8b87 503f 1ffd 9e3f 06bc 8a3f
00000010: 15ed 613f 705a 593f 1b30 543f b196 4c3f
00000020: 6901 623f 4e97 5c3f 2a29 3d3f 9c3f 6c3f
00000030: e132 413f e2d7 583f fe92 893f 2559 eb3e
00000040: b205 2f3f 95c6 683f a80c 383f 6af1 633f
00000050: 1522 453f 6690 693f 387c 383f 8a12 2e3f
00000060: 0805 7c3f 2de9 603f 639b 7e3f bb6c 6d3f
00000070: d2c9 863f 5ab2 6b3f 8634 b03f 90d6 8f3f

feature_extractor.5.bias f4 [32]
-0.28226823 -0.44721067 -0.29780802 -0.15640077 -0.074517615 -0.09157636 -0.16893062 -0.19237044
-0.21035075 -0.103077225 -0.20109876 0.029990878 -0.18493499 -0.20837818 -0.23404406 -0.1854288
-0.047680423 -0.19881162 -0.2008838 -0.41093338 -0.24576633 -0.47003174 -0.12577277 -0.32098004
-0.20888898 -0.0997303 -0.2929383 -0.043579545 -0.34901386 -0.32821685 -0.28209049 -0.22169438
00000000: 7685 90be ccf8 e4be 4b7a 98be 8627 20be
00000010: b19c 98bd 638c bbbd 26fc 2cbe c2fc 44be
00000020: 3066 57be 271a d3bd d5ec 4dbe 6eaf f53c
00000030: 995f 3dbe 1761 55be 3fa9 6fbe 0ce1 3dbe
00000040: 8c4c 43bd 4695 4bbe 7cb4 4dbe dc65 d2be
00000050: 2baa 7bbe 00a8 f0be 94ca 00be 7f57 a4be
00000060: fee6 55be 663f ccbd 02fc 95be 7780 32bd
00000070: f2b1 b2be 0a0c a8be 2a6e 90be da03 63be

feature_extractor.5.running_mean f4 [32]
0.12652615 1.0770311 3.731017 3.0355258 1.9469607 -1.401776 -0.9214501 0.9980377
-0.20591862 4.3582406 -0.757564 -0.43774244 -1.8062885 1.4776661 1.2586957 0.9844625
1.9310794 1.9094665 -0.97098905 0.46780995 0.888453 0.26822272 -0.1293584 1.3952312
1.7565236 1.9528866 1.1948327 1.6416131 2.4590747 1.209562 2.1665874 -0.36996904
00000000: 1290 013e 28dc 893f fcc8 6e40 0e46 4240
00000010: 0236 f93f 656d b3bf 27e4 6bbf 667f 7f3f
00000020: 55dc 52be b576 8b40 b7ef 41bf c71f e0be
00000030: 7634 e7bf 2a24 bd3f f11c a13f bc05 7c3f
00000040: 9c2d f73f 6669 f43f bd92 78bf c984 ef3e
00000050: a871 633f 7d54 893e 8776 04be f096 b23f
00000060: c4d5 e03f 30f8 f93f 47f0 983f 6120 d23f
00000070: 7b61 1d40 edd2 9a3f 5ea9 0a40 956c bdbe

feature_extractor.5.running_var f4 [32]
3.9329581 5.750584 5.3866267 3.3151243 10.870228 6.2071295 6.1722927 15.193716
3.6965652 3.200042 8.9610195 11.624584 10.739792 8.200016 5.0687637 1.2107081
6.165675 11.750594 6.451863 12.845992 13.622095 9.686707 15.702732 6.843154
3.4056501 4.9967146 3.430411 4.9750495 9.302243 12.9045725 4.0256777 3.104783
00000000: 96b5 7b40 c904 b840 3f5f ac40 ff2a 5440
00000010: 74ec 2d41 cea0 c640 6c83 c540 7619 7341
00000020: 8694 6c40 7dcd 4c40 5660 0f41 4cfe 3941
00000030: 30d6 2b41 4433 0341 5033 a240 7cf8 9a3f
00000040: 364d c540 6f02 3c41 a975 ce40 2f89 4d41
00000050: 1af4 5941 c0fc 1a41 643e 7b41 1efb da40
00000060: 2cf6 5940 16e5 9f40 db8b 5b40 9b33 9f40
00000070: fdd5 1441 2179 4e41 5ad2 8040 c4b4 4640

feature_extractor.9.weight f4 [16, 32, 3, 3]
-0.111552775 -0.04316233 -0.062225413 0.0666417 0.021024277 -0.15662096 -0.13936706 0.036764845
0.20264642 -0.10315525 -0.26844737 -0.10908087 -0.15245119 -0.34630844 -0.28363028 -0.015978029
0.15860674 0.027729746 -0.24093825 -0.1583879 0.17078811 0.26150927 0.19856732 0.068686955
-0.0146745285 0.09572009 0.19885911 -0.18731473 -0.15307726 0.027959473 0.19017386 0.13437484
0.0013659699 -0.12272255 -0.043083988 0.21385051 -0.010699326 0.040020138 0.022526119 0.0999661
0.11478524 0.027482802 -0.09172151 0.07826767 0.12220649 0.03389798 0.07784067 0.026763992
-0.009349896 0.07118697 0.02164182 0.03780991 0.058537755 0.024338419 -0.03855143 -0.08089963
-0.026768768 0.028550059 0.018839825 0.084828705 -0.045205105 0.0090791965 0.08141531 -0.15476312
-0.21870232 0.057246916 -0.0708557 -0.08328441 -0.2636744 -0.065734565 -0.022801332 0.021904059
-0.022828404 -0.03954518 0.05205291 0.057127845 0.011217389 -0.045594927 -0.04919377 0.009672471
0.030779319 -0.12530015 -0.11539694 0.12230869 0.07835475 -0.03583126 0.024061121 -0.10723861
-0.03654019 0.18841253 0.0003488064 -0.0009436047 0.035160143 -0.036419094 -0.032513052 -0.001907953
-0.008032129 0.048622288 0.028562631 0.11069588 0.14738096 0.13193858 0.11064915 0.12977307
0.02104597 0.0013962997 0.019120246 0.15548949 0.027201982 0.043943193 -0.041378606 -0.015370186
0.017347477 -0.0075173946 0.012376364 -0.018056164 0.033376157 0.0040924447 -0.03482899 0.074811615
0.007722429 0.05921918 -0.036386233 -0.068176836 -0.10513803 -0.023142353 -0.031850796 -0.28511348
0.12249873 -0.035677712 0.015242272 -0.034027506 -0.39635786 -0.029932335 0.2710712 -0.039940715
-0.08660571 0.04312469 0.0010849744 -0.12950508 -0.062246937 -0.1000051 0.06737185 0.11478165
-0.04280977 -0.015931727 0.11730847 0.09898852 0.0035859998 0.016088318 -0.006802627 -0.009051785
0.13288844 -0.004782704 -0.10873211 0.15520723 -0.09991867 -0.08552939 -0.13203141 -0.24165197
0.008846229 0.12619808 -0.077730775 0.0062525924 0.025353601 0.027591726 -0.06264765 -0.04727248
-0.015179336 0.0875035 0.06560186 -0.024815518 -0.30774686 -0.13869655 0.0020351724 -0.18905383
-0.26983297 -0.06587639 0.08073501 0.09487377 -0.119326465 -0.19551109 0.073028564 0.05760694
-0.075825475 -0.19589536 -0.00075938774 -0.06717526 -0.14064462 -0.20855309 -0.34185043 -0.019750498
-0.082933426 -0.037287034 -0.26961488 -0.078024745 0.028128196 0.14207083 -0.11661791 0.06571808
-0.03561655 0.16698232 0.13385992 0.026593437 0.0023798756 0.047216054 0.088887 -0.11571186
-0.11231148 0.07611612 0.12806545 0.0032290674 -0.075689934 -0.088687286 0.0069355634 0.16308391
-0.053691704 -0.211055 0.07323685 0.05432393 -0.060915202 -0.13193792 -0.16531013 -0.08540882
0.30305183 -0.098851405 -0.03517348 0.036687758 0.06606783 0.07928378 0.0105979 -0.047447417
0.05793668 0.19338861 -0.047320955 -0.25542983 0.15595844 0.1192169 -0.22853386 -0.09984357
-0.33069858 0.115332834 0.041399755 -0.029007975 0.04805135 0.09961898 0.11095923 0.087271936
0.11183228 -0.068028316 0.07340316 0.16036227 -0.22153716 -0.16690509 0.09021981 0.13521305
00000000: c875 e4bd fcca 30bd 13e0 7ebd 727b 883d
00000010: 1b3b ac3c 3f61 20be 3db6 0ebe bc96 163d
00000020: 8b82 4f3e 0f43 d3bd ef71 89be cb65 dfbd
00000030: 2a1c 1cbe 574f b1be fd37 91be 5be4 82bc
00000040: ce69 223e 7e29 e33c 84b8 76be 7030 22be
00000050: 14e3 2e3e 8be4 853e 3b55 4b3e bfab 8c3d
00000060: 6f6d 70bc e508 c43d b9a1 4b3e 6fcf 3fbe
00000070: 49c0 1cbe 440b e53c f0bc 423e 8f99 093e
00000080: 580a b33a f655 fbbd d678 30bd a1fb 5a3e
00000090: 3a4c 2fbc 28ec 233d b288 b83c 07bb cc3d
000000a0: 8614 eb3d 9d23 e13c 7dd8 bbbd cd4a a03d
000000b0: 6547 fa3d 9cd8 0a3d ee6a 9f3d 2940 db3c
000000c0: 4e30 19bc 79ca 913d 304a b13c 90de 1a3d
000000d0: 49c5 6f3d 5d61 c73c 1be8 1dbd b5ae a5bd
000000e0: 2d4a dbbc d0e1 e93c fa55 9a3c acba ad3d
000000f0: fd28 39bd e9c0 143c 12bd a63d 397a 1ebe
00000100: 80f3 5fbe be7b 6a3d cb1c 91bd 0491 aabd
00000110: 5500 87be d89f 86bd dcc9 babc 2470 b33c
00000120: a202 bbbc 20fa 21bd 6f35 553d e3fe 693d
00000130: 24c9 373c bfc1 3abd 687f 49bd 4979 1e3c
00000140: e924 fc3c af4e 00be 3b55 ecbd fa7c fa3d
00000150: 7578 a03d cdc3 12bd d41b c53c eb9f dbbd
00000160: 2bab 15bd 37ef 403e 01e0 b639 3d5c 77ba
00000170: 1504 103d 302c 15bd 682c 05bd 4714 faba
00000180: 3199 03bc 2a28 473d 2efc e93c 86b4 e23d
00000190: 09eb 163e e81a 073e 069c e23d 3be3 043e
000001a0: 9968 ac3c 0b04 b73a 10a2 9c3c a338 1f3e
000001b0: b1d6 de3c c7fd 333d 9d7c 29bd 3cd3 7bbc
000001c0: 4c1c 8e3c 7a54 f6bb 3cc6 4a3c 85ea 93bc
000001d0: 70b5 083d ea19 863b d8a8 0ebd d536 993d
000001e0: 6e0c fd3b d08f 723d bb09 15bd 4ca0 8bbd
000001f0: 9c52 d7bd 0895 bdbc fb75 02bd 65fa 91be
00000200: 9de0 fa3d cb22 12bd b9ba 793c 6d60 0bbd
00000210: 6bef cabe a834 f5bc d8c9 8a3e e098 23bd
00000220: 565e b1bd 84a3 303d b335 8e3a fb9c 04be
00000230: a5f6 7ebd 79cf ccbd 41fa 893d a412 eb3d
00000240: 4c59 2fbd 4183 82bc 6c3f f03d 7eba ca3d
00000250: 1803 6b3b a6cb 833c 92e8 debb f04d 14bc
00000260: e813 083e 3bb8 9cbb f1ae debd a5ee 1e3e
00000270: 29a2 ccbd 082a afbd 3e33 07be 9d73 77be
00000280: c6ef 103c 123a 013e 5031 9fbd 8ce2 cc3b
00000290: 5bb2 cf3c 0b08 e23c 694d 80bd caa0 41bd
000002a0: c0b2 78bc 0935 b33d 455a 863d ea49 cbbc
000002b0: ff90 9dbe 7806 0ebe 8760 053b 5497 41be
000002c0: 8c27 8abe 33ea 86bd 6658 a53d 2e4d c23d
000002d0: 6f61 f4bd 0f34 48be 0090 953d 41f5 6b3d
000002e0: 634a 9bbd cb98 48be a611 47ba 2f93 89bd
000002f0: 2505 10be f18e 55be 0507 afbe cccb a1bc
00000300: 00d9 a9bd 4aba 18bd f60a 8abe 70cb 9fbd
00000310: 1a6d e63c 047b 113e 5fd5 eebd 3397 863d
00000320: a9e2 11bd 6afd 2a3e 9312 093e 7bda d93c
00000330: b0f7 1b3b 9f65 413d 630a b63d 57fa ecbd
00000340: 9003 e6bd c5e2 9b3d 9723 033e c39e 533b
00000350: 5303 9bbd aea1 b5bd b943 e33b 78ff 263e
00000360: d5eb 5bbd cd1e 58be 34fd 953d c582 5e3d
00000370: 3882 79bd bc1a 07be 0f47 29be d2ea aebd
00000380: 9c29 9b3e 9b72 cabd 1112 10bd e745 163d
00000390: 924e 873d 895f a23d d0a2 2d3c 3958 42bd
000003a0: 034f 6d3d aa07 463e 9ed3 41bd b3c7 82be
000003b0: 92b3 1f3e fd27 f43d c804 6abe c97a ccbd
000003c0: 5351 a9be 9f33 ec3d ca92 293d 22a2 edbc
000003d0: 7ed1 443d 0905 cc3d 983e e33d a1bb b23d
000003e0: 5308 e53d 6e52 8bbd 6554 963d 0236 243e
000003f0: a3da 62be 2be9 2abe 2ac5 b83d 4a75 0a3e

feature_extractor.9.bias f4 [16]
0.15738079 -0.13148743 -0.110755935 -0.10727439 -0.07626457 -0.094107494 0.04179515 -0.06935505
-0.052254412 0.021850843 -0.016965473 -0.116811916 -0.07706646 -0.17073217 -0.05541885 -0.21545146
00000000: 6e28 213e a4a4 06be 02d4 e2bd adb2 dbbd
00000010: 9930 9cbd 6ebb c0bd 6431 2b3d 050a 8ebd
00000020: b908 56bd 8a00 b33c 2dfb 8abc 163b efbd
00000030: 05d5 9dbd 6ad4 2ebe e0fe 62bd 4f9f 5cbe

head.0.weight f4 [128, 1600]
0.017612139 0.1521362 0.043768823 0.058308892 0.11999905 0.047223758 0.043878585 0.03028619
0.010128462 0.012536777 -0.07635653 -0.05039843 -0.014883239 0.106896766 -0.027602388 0.123233
-0.037780136 -0.0783426 -0.08793658 -0.014667126 0.1764819 0.046526127 -0.04251884 0.096309505
0.036519095 -0.026558002 -0.08007375 0.06652542 0.21436438 0.20274751 -0.024009557 0.13610613
-0.11088836 0.10019538 -0.2109102 0.2187775 0.15694539 0.12732776 0.06810261 -0.07078168
-0.22986259 0.12000597 -0.01306456 0.31924736 0.0023048567 0.06325563 -0.113376856 -0.22127834
-0.12910657 -0.120957136 0.0504017 -0.091290504 -0.023253487 0.050957553 0.11359196 -0.012056554
-0.32254684 -0.16834356 -0.11765865 -0.054979187 0.009737821 -0.14841737 -0.00086147065 0.046505995
0.034819297 -0.07155584 -0.3200646 -0.0010644742 0.0069502406 -0.12145556 -0.037820984 -0.107597634
-0.12262287 0.014030223 -0.14953859 -0.059828073 -0.2062549 -0.10762049 0.037068877 -0.05629078
-0.06953021 0.0060135643 0.010686805 -0.2066164 0.09676147 0.07026589 -0.12851404 -0.1122118
-0.030811884 0.002159428 -0.070610836 -0.011423254 0.008284413 -0.17021604 -0.0081007555 -0.01674704
-0.19087166 -0.16678633 -0.11949693 -0.005909134 0.051438943 -0.05269419 -0.044252977 -0.06733511
-0.16075687 -0.003755317 -0.07595897 -0.01633569 -0.04612868 -0.042129986 0.0617049 -0.031992946
-0.028138824 -0.0166314 -0.0349309 -0.061760373 -0.040626984 -0.07234275 -0.08735669 -0.04758725
0.07154831 0.0057037845 -0.031091247 -0.06279966 0.017764451 -0.0077832863 -0.002970738 -0.019863911
0.045219775 0.09426774 0.023488587 -0.051791128 -0.043960214 -0.099768244 -0.034927446 -0.037225302
-0.0062677916 0.08757681 0.09868272 0.11699142 0.04475925 -0.081420586 -0.071094014 -0.07563148
-0.15742235 0.0033602875 0.008728876 -0.041575287 -0.04448261 0.00072037673 0.0632834 -0.07485866
-0.09690381 -0.017355818 0.007414507 -0.08820229 -0.06170012 0.0089762565 0.05395643 0.08765298
0.015663512 -0.09557905 -0.044870898 -0.061206535 -0.2696867 -0.19297366 -0.112006284 0.052279495
0.08848482 0.11040964 0.05779316 -0.10792957 -0.029404726 -0.013727436 0.1618192 0.017074715
0.028415192 0.04491964 -0.12470982 -0.34155026 0.03130955 -0.022331024 -0.029511193 0.05363828
0.04625648 0.057581846 0.04514236 0.028095221 0.01748276 0.023499666 0.0325518 -0.009279088
-0.036071107 -0.22014979 -0.0033071868 0.0066283476 -0.020830724 0.03811913 0.030155564 0.022949608
0.05991754 0.068384215 0.042775284 0.034190442 0.06297891 0.042236373 0.046610367 0.069916345
0.04087017 0.061337445 0.057943918 0.065299526 0.047463078 0.07576819 0.0365759 0.0397992
0.06670636 -0.08583264 -0.07903564 -0.04017379 0.07826108 0.065014265 0.048835848 0.04633092
0.075304925 0.035317283 0.048515506 -0.08881074 -0.053374887 -0.035717916 0.03454668 -0.084175035
0.03766193 0.038638704 0.0746486 0.04240961 0.047879018 -0.057835486 0.062156375 0.053425334
0.07831112 -0.07941468 -0.056453936 -0.0035012367 0.056602728 0.05471975 0.07140987 -0.061675508
0.072149456 0.054304626 0.05864302 0.03683352 0.051082835 0.054067757 0.061204202 0.07030335
00000000: 5547 903c 98c9 1b3e f046 333d 4ed5 6e3d
00000010: 10c2 f53d b36d 413d 08ba 333d be1a f83c
00000020: d9f1 253c 0e67 4d3c d060 9cbd 966e 4ebd
00000030: d4d8 73bc b1ec da3d 671e e2bc 9561 fc3d
00000040: 58bf 1abd 1672 a0bd 1818 b4bd 634e 70bc
00000050: acb7 343e 2e92 3e3d 3c28 2ebd eb3d c53d
00000060: 0c95 153d 2b90 d9bc b5fd a3bd 7b3e 883d
00000070: 5682 5b3e 0b9d 4f3e b1af c4bc 685f 0b3e
00000080: 7019 e3bd 3c33 cd3d d8f8 57be 3507 603e
00000090: 4bb6 203e 3562 023e 6279 8b3d fcf5 90bd
000000a0: 1961 6bbe b1c5 f53d bc0c 56bc 6474 a33e
000000b0: 140d 173b 2b8c 813d 2032 e8bd ca96 62be
000000c0: 8334 04be 60b8 f7bd 0372 4e3d 84f6 babd
000000d0: 197e bebc deb8 503d e7a2 e83d da88 45bc
000000e0: dc24 a5be 4162 2cbe 05f7 f0bd db31 61bd
000000f0: 628b 1f3c b9fa 17be 51d4 61ba 127d 3e3d
00000100: ae9e 0e3d de8b 92bd 82df a3be d485 8bba
00000110: d8be e33b b1bd f8bd 2dea 1abd 265c dcbd
00000120: b321 fbbd 05df 653c a520 19be 480e 75bd
00000130: 7c34 53be 2268 dcbd 89d5 173d 2991 66bd
00000140: db65 8ebd 6f0d c53b b517 2f3c 4093 53be
00000150: e12a c63d 90e7 8f3d 2f99 03be 4dcf e5bd
00000160: 3469 fcbc 3185 0d3b 6a9c 90bd 9a28 3bbc
00000170: 59bb 073c 1d4d 2ebe 08b9 04bc 1731 89bc
00000180: dc73 43be 09ca 2abe ceba f4bd 69a1 c1bb
00000190: a4b1 523d ddd5 57bd 9c42 35bd fde6 89bd
000001a0: 739d 24be c41b 76bb 6090 9bbd 6dd2 85bc
000001b0: 6df1 3cbd 7e90 2cbd 47be 7c3d 090b 03bd
000001c0: 6483 e6bc 933e 88bc b413 0fbd 72f8 7cbd
000001d0: 7b68 26bd 7028 94bd 10e8 b2bd d9ea 42bd
000001e0: ec87 923d d0e6 ba3b 12b3 febc 1c9d 80bd
000001f0: c186 913c f00a ffbb b7b0 42bb a4b9 a2bc
00000200: 5f38 393d 720f c13d 236b c03c ef22 54bd
00000210: a00f 34bd 4b53 ccbd 1510 0fbd 8f79 18bd
00000220: 0c62 cdbb 785b b33d 2a1a ca3d 3399 ef3d
00000230: 7a55 373d d6bf a6bd bd99 91bd ade4 9abd
00000240: 5333 21be 4538 5c3b 8f03 0f3c d94a 2abd
00000250: 6633 36bd aad7 3c3a ba9a 813d 7f4f 99bd
00000260: 8175 c6bd ca2d 8ebc 65f5 f23b 67a3 b4bd
00000270: 44b9 7cbd 2611 133c 6b01 5d3d 6883 b33d
00000280: c450 803c f3be c3bd 8cca 37bd b4b3 7abd
00000290: 6014 8abe e39a 45be 8d63 e5bd 0623 563d
000002a0: 8837 b53d 731e e23d 85b8 6c3d 2e0a ddbd
000002b0: 2ee2 f0bc 0ae9 60bc efb3 253e 46e0 8b3c
000002c0: fac6 e83c a8fd 373d dd67 ffbd addf aebe
000002d0: 713e 003d 8def b6bc 75c1 f1bc d0b3 5b3d
000002e0: 6f77 3d3d f1da 6b3d 32e7 383d f327 e63c
000002f0: 0138 8f3c 5f82 c03c 0955 053d 5107 18bc
00000300: 4cbf 13bd f26e 61be 63bd 58bb 9c32 d93b
00000310: 32a5 aabc ce22 1c3d cd08 f73c d100 bc3c
00000320: 186c 753d 060d 8c3d 2335 2f3d 470b 0c3d
00000330: 16fb 803d 0c00 2d3d 83ea 3e3d 4d30 8f3d
00000340: 7b67 273d f93c 7b3d 9a56 6d3d c2bb 853d
00000350: a568 423d 5a2c 9b3d 9cd0 153d 7c04 233d
00000360: 589d 883d 06c9 afbd 70dd a1bd 468d 24bd
00000370: 5847 a03d 3326 853d 1908 483d 7ec5 3d3d
00000380: 7839 9a3d dba8 103d 32b8 463d 68e2 b5bd
00000390: a09f 5abd f34c 12bd d280 0d3d f663 acbd
000003a0: 6543 1a3d 9e43 1e3d 5de1 983d b3b5 2d3d
000003b0: ca1c 443d e7e4 6cbd af97 7e3d 86d4 5a3d
000003c0: 9561 a03d 2aa4 a2bd 3e3c 67bd 0175 65bb
000003d0: 43d8 673d d121 603d 573f 923d 759f 7cbd
000003e0: 18c3 933d 876e 5e3d aa33 703d bfde 163d
000003f0: 3c3c 513d 2776 5d3d 42b1 7a3d 34fb 8f3d

head.0.bias f4 [128]
0.015650876 -0.15473045 0.07060803 -0.037898168 -0.009675871 0.01444841 0.074277826 -0.13997091
0.236358 0.04673844 0.03619166 -0.036398523 -0.04281441 -0.13459256 0.17909989 0.02314671
0.047859725 0.22379676 0.010111576 -0.06283476 0.15873474 -0.11794548 0.12788287 0.13045436
-0.054610178 0.0059960918 -0.06500165 -0.032555826 -0.14741446 0.06265585 -0.05052572 0.027780551
-0.036060333 -0.00949199 0.1686153 -0.11251497 -0.04383706 0.12725173 0.048154846 -0.10157238
-0.060583483 -0.050506078 -0.020306066 -0.09389484 -0.019720139 0.031549726 0.26168737 0.032630533
0.08518039 -0.050102063 -0.0018434238 0.020858003 -0.17964895 -0.25005764 0.15243661 0.09611975
0.03291278 -0.08891889 -0.016026 -0.049949896 -0.020656707 0.03147529 0.13687792 -0.025559504
-0.10429991 -0.18958358 0.24836633 0.083661675 0.08772295 -0.044795327 0.12896909 -0.08966953
-0.12725867 -0.185633 0.08046879 0.09913631 0.0136072785 -0.03835502 0.06286725 0.07502439
0.009402804 0.041075327 -0.013984824 0.088477135 0.060885347 -0.14688441 0.019376373 -0.110318914
-0.20398343 0.07033754 -0.033379503 0.06274609 0.017643573 0.0086605195 -0.034383755 -0.043318924
-0.08962425 -0.03576068 -0.016007578 -0.02378887 -0.16983148 0.09778936 0.21162163 -0.0231079
-0.01266546 0.001842513 0.030543735 0.046320874 -0.063383 -0.0437004 -0.05730947 0.06304804
0.028559284 0.11980307 -0.005524985 0.17146894 0.048563283 -0.15038872 -0.010259987 0.111906506
0.23808497 -0.1374299 0.24078967 -0.111976475 -0.032865405 -0.26379424 0.033302955 0.0124186035
00000000: 4436 803c a971 1ebe f19a 903d 1c3b 1bbd
00000010: 8b87 1ebc 06b9 6c3c f91e 983d 8954 0fbe
00000020: d507 723e ce70 3f3d b53d 143d 9e16 15bd
00000030: 2a5e 2fbd a2d2 09be f665 373e 2b9e bd3c
00000040: 8f08 443d fa2a 653e 06ab 253c 83af 80bd
00000050: 5c8b 223e 668d f1bd baf3 023e d495 053e
00000060: ecae 5fbd dd7a c43b 961f 85bd 4259 05bd
00000070: d1f3 16be b651 803d 0ff4 4ebd 0a94 e33c
00000080: 00b4 13bd 4b84 1bbc 7da9 2c3e 406e e6bd
00000090: 7d8e 33bd 474e 023e 043e 453d 2e05 d0bd
000000a0: 6326 78bd 76df 4ebd e858 a6bc f04b c0bd
000000b0: 218c a1bc 493a 013d e3fb 853e 98a7 053d
000000c0: 0e73 ae3d d237 4dbd 0a9f f1ba 67de aa3c
000000d0: e5f5 37be 8e07 80be 5818 1c3e 6eda c43d
000000e0: 8dcf 063d 1b1b b6bd f548 83bc 4398 4cbd
000000f0: 4138 a9bc 3cec 003d ba29 0c3e 2a62 d1bc
00000100: 319b d5bd 3322 42be be53 7e3e d056 ab3d
00000110: 17a8 b33d 4e7b 37bd 7910 043e a9a4 b7bd
00000120: 1950 02be 9416 3ebe d2cc a43d fa07 cb3d
00000130: 10f1 5e3c 271a 1dbd 8bc0 803d 63a6 993d
00000140: 380e 1a3c 9a3e 283d 9a20 65bc 8033 b53d
00000150: ea62 793d de68 16be 33bb 9e3c e2ee e1bd
00000160: 08e1 50be 210d 903d f2b8 08bd 0681 803d
00000170: 4189 903c dae4 0d3c fbd5 0cbd 2f6f 31bd
00000180: eb8c b7bd ca79 12bd 5322 83bc e0e0 c2bc
00000190: 4ee8 2dbe ca45 c83d 57b3 583e c74c bdbc
000001a0: ca82 4fbc 7a80 f13a db36 fa3c f5ba 3d3d
000001b0: f2ce 81bd 31ff 32bd 56bd 6abd 551f 813d
000001c0: 29f5 e93c 505b f53d ef0a b5bb 8e95 2f3e
000001d0: 4bea 463d 80ff 19be 8119 28bc 3d2f e53d
000001e0: 8ccc 733e 6cba 0cbe 9191 763e ec53 e5bd
000001f0: e09d 06bd 0a10 87be ae68 083d 6677 4b3c
