optim/models/siamese_net_trained_[<ImagePreprocessing.CROPPING: 'cropping'>, <ImagePreprocessing.BACKGROUND_REM: 'background_rem'>].pth (torch, 869930 bytes, 16 tensors)

feature_extractor.0.weight f4 [16, 3, 3, 3]
00000000: 4c24 0dbe f0bb babd 30e6 e2bd 81fc ca3d
00000010: b7b5 3dbe 2351 0d3c 1107 adbd 7b84 febd
00000020: 160f b03d 89d9 6fbe 40ce e13d d4ae 46bd
00000030: 0d6f 593d a19d 96bd 34ea 22be 9f67 6c3d
00000040: 621f c1bd 0934 04be 811e 3c3e 8b50 b13e
00000050: f84c 193e c4ee 243d 6135 613e ba10 af3e
00000060: 6379 bb3e 28f1 d73d 6925 b73e a42f 83be
00000070: 1dc8 e0bd 048b 59be e910 7ebe 12cf 193d
00000080: 36c7 5dbd 9f08 dbbd 38bc c63c a2a3 97bd
00000090: f9e9 80bd 904a 2b3d 787d da3d efae 0e3d
000000a0: a842 b43d 23c4 493e e5d6 a3bd 24a1 763e
000000b0: 3c26 743e e9d5 07be 053b 6ebe e7cf 35be
000000c0: 5fc0 b43d 697a 54be 8b3b 82bd bc38 9f3d
000000d0: ac38 aabd c051 3a3e b82a a8bd f7b5 5ebe
000000e0: ecb7 75be 0c8b bf3d 6f45 293e 87ca f3bd
000000f0: 47af c0bd 8eac d5bd d453 043e d9ec 33be
00000100: d660 fdbd edd6 97be 8527 76bd c5a1 2c3e
00000110: 364e 43be bdb1 38be d5d1 cc3d 5d2a fdbd
00000120: 7114 2dbd 36aa f43d dacc 1fbe cf9a faba
00000130: 77e2 c43c 2d29 63be 2c3d 24bd bc4c c53d
00000140: e4c0 2b3d 3111 86be 7461 07be 437c 39be
00000150: 9b71 b3bd 0d25 a2bc c403 dbbc 3b71 3d3c
00000160: df63 9f3d 6c2c 423d 8d0b af3d 56e7 9a3d
00000170: 3d1e 8cbe f81d ca3d 168b 8d3b 1ad8 18be
00000180: 1bc1 8dbd 1e2d 3ebe 2506 8abd 7822 afbd
00000190: 08af 8cbe ffef 45bb 50bf 76be 0e49 1bbe
000001a0: 102f fabd 34db 843d a2ab f3bc 1f93 6ebe
000001b0: e1b9 84bd 226c f7bd 47c7 a53e 7728 843e
000001c0: 4d1b eb3e ccdc 083f 5584 d63d e332 183d
000001d0: 6481 153f 469a 5ebd 19df 193d 4350 913c
000001e0: 2221 54be b4bb 0a3e 5714 bf3d 3ece 7f3d
000001f0: a0cb b53d 49a8 8d3c 6438 50be 2adb cebd
00000200: b4d3 ac3c 1b31 0abd aac0 2ebd b54e 023c
00000210: cf62 9bbd 669a 95be 3376 10bb 7024 8abd
00000220: a252 293e f09f 8f3d c254 07bc a38e 293e
00000230: 37b0 de3d c058 5e3e 2797 ba3d d903 a73e
00000240: f2f4 b3bd 67e8 173e 6794 043c 4fdf 143d
00000250: 1617 dd3e 0fb7 613e bfe7 303d 980b ad3e
00000260: fd0e 933e d0ef e3bd 5059 88bd 007e 7cbd
00000270: a406 083d ff5f 84bd 17bc 27be 9eda e33d
00000280: 1fe5 1c3d c765 c93d 5c9e 15be 819f 08be
00000290: 382f afbc 9096 c0bd 0186 223e 810c 10bd
000002a0: d2d5 bcbd b613 2dbe 9ffb 6d3d 0b69 42bd
000002b0: 2810 50bd a2d9 5cbd c99e d33d 21ec 2abd
000002c0: a7bb 6fbd 6ebf e3bd e6ab 14be bf1c a43d
000002d0: 1451 9f3e 1975 ba3e a36f be3d 2ac6 a63c
000002e0: dd17 993e 3350 c33e c4d1 a03e ccc1 403e
000002f0: 63b3 5a3e 9c72 3cbd 8046 ebbd d45f 04bd
00000300: fd8c 6cbe b289 06be a1e1 8dbd 3c64 c5bb
00000310: c7dc 2bbd 88ff eabd fef7 e7bd 7e33 353d
00000320: ffdd 95bd fed8 4a3d 95a8 283e e57f a63e
00000330: 6383 eb3d 4837 8e3e dd71 a13e 48e4 b5bd
00000340: 80ef c33c fbc8 9abd d55b 763e 4b4c 283e
00000350: b109 a23e 5600 d33d cfd8 873d 8807 943c
00000360: 3d0f b03d 625c 413e f79a 10bd 2888 193e
00000370: 045f 5c3e 169e 1a3e 87bc 843d 53f6 cd3e
00000380: f524 af3e 162d 1abe d5a8 48bd e10c c1bd
00000390: 24f3 d03d 688f 21be afc4 ce3c 8cbb 1bbe
000003a0: df37 663d 9c2a 0bbe 79f4 8b3e 0eb7 8b3e
000003b0: 6f5f 8bbd 7595 ad3c 189c 8e3e 58e1 48be
000003c0: 914b 413e 37a4 323e d5b3 1d3d d6db 08be
000003d0: 6620 4dbe 2242 6cbe 8be3 ac3c 5570 c63d
000003e0: e690 26be 3de7 7bbe 3978 35be 7899 c13c
000003f0: 2787 df3d d568 8f3b 4121 ffbd 654e 073d
-0.13783377 -0.091178775 -0.11079061 0.099114425 -0.1852635 0.0086253015 -0.084486134 -0.124276124
0.085966274 -0.23422827 0.11025667 -0.048506573 0.053084422 -0.07354284 -0.15909654 0.05771601
-0.09429814 -0.12910475 0.18371011 0.34631762 0.14970767 0.040266767 0.21993019 0.3419245
0.36616048 0.10544044 0.3577073 -0.25622284 -0.109756686 -0.21244437 -0.24811138 0.037550993
-0.05414506 -0.10695004 0.024259672 -0.07404257 -0.06294627 0.041819155 0.106684625 0.0348348
0.08801776 0.19703726 -0.07999972 0.24084908 0.2384271 -0.13265194 -0.23264702 -0.1775509
0.088257544 -0.20749821 -0.06359013 0.07774493 -0.083115906 0.18195248 -0.08211273 -0.21749102
-0.23995942 0.09352693 0.16530393 -0.119038634 -0.094084315 -0.10433303 0.12922603 -0.17570819
-0.123719856 -0.29656163 -0.060096283 0.16858585 -0.19072804 -0.18036552 0.1000096 -0.12361596
-0.042255823 0.11946528 -0.15605488 -0.0019119623 0.024033768 -0.22183676 -0.0400974 0.096337765
0.041932 -0.2618499 -0.13220769 -0.18113808 -0.08761903 -0.019793058 -0.026735194 0.011562641
0.07782721 0.047405645 0.08547125 0.07563655 -0.2736682 0.09868997 0.004319559 -0.14926186
-0.069215976 -0.18571898 -0.06739453 -0.08551496 -0.27477288 -0.0030202863 -0.24096417 -0.15164587
-0.12216008 0.06487122 -0.029744927 -0.2329831 -0.06480766 -0.120811716 0.323786 0.25812122
0.45919266 0.5346191 0.10474459 0.037157904 0.5840056 -0.054346345 0.037566278 0.017738467
-0.20715764 0.13548166 0.093300514 0.062452547 0.08876729 0.017292159 -0.20334011 -0.10100396
0.021097042 -0.033738237 -0.042664208 0.0079533355 -0.075872056 -0.2921936 -0.0022043108 -0.06745231
0.16535428 0.070129275 -0.008259954 0.16558318 0.10873454 0.21713543 0.09110861 0.32620123
-0.08786954 0.14834748 0.0080920225 0.036345776 0.43181676 0.22042488 0.04318976 0.33797908
0.28722373 -0.11129725 -0.0665766 -0.0616436 0.033209458 -0.06463622 -0.16380344 0.11125682
0.038304444 0.098338656 -0.1461119 -0.13342096 -0.02138482 -0.094037175 0.15871431 -0.035168175
-0.092204705 -0.1690205 0.058101293 -0.047463458 -0.050796658 -0.05391849 0.1033302 -0.041729096
-0.05852857 -0.11120497 -0.14518699 0.080132954 0.31116545 0.36417463 0.09298637 0.020358164
0.2990102 0.38147125 0.31410038 0.18823928 0.21357493 -0.046007738 -0.11488056 -0.03231795
-0.23100658 -0.13138464 -0.06927801 -0.0060239118 -0.041958597 -0.1147452 -0.11326598 0.04423856
-0.07317733 0.049523346 0.16470559 0.3251945 0.114996694 0.2777655 0.31532183 -0.08881432
0.023917913 -0.07557865 0.24058469 0.16435353 0.3164802 0.103027984 0.0663315 0.018069997
0.085966565 0.18882897 -0.035304036 0.14993346 0.2152062 0.15099367 0.06481271 0.40226993
0.34207883 -0.15056261 -0.048989136 -0.094262846 0.102026254 -0.15777361 0.02524027 -0.15208262
0.056205627 -0.13590473 0.27334955 0.27288097 -0.06805312 0.02118943 0.27853465 -0.19617212
0.18876483 0.17445455 0.03850158 -0.13365111 -0.2003189 -0.23072103 0.021104595 0.096893944
-0.16266212 -0.24599929 -0.17721643 0.02363275 0.1091445 0.0043765106 -0.124575146 0.033033747

feature_extractor.0.bias f4 [16]
00000000: 5d56 89be db82 743e 46cb e33d 80f1 a9bd
00000010: 028c 283d 0673 26bc b616 b0bd 41c9 af3d
00000020: 6339 7fbd 1889 b0bc 7e89 4c3c 53a2 eb3d
00000030: ed37 9abd 4f56 6ebe 485b 093d f1d7 37bc
-0.26823702 0.23878042 0.11122756 -0.082980156 0.041149147 -0.01015926 -0.08598082 0.08583308
-0.062310588 -0.021549746 0.012483953 0.1150557 -0.07530198 -0.23275112 0.03353432 -0.011220918

feature_extractor.1.weight f4 [16]
00000000: 39b6 5f3f a115 833f 8145 7d3f be3f 663f
00000010: 26fc 8f3f 90da 763f 4d8e 893f 28f1 503f
00000020: 3b74 7c3f beba 773f c692 763f 61ce 753f
00000030: 745f 693f 303c 723f dbef 6d3f d57a 7b3f
0.87387425 1.0240976 0.9893418 0.8994101 1.1248825 0.9642725 1.0746552 0.81617975
0.98614854 0.9676932 0.9631771 0.96018034 0.91161275 0.9462309 0.92944115 0.982343

feature_extractor.1.bias f4 [16]
00000000: 5c51 88bd 82ca 1ebe 25c5 06be 9e5d 6bbe
00000010: a6f2 1bbd e76a 39be 929d 25be 330c 6dbe
00000020: 17e9 4ebe 9548 51be 17a7 1bbe e2ed df3c
00000030: 9ba3 ecbd a7f3 bebd 37ba 82be 9de0 683e
-0.06656143 -0.15506938 -0.13161142 -0.22984931 -0.038073204 -0.18107186 -0.1617339 -0.23149185
-0.20206104 -0.20437844 -0.15200458 0.027335111 -0.11554643 -0.09323817 -0.25532696 0.22741933

feature_extractor.1.running_mean f4 [16]
00000000: 0d52 d0bf f643 cb3f 7632 4940 0f9d 7840
00000010: dcb7 58c0 32c9 8fc0 0e41 02c0 edc2 d8bf
00000020: 8af4 7ac0 24bb 5d40 33f9 7fc0 cf55 3940
00000030: c374 0440 3d40 bbc0 6d28 2bc0 b108 7140
-1.627504 1.5880115 3.143705 3.884586 -3.386222 -4.49331 -2.0352206 -1.6934487
-3.9211755 3.4645472 -3.999585 2.8958623 2.0696266 -5.8515916 -2.6743424 3.7661555

feature_extractor.1.running_var f4 [16]
00000000: be71 c73e 7696 2a3e 4a4a b53e e8fa 2e3f
00000010: 57b6 de3e fc32 1e3f 08c1 003f e990 843e
00000020: fc9c 253f b5be ee3e 9d9e 3b3f f934 963e
00000030: 5684 643e f1e5 943f 4f4e a23e f66c 0a3f
0.38953966 0.16658959 0.3540824 0.683516 0.4349849 0.61796546 0.5029454 0.25891808
0.64692664 0.46629873 0.732889 0.2933729 0.22316107 1.1632673 0.3170037 0.5407251

feature_extractor.4.weight f4 [32, 16, 3, 3]
00000000: 1de2 563e 11f9 1a3e 68db 283e 94dc d43d
00000010: e005 ffbd aa0f 84bd 18f0 e93c 2ac1 03be
00000020: 288a afbd ccd9 593c 6b3f 4d3d 04e7 a7bd
00000030: a614 06bb acea cabd 840d c6bd 86f2 10be
00000040: 03e4 efbd c5c3 2abe 8b0f 2b3e 1c08 993d
00000050: b1e8 883d f868 583c b5e6 0abe f6ec 9dbd
00000060: 994c 04be 508e 86bd 4750 81be 5f8d 6f3b
00000070: 795d 933d fec5 e43b 5da0 a6bd 6001 c9bd
00000080: 51fe debd 4d0d a7bc ca27 e0bb 4cc2 9ebd
00000090: 8087 543e 6466 5f3d 0e63 f43b c6f2 593c
000000a0: 01a8 a2bd cfd0 1fbe bf5e db3d a308 dcbd
000000b0: 5c98 acbc 9c6c 883e e263 c03d aed8 443d
000000c0: 7ced 413e 6348 0dbe 4e21 e7bd 45ec 723c
000000d0: ffdc c5bd ac8d fcbd 6447 243e 0e13 763d
000000e0: 17df 203e 0a4d 333d 86b0 96be e902 4bbe
000000f0: f99c 2dbd ba5f 95be 1cc0 2ebe d638 d93d
00000100: 6374 7c3d da19 73bc 0988 55bd 823e 66bd
00000110: 082e 833c 1806 acbd a4aa 3cbe 2734 fdbd
00000120: cd97 5f3e 3ba2 c6bb 85ef 5bbd 2e1e cf3d
00000130: 6523 8ebd 8708 3abe 78c1 973c 039d 9ebc
00000140: ce5a 16be e0f2 fdbc bbc0 0c3e 687e 343e
00000150: 70ad cc3a 613f 90bd 9d6a a53d 8b94 093d
00000160: bef9 bfbd e499 1fbd f0ae bc3e b366 0c3e
00000170: ed3d 303e af60 a43d c6a6 41be adea 7dbd
00000180: a886 ca3c 5362 5abe 4482 f8bd 58dc c4bc
00000190: 68db 1f3d 932e 7d3d 66ca c43d 092a 27bd
000001a0: 74ad 5bba aac8 853c 1bc2 403c b50e 32bd
000001b0: 0af2 893c 2f87 b1bd f6ed 0a3d d625 5fbd
000001c0: 5a87 9f3d 79ac 013e bba4 f9bc 8414 ff3c
000001d0: 10fa c33d c6da a23e ebdd 563e f63d c93c
000001e0: 83c8 523e aa21 00be e627 1ebe d194 d53c
000001f0: 9849 1ebe a354 21be 863e 443e a1e0 4f3e
00000200: b2a4 29bc 60f8 e33d dada 04be 8f73 8abd
00000210: a9ca b93c 8ee6 4bbe 4b5a 7bbe 04a9 eebc
00000220: 0244 043e a9b1 f53d 0aca 933d 6e5d 3e3e
00000230: 8082 2e3e c841 97bd f1a5 173e bfd0 d43d
00000240: 08c6 76be 717c f6bd bd00 b6be c115 21be
00000250: 2e1c 7bbd b4a3 57be 0b9c 4c3e d084 0e3d
00000260: 56a7 1f3c aadf cabd ebf4 edbd e963 c3bd
00000270: d977 a6bd 439b d23d 70c8 ccbc 4e7e 633e
00000280: 8055 0c3e 5de8 153e b906 8cbd ae62 bc3d
00000290: 6f0a 74be 8fbe 8bbc b7b5 2f3e f356 633d
000002a0: 5efe ae3d eaca 4f3e 7d00 3f3e 4dd8 97bd
000002b0: 0b73 073d 593b b13d fc02 43bd 6119 0b3e
000002c0: 67b6 093e 5703 8f3d a07f 953d 1896 013e
000002d0: 061c 963d da74 cf3d 2d7d 57bd 47ea 183d
000002e0: ab7d 843d c90f 253d 13fc 9d3d ca71 3e3e
000002f0: 3a0c f43d 3a86 e73c 98b7 c13d bfdc 08bd
00000300: 615e 9abc dc61 203e deda ad3d 0d0a 513e
00000310: 58dc 493e 6319 4e3e 60a5 9b3d f56a 6c3d
00000320: c248 2ebe 1168 cdbd d91a cf3d ab92 d0bd
00000330: f20a 443e 26b2 673e bd3d 3e3e 60a8 053d
00000340: d32f 1b3c 55c2 eabd 7791 513d b18a 853d
00000350: 2a5b 893d 6bfd b73d 50b3 273e e509 8c3d
00000360: dd83 e93c eb34 fa3d c4b9 053d 678b c03d
00000370: feb3 393e a5f5 fc3d c6b4 073e 194e 803e
00000380: d42e 193e 2c4a 9dbd 7950 1d3c 5fb3 b9bd
00000390: e1dd b9bc 1348 013e 2f78 ecbb 4f74 bcbd
000003a0: 5724 e63d 651a 483d 1b7a 1a3d 6b5a 3a3d
000003b0: e16c 13bd 8d4c 403d 3066 db3d 9cf5 f83d
000003c0: 9eda ae3d b985 223e 594f 073e 575f 5fbd
000003d0: 3017 3e3d d20d 71bd b9f9 afba 73f1 af3d
000003e0: 78d3 843c fa67 40bd 7176 d33d 3000 c33d
000003f0: d348 2ebc df8c 593d d3b5 bc3c dfec 833d
0.20984693 0.15134074 0.16489947 0.103936344 -0.124522924 -0.064483 0.028556868 -0.12866655
-0.08571273 0.013296556 0.05010931 -0.081983596 -0.0020459085 -0.09908041 -0.09670547 -0.14155015
-0.11713412 -0.16676243 0.16705148 0.0747225 0.06685007 0.01320862 -0.1356457 -0.07711212
-0.12919845 -0.06570113 -0.2525656 0.003655277 0.07195563 0.0069816103 -0.081360556 -0.098147154
-0.10888351 -0.020392084 -0.0068406807 -0.07751903 0.20754814 0.054541007 0.0074580973 0.013302511
-0.079422005 -0.15606998 0.10711431 -0.10743835 -0.021068744 0.26645362 0.09394051 0.048058204
0.1893825 -0.13797145 -0.11285649 0.014826839 -0.09661292 -0.12331709 0.16042858 0.060076766
0.15710102 0.043774642 -0.29431552 -0.19825329 -0.04238603 -0.29174596 -0.17065471 0.10606544
0.061634433 -0.014837706 -0.052131686 -0.056211956 0.01601316 -0.083996 -0.18424469 -0.12363463
0.21835251 -0.00606182 -0.05369522 0.10113178 -0.06940345 -0.18167315 0.01852487 -0.019361978
-0.14683077 -0.0309996 0.13745396 0.17626345 0.0015615653 -0.070433386 0.080769755 0.033588927
-0.093738064 -0.03896512 0.36852217 0.13711052 0.17211123 0.080262534 -0.18911275 -0.061991382
0.024722412 -0.2132657 -0.12134221 -0.02403085 0.0390276 0.061811995 0.09608917 -0.040811572
-0.00083800335 0.016331036 0.011765028 -0.043471057 0.016839046 -0.08668362 0.033918343 -0.054479443
0.07789488 0.1266345 -0.030474057 0.031137712 0.0956918 0.31807536 0.20983092 0.024565678
0.20584302 -0.12512842 -0.15444908 0.026071938 -0.15457761 -0.15754943 0.19164476 0.20300533
-0.010354208 0.11131358 -0.1297411 -0.06760322 0.022679644 -0.19912168 -0.24546163 -0.029133327
0.12916568 0.119967766 0.0721627 0.18590328 0.1704197 -0.07385594 0.14809395 0.10391378
-0.2409898 -0.12035454 -0.35547438 -0.15730955 -0.06130617 -0.21058542 0.199814 0.03479463
0.009744486 -0.09905942 -0.1161898 -0.09540541 -0.08128328 0.1028352 -0.02499792 0.2221615
0.1370449 0.14639421 -0.0683722 0.09198509 -0.23832105 -0.017058639 0.17159162 0.055502843
0.085446104 0.2029225 0.1865253 -0.07414303 0.033068698 0.08653898 -0.047610268 0.135839
0.13448487 0.06983059 0.07299733 0.12654912 0.07329564 0.101297095 -0.05260961 0.0373328
0.06469282 0.040298257 0.07714095 0.18598095 0.119163945 0.028262246 0.09458846 -0.033413645
-0.018843831 0.1566233 0.08489011 0.2041399 0.1971296 0.20126872 0.07599902 0.05771919
-0.17019942 -0.10029615 0.10112543 -0.10184225 0.191448 0.22626552 0.18578239 0.032631278
0.009471851 -0.11462847 0.051164117 0.06520594 0.06706841 0.089838825 0.16376996 0.06837825
0.02850526 0.122171246 0.032647863 0.09401589 0.18135068 0.123515405 0.13252553 0.25059584
0.1495927 -0.07680163 0.009601706 -0.090674154 -0.022688808 0.1262515 -0.0072164754 -0.092018716
0.112374 0.048853297 0.037714105 0.045496386 -0.035992507 0.046948005 0.1071285 0.12156221
0.08537792 0.15871324 0.13213862 -0.054534283 0.046408832 -0.05885107 -0.0013425864 0.08590975
0.016214117 -0.04697416 0.10325325 0.0952152 -0.01063748 0.05311286 0.02303592 0.06441664

feature_extractor.4.bias f4 [32]
00000000: e15c 863d 03b4 783a 9137 7abd 5b77 933d
00000010: cc22 40bd 9710 6e3b 31bd 53bd c0ac 473c
00000020: 0e28 c6bc 44b5 b9bc 8bee 303d 923c 88bd
00000030: 9a89 273d 60a6 eb3c 615a 01bc 3394 61bd
00000040: f2cb 223d 446e dbbb df47 a8bc 4d4a 74bc
00000050: 6e89 21bc dc65 343d 4046 85bd 5055 723d
00000060: 31af acbb 4cf6 be3d e103 56bd bb04 8fbc
00000070: f743 173b f559 383d 31ae 9ebb 8886 98bc
0.06560684 0.0009487273 -0.06108815 0.072004996 -0.046908185 0.0036325806 -0.0516941 0.012187183
-0.024189021 -0.022669442 0.043196242 -0.06652178 0.04090271 0.028765857 -0.007895083 -0.055072974
0.03974528 -0.0066964943 -0.020542083 -0.014910293 -0.009859426 0.044042453 -0.0650754 0.05916339
-0.005269908 0.09324321 -0.052249793 -0.01745831 0.0023081282 0.045007665 -0.0048425426 -0.018618837

feature_extractor.5.weight f4 [32]
00000000: 3f39 9a3f e6d1 553f 791b 773f a902 933f
00000010: d083 513f 12d6 723f a0d5 673f fd37 8b3f
00000020: f487 7f3f 5e10 763f 94d4 8a3f 2d14 6b3f
00000030: 3a02 723f 1d2d a13f d979 693f 2d36 4a3f
00000040: c00e 7d3f 280b 723f c42c 663f de4d 8c3f
00000050: 4932 853f 6e56 833f bb4c 4d3f 7bac 7a3f
00000060: c342 6b3f 9207 903f 9588 8f3f a172 593f
00000070: 422d 5a3f 31c4 5b3f 0d49 6e3f 05c4 773f
1.204872 0.83523405 0.96526295 1.1485187 0.81841755 0.94857895 0.9056034 1.0876461
0.99816823 0.96118724 1.0846124 0.9182766 0.9453465 1.2591892 0.9120155 0.78988916
0.9885063 0.94548273 0.89912057 1.0961263 1.0405971 1.0260751 0.80195206 0.97919434
0.91898745 1.125231 1.1213557 0.84940535 0.8522531 0.8584624 0.93080217 0.9678348

feature_extractor.5.bias f4 [32]
00000000: a4ff efbd 43a9 a9bd 9d4c 59bd eb0c bc3c
00000010: 5f60 00be 67a1 30be 3b74 1dbe 46c8 36be
00000020: 51fe c5bd 95db 13be 0775 41bd 45ae 1abe
00000030: d885 9ebd 70ec 7fbe 366f 3dbe 8ccc 2ebe
00000040: 74d8 c6bd d7b2 a7bd 7008 05be 4e68 99bd
00000050: 91e2 53bc 67a3 223d a9dd 0fbe 11f0 33be
00000060: 2956 33be f165 d73b 9d82 4f3d b736 b0bd
00000070: c072 b4bd 8363 8abd 426a e4bd 3abe 00bd
-0.117186815 -0.08284237 -0.05305158 0.022955379 -0.12536763 -0.1724907 -0.1537637 -0.17849836
-0.09667648 -0.14439233 -0.047230747 -0.15105541 -0.077403724 -0.24992537 -0.18499455 -0.17070216
-0.09709254 -0.08188408 -0.129915 -0.07490598 -0.012932436 0.039706614 -0.140494 -0.17572047
-0.17513336 0.0065734317 0.050661672 -0.08604186 -0.08810949 -0.067572616 -0.111530796 -0.031431414

feature_extractor.5.running_mean f4 [32]
00000000: ba2a a83e 75d7 443f 686b 3fbf a1fb 733f
00000010: 5049 5abf 4c3e ad3d b840 ac3f 85c3 16be
00000020: 463e 8abf aa25 c83e 4e30 483f 3956 9bbf
00000030: 94b0 0a3f 8041 d63e 39b7 bf3d d015 81bf
00000040: 0e9e 413f 138a dc3e 9f49 fa3e d70c 663f
00000050: 2c77 743f 611f ba3f 8e4f 75bf 44ad 873f
00000060: dc16 6fbf 23d7 81bd a08c 803e d34d 9abf
00000070: 6ebd c0bf 9918 943f c122 433f c766 af3f
0.32845098 0.7689126 -0.74773264 0.9530583 -0.85268116 0.08459148 1.345725 -0.14723022
-1.0800254 0.39091235 0.7819871 -1.2135688 0.54175687 0.41846848 0.09361119 -1.0084782
0.756318 0.43074092 0.48884293 0.8986334 0.9549434 1.4540826 -0.95824516 1.0599751
-0.93394256 -0.06339862 0.25107288 -1.2055 -1.5057809 1.1570007 0.76224905 1.370324

feature_extractor.5.running_var f4 [32]
00000000: ba3e 6c40 1c0f 7841 e7ca 8641 a8a2 a441
00000010: a125 7541 de6f 8441 36df ff41 925c 5a40
00000020: 7001 e641 9368 df40 8756 e841 aab9 aa41
00000030: d017 3641 325d 1141 a65e ba40 5d37 3041
00000040: c9d1 bf41 9be0 cf40 8d4f b341 70b4 e541
00000050: 2a53 9541 4880 e241 da11 3841 58b3 e241
00000060: 6bd7 b241 c2e9 3e41 64c7 e440 356e 9241
00000070: 40c0 fa41 2f2b 3141 1b8d c841 f295 d941
3.6913285 15.503689 16.849073 20.579422 15.321687 16.554623 31.98399 3.4119
28.750702 6.9815154 29.04225 21.340656 11.380814 9.085253 5.824054 11.013516
23.977434 6.4961677 22.413843 28.713104 18.665607 28.312637 11.504358 28.33757
22.355185 11.93207 7.1493397 18.303812 31.343872 11.073043 25.0689 27.198215

feature_extractor.9.weight f4 [16, 32, 3, 3]
00000000: 63b5 8fbe 5450 0dbf 5a55 393e 049b 3abe
00000010: 19fd 76bd 7107 4fbe a6b1 80be c049 bbbd
00000020: afd9 05be ad69 8dbd 9c08 7cbe fe17 a43e
00000030: 147c 29be 5315 1bbe f9d5 c8be e007 34be
00000040: 7225 4ebe ca3b 6bbe 3072 eabe 132d 0bbe
00000050: f54f 25be ea78 56be 9372 2cbe d178 4cbe
00000060: bad6 cfbe 37a5 27be 1216 45bd 0ffa 15bd
00000070: b572 21be 5e19 5e3e 651d 0cbd 71b0 d2bd
00000080: 8855 91be 4f9f a13c a95e 41be 605c 05be
00000090: 54bf dfbd 7e46 96bd 6175 01be d021 d6bc
000000a0: 435b 02be c927 c5bd 62b2 00bd e75e 6ebe
000000b0: be21 0fbd e472 cbbd 532c 24be 5e10 853e
000000c0: 6e78 80be f367 4dbe ae87 ccbe b18c 8cbd
000000d0: 1e55 67be 1d8d 84be 334f b1bc 8cee 79be
000000e0: e66d bd3d a8a9 d33c 9e40 f5bd 51f7 74be
000000f0: 294c 793c 0662 0fbe 8efa 0fbe e0d7 d23b
00000100: d11e 64be a596 003f b5a5 29bd 17ab 803d
00000110: e38f 3abe db0e 45bd 1b2f 5b3d 56af 49be
00000120: 6d94 35be 7c82 d8bd e029 123d 9a7a 9abe
00000130: e299 33be ff43 2abe 5ab1 93be 1740 01be
00000140: 2927 1cbe 8257 22be a94f 89be 43f9 1a3e
00000150: 5767 a3bd 9d41 c2bd 6aba d2bd 4b21 003d
00000160: 87bd f0bd fd75 efbc 0d39 273d dc19 35be
00000170: 2171 d23e 2fcd 0abe c519 4ebe ea31 b6be
00000180: 0c53 88bd bbf3 abbe dee8 b2be 24ba 4dbd
00000190: ece3 33be 782a dbbd 3d40 33be 6aef 08be
000001a0: 1e88 fbbd 503d ebbd 839d 32be c879 29be
000001b0: 99a4 55be 439d ebbc c21d 78be 822b 5bbe
000001c0: 7608 60be f94a ecbe 6a30 90be eb85 1ebe
000001d0: abb0 edbd dee8 b43a fa3f b1bd b1ee 70bd
000001e0: 0e9f 173c dd92 203e ec21 8dbe 8c81 833d
000001f0: 54c3 dcbd a8f8 74be 9c14 24be b2a9 61be
00000200: 54bd b83d 6042 62be d285 0ebe b953 5cbe
00000210: 1a40 b9bd ef69 21be 7dbe 62be 61da 7ebd
00000220: b6bc 2ebd 4f85 0fbd cafc 08be dbbf 24bd
00000230: be67 a3bd 86c7 033d fbcd afbd 4073 d23d
00000240: 2b5a 11be 44b2 4cbe f2bf b93e 10ac 4cbe
00000250: 8fd4 3fbe 6471 b0be de28 22be 9d62 44be
00000260: 08cd 94be 653b 93bd 9670 70bd 7d38 bcbc
00000270: 5cd5 52be 5a37 a7bc 0f73 0dbe 83dd be3d
00000280: da24 023d 3df9 3dbd b5ff 98bc 910e 99bd
00000290: 22cb bc3d b3f9 a0bd f12d e2bc abc5 68be
000002a0: dcbd 0f3e bdd2 e1bd a292 d4bd dc07 6fbe
000002b0: 1ce5 6fbe 131d b53e 21b0 aabd 5a1f a0bd
000002c0: 4370 b6be c512 15bd ce03 e4bd 91bf 85be
000002d0: 55c8 66be 3d30 56be a0e5 9a3e 2d62 bebd
000002e0: d9c9 52be 89a7 61be 498b e9bd bf42 17be
000002f0: e37f adbe 095e 82bd 1dfb 4bbe da19 623e
00000300: 0879 893d a360 dcbd ed70 b8be 686f 91bc
00000310: 4dd1 ecbd d203 16be b8a8 19be 8d34 b8bd
00000320: badb 7cbd aea6 cbbd 68af a7bd 7160 dbbc
00000330: a14f 84bd a084 89bd 3570 a9bd b925 26be
00000340: 41d0 1dbe 5832 9d3e 9e1d dfbd 02f5 fabd
00000350: 24a3 7cbe 2083 2abe d76f 63be 172b b5be
00000360: 334b 8bbc e9d7 f0bd 2043 a23d 1ac4 913d
00000370: df6d 36bd ca2e 4fbd 2958 8abd c5f9 64bd
00000380: eace 75bd d79e 2ebd 88f8 f8bd 1508 843d
00000390: 0170 fa3a 2155 a5bc d014 5bbe a3a7 d8bd
000003a0: 9e7a 51be a5d2 4ebe fd77 083d 069b d3bd
000003b0: de57 de3e 0fd2 f5bd e8f9 403d 0126 d7be
000003c0: db17 49bc 8fba aebc 0c48 dabd 3235 76be
000003d0: 08c4 04bd 3964 3cbe 7482 3abe 8c54 a0bd
000003e0: 2310 1cbe 86c9 70be e273 2bbe 0f42 21be
000003f0: d159 5dbe 36d1 69be e009 bcbe 8443 63be
-0.28068075 -0.55200696 0.18098965 -0.18223196 -0.060299966 -0.20217682 -0.25135535 -0.09144926
-0.13071321 -0.06904922 -0.24612659 0.32049555 -0.16551238 -0.15144853 -0.39225748 -0.17581129
-0.20131472 -0.22972026 -0.45790243 -0.13591413 -0.16143782 -0.20944563 -0.16840582 -0.19967963
-0.4059351 -0.16371618 -0.04811675 -0.036615428 -0.15766414 0.21689364 -0.03420772 -0.1028756
-0.28385568 0.019729285 -0.18883766 -0.1302352 -0.10925165 -0.07337664 -0.12642433 -0.02613917
-0.12730126 -0.09626729 -0.03142012 -0.2327839 -0.03494429 -0.09934023 -0.16032533 0.2598905
-0.2509188 -0.20059185 -0.39947265 -0.06862772 -0.22591063 -0.2588891 -0.02164421 -0.24407405
0.09249477 0.025837734 -0.119752154 -0.23922469 0.015215912 -0.14002237 -0.14060423 0.0064344257
-0.2227738 0.50229865 -0.041417796 0.06282633 -0.18218951 -0.04810987 0.05351172 -0.19695792
-0.17732401 -0.10571763 0.035684466 -0.30171663 -0.1753917 -0.16627501 -0.28846246 -0.12622105
-0.15249313 -0.15853694 -0.26818588 0.15134148 -0.07978695 -0.09485171 -0.10289462 0.03128175
-0.117548995 -0.029231066 0.040825892 -0.17685646 0.41101936 -0.13554834 -0.20127018 -0.35584956
-0.06656465 -0.3358439 -0.3494329 -0.050226346 -0.17567414 -0.1070146 -0.17504974 -0.13372579
-0.12281822 -0.11486304 -0.17442898 -0.16550362 -0.2086357 -0.028761512 -0.24230102 -0.21403316
-0.21878228 -0.4615095 -0.28161937 -0.15480773 -0.11605962 0.001380231 -0.08654781 -0.058821384
0.00925423 0.15681024 -0.27564943 0.064211935 -0.107794434 -0.2392298 -0.16023487 -0.2203739
0.090204865 -0.22095633 -0.13918236 -0.21516313 -0.090454295 -0.15763067 -0.22142978 -0.06221998
-0.042660438 -0.035039242 -0.13377681 -0.04022203 -0.079787716 0.032172702 -0.085842095 0.102758884
-0.14194553 -0.19989878 0.36279255 -0.19987512 -0.18733428 -0.3446151 -0.15835902 -0.19178243
-0.29062676 -0.07189063 -0.05870112 -0.022976154 -0.20589203 -0.020412136 -0.13813423 0.09319594
0.031773426 -0.04638027 -0.018676618 -0.074734814 0.09218432 -0.07860126 -0.027609797 -0.22731654
0.1403727 -0.11026523 -0.103795305 -0.23342842 -0.23427242 0.35373744 -0.08334375 -0.0781848
-0.35632524 -0.036394853 -0.11133538 -0.26122716 -0.22537358 -0.20916839 0.30253315 -0.09296069
-0.20584811 -0.22036566 -0.1140352 -0.14771555 -0.33886632 -0.06365592 -0.19920011 0.22080174
0.06712538 -0.107606195 -0.36023656 -0.017753318 -0.115633585 -0.14649895 -0.15005767 -0.08994398
-0.061732985 -0.09943901 -0.08187753 -0.026779385 -0.064605005 -0.06714749 -0.08273355 -0.16225328
-0.15411474 0.30702472 -0.10894321 -0.12253763 -0.24671608 -0.16651583 -0.22210632 -0.35384437
-0.017003631 -0.117599316 0.07922959 0.071174815 -0.044538375 -0.05058173 -0.067550965 -0.05590226
-0.06001178 -0.04263195 -0.121567786 0.06446854 0.0019106866 -0.020182194 -0.21394658 -0.10578849
-0.20456931 -0.20197542 0.033317555 -0.10332303 0.43426412 -0.12002956 0.04711333 -0.42021182
-0.012273754 -0.021329192 -0.10658273 -0.2404373 -0.032413512 -0.18397607 -0.18213826 -0.07828626
-0.1524053 -0.23514375 -0.16743425 -0.15747856 -0.21616293 -0.22833714 -0.36726284 -0.22193724

feature_extractor.9.bias f4 [16]
00000000: 2a53 40be 9917 15bd e360 d5bd fb10 3f3b
00000010: a0b2 07bc bfb2 8dbd c674 d8bd 6837 52bd
00000020: 7611 de3d 20fc b1bd 6cde 3ebd 797b 99bd
00000030: f0a6 a03d 4e30 33bd 7402 cdbc a18c 83be
-0.18781725 -0.036399458 -0.1041887 0.0029154408 -0.008282334 -0.06918859 -0.10569148 -0.05132237
0.10843174 -0.08690667 -0.046598837 -0.07494254 0.07844341 -0.04374724 -0.025025584 -0.2569323

head.0.weight f4 [128, 1600]
00000000: 494d 61bc 0cc1 cd3a ce32 2aba 5f64 84bc
00000010: 9240 3e3a d0f7 2bbc 2f77 82bb fbdf ad3c
00000020: fa1b 933b c0b4 a7bb c36a 6dbd eaa1 5dbd
00000030: e267 74bd d826 52bd e0fb 00bd dd7f 1fbd
00000040: 7dfd 47bd 84c9 37bd 38aa 18bd fa78 1fbd
00000050: 44c9 59bd d87c 36bd 63e2 0dbd 6cea 513c
00000060: f6dd 973d e271 a9bd e991 14bd 02d5 89bd
00000070: dc7f 95bd 2568 87bd 5696 11bd c8a0 9ebd
00000080: 78bd 5cbd 0d49 c93d 856e b2bd 7bda 14bd
00000090: e2c2 9dbc bfa9 933c 9d0e afbd 7ab6 5cbd
000000a0: 9d7c 3dbd 995f 82bd 53e8 88be 82ae 43bd
000000b0: edf0 3bbd 833f 703d b0c0 edbd 9dd4 7cbd
000000c0: 4711 84bd 7d7e 6fbd ba3a 80bd a8a1 55bd
000000d0: de6b 55be add2 543e 58fc a4bd 41d0 c5bd
000000e0: 43d3 ea3d 336b 1e3c 3ede 1bbe 232a 5ebd
000000f0: 8f13 5cbd 6601 75bd df5c 2dbe 23c8 513e
00000100: a59f f4bd 954d 28be 636b 743c c68b d2bc
00000110: 2295 44bd 8555 82bd e7e9 23bd 3d4b 56bd
00000120: aa2a 07bd 26cd 7bbe cdeb 1bbd e09e c23b
00000130: d1ed d73c ffde 88be 06e5 89bd 9daf 77bd
00000140: e8a4 40bd 4a15 6bbd 131a 27bd a75e d7bc
00000150: 18bb b6be b85a d1bc 85bf a8bd b2d8 5cbd
00000160: 26ae 13bd 1d1c 59bd 0a08 23bd d1dc 93bd
00000170: dbd5 92bd 9f50 8bbd ca4c 583e 1e36 49bd
00000180: 2fe0 0bbd 5bba 91bd 8ace 79bd a346 75bd
00000190: f860 a1bd 73f5 05bd 7d16 6fbd 85af 13bd
000001a0: 6719 3abd 9049 7cbd 0086 6dbd 7192 7ebd
000001b0: d3c1 86bd c266 0bbd 29e2 9bbd 03b6 b5bd
000001c0: e9fb abbd 44c4 a7bd 9dd9 3fbd 2f30 033e
000001d0: 1062 b0be ea16 a8bd 608a e7bd 2dad c6bd
000001e0: ce25 86bd 33ea 8ebd b844 a7bd dc14 843c
000001f0: 460d cebc 7891 053e 8e64 31be 3fe5 37be
00000200: 9eda b1bd 245a cbbd 3f46 0ebd 3d94 a9bd
00000210: 52d6 47bd 894e c23c 2692 6ebd 98a2 adbd
00000220: b564 a83d e497 66be 5d5e cbbe 17d8 b2bd
00000230: 9640 49bd 47ad 873d 8e95 cc3d 0da4 133d
00000240: be8c 443d 3d65 44bd bc5b fdbc 5a01 25be
00000250: a413 c1bc 0dbf a1bd 3f89 6ebd 3719 c73d
00000260: 5ae7 563d 2291 d13d b0b7 4b3d f934 89bc
00000270: 7c8a 06be d6ee 1fbe d05e c73d bf60 92bd
00000280: 2d54 96bd 9e94 9abd f6e2 6a3d db8c 9f3d
00000290: ce2b cd3d 8c99 a7bd 3464 c03d d920 873d
000002a0: dfe3 623e 4a59 b5bd 7400 45bd 99c0 d9bd
000002b0: 480e c8bd cd3e 463c 8bdf 273c 86fc b73a
000002c0: a570 e73d 540d a23c 5704 8ebd 2ad1 8bbd
000002d0: e87a 2fbd db54 b0bd 92fe b1bd e810 cebd
000002e0: 006a 4fbd d698 b63d cf86 b93d 808c 89bd
000002f0: e3be 92bd c90a c7bd 1d33 44bd 88b0 afbd
00000300: 05f8 cdbd e928 c2bd ab3f e6bc 7e54 59bd
00000310: e8e6 95bd 63f3 a1bd 3162 89bd d45f 90bd
00000320: 3f97 87bd 71c1 3abd a86a 54bd cbaa 1bbd
00000330: bb5c 95bd 4f14 1dbd 9eee 32bd 9174 9bbd
00000340: 8c42 23bd 0fd0 94bd 815a a13c 57f8 67bd
00000350: ba26 72bd 07e7 9ebd d0b9 31bd f5bf 90bd
00000360: a8cb 63bd f1f1 82bd d787 8fbd b6e1 47bd
00000370: f1be 1c3c d184 8bbd d375 85bd 1610 84bd
00000380: dd1e 583c 7365 a9bc 0269 e03d 4be3 90bd
00000390: bbda 31bd 5dde 88bd b0a5 be3c 8a13 36bd
000003a0: 51b7 20bd a6ae 86bd 6e47 96bd e587 8dbd
000003b0: 145c 42bd 2337 45bd 5bb3 983c 6acb 21bd
000003c0: 778c 82bb 457e 69bd 24e8 5ebd c134 2abd
000003d0: 09f1 22bd 8c60 78bd ab2c 78bd 3c33 92bd
000003e0: a9f9 37bd 397e 9bbd 38a8 03bc 226c 31bd
000003f0: 062d 6f3d a035 71bd 9dc9 7cbd 5a60 67bd
-0.013751336 0.0015697791 -0.0006492556 -0.016161142 0.00072575465 -0.010496095 -0.003981493 0.021224966
0.004489419 -0.0051179826 -0.057963144 -0.05410949 -0.059669383 -0.051306576 -0.031490207 -0.0389403
-0.04882573 -0.044869915 -0.03727171 -0.03893373 -0.053170457 -0.044552654 -0.034639727 0.012812238
0.074153826 -0.082736745 -0.036271963 -0.06730081 -0.07299778 -0.06611661 -0.035543762 -0.0774551
-0.05389163 0.098283865 -0.08712486 -0.03634117 -0.019257966 0.018025277 -0.08547709 -0.05388496
-0.04626142 -0.0636589 -0.2673975 -0.047773845 -0.04588406 0.05865432 -0.11609018 -0.0617262
-0.06448608 -0.058470238 -0.06261201 -0.05215612 -0.2084193 0.20783491 -0.08055943 -0.09658862
0.11466076 0.009669113 -0.15221497 -0.054239403 -0.05372959 -0.059815787 -0.16929959 0.20486502
-0.11944512 -0.16435845 0.014918181 -0.025701415 -0.047993787 -0.06363968 -0.04001799 -0.052317847
-0.032999672 -0.24589977 -0.038066674 0.0059393495 0.026358517 -0.26732633 -0.06733136 -0.060470212
-0.047032267 -0.05739335 -0.04079635 -0.026290251 -0.35689616 -0.025555953 -0.082396545 -0.053917594
-0.036054753 -0.053005327 -0.03980259 -0.07219852 -0.07169696 -0.06802487 0.21123043 -0.049123876
-0.034149345 -0.071156226 -0.060987987 -0.059881818 -0.078798234 -0.03270478 -0.058371056 -0.03605606
-0.04543438 -0.061593592 -0.05798912 -0.062151376 -0.06579938 -0.034033544 -0.07611496 -0.088726066
-0.083976574 -0.081917316 -0.04683839 0.1281135 -0.34449816 -0.082074955 -0.1130569 -0.097009994
-0.065501794 -0.06978264 -0.08167404 0.016123228 -0.025152814 0.13043773 -0.17323515 -0.17958544
-0.08684276 -0.09929302 -0.03473496 -0.08280227 -0.048788376 0.02371909 -0.058244847 -0.08478278
0.08222333 -0.22518879 -0.3972043 -0.08732622 -0.04913386 0.06624847 0.09989463 0.036045123
0.047985785 -0.04794811 -0.030927531 -0.16113797 -0.023568936 -0.07897768 -0.058236357 0.09721606
0.052466728 0.1023276 0.049735725 -0.016748892 -0.13138765 -0.15618452 0.09734881 -0.07147359
-0.07340274 -0.07547878 0.057345353 0.07790538 0.10018121 -0.081835836 0.09394112 0.06598062
0.22157238 -0.08854921 -0.048096135 -0.10632438 -0.09768349 0.012099934 0.010246168 0.001403705
0.11300782 0.019781746 -0.069344215 -0.06827004 -0.042841822 -0.08609935 -0.086911336 -0.10061818
-0.0506382 0.0891587 0.09058916 -0.067162514 -0.07165315 -0.09718854 -0.047900308 -0.085785925
-0.100570716 -0.09480459 -0.028106531 -0.053059094 -0.073194325 -0.079077505 -0.06708182 -0.07049528
-0.06620645 -0.045594636 -0.051859528 -0.038004678 -0.072930776 -0.038349446 -0.043684594 -0.07590593
-0.039858386 -0.072662465 0.019696476 -0.05663332 -0.059118964 -0.07758909 -0.043390095 -0.07067863
-0.055614144 -0.06393803 -0.07008331 -0.04879924 0.009567008 -0.06812442 -0.06516614 -0.06448381
0.013190952 -0.020678258 0.10957529 -0.07074603 -0.04342149 -0.066830374 0.023272365 -0.044452228
-0.039237324 -0.0657628 -0.07337843 -0.069106854 -0.047451094 -0.048148286 0.01864021 -0.03950063
-0.00398403 -0.057005186 -0.054420605 -0.041554216 -0.03978065 -0.06063895 -0.060589474 -0.071386784
-0.04491583 -0.075924344 -0.008035712 -0.043316014 0.058392547 -0.05888903 -0.06171571 -0.056488372

head.0.bias f4 [128]
00000000: 619e c5bc 33ff 35bd c16e 7d3d 666e 23bc
00000010: 9883 edbc e5d2 25bc aed3 363c 1f17 423e
00000020: 44cf 43bd 1f4f 023d 4fb1 753d acde 253d
00000030: 9f12 3a3e 13c7 c63a a957 36bd 6865 afbd
00000040: a0d2 f7bd b27c a23b d313 51bc eca6 74be
00000050: a146 0fbd 242c 113e d867 0bbc f8e0 2bbc
00000060: 0d8c 583d 8d8f 393d b989 3a3c 0d0e e6bd
00000070: 59b1 833d 35c7 febd da3d bf3c 8da4 4f3d
00000080: 85e1 9dbd e2fc 18bd 3bcd 9a3d 68e1 6ebc
00000090: 4db4 ce3c f5d3 733c 1acc 1ebd ff44 b7bd
000000a0: 3b58 6a3c 71d4 e83c d3cc eebc f288 563d
000000b0: b1af cc3d b91a b6bd a930 943b f343 6fbd
000000c0: d649 a3bd 07a4 ee3c b33c 9a3d 05c0 f33b
000000d0: 81fb a13b e1f8 06bd 1744 cdbb ce28 be3b
000000e0: d198 7f3d fc13 36bd d24c 763d f31d 993d
000000f0: ee45 f83d ae88 f13b f887 ffbc b940 a73d
00000100: 22c4 a33a e803 9bbc aa5a 88bd ebf0 53bd
00000110: df84 85bd 99ec b73d 3123 9abb de7d aebc
00000120: a255 9cbd 1a3d 24bc c14c c4bb 41fe d63c
00000130: fb51 f23c f1f9 9bbd a4d6 1fbd 9640 393e
00000140: fc30 1abb 4fcf 263d 0253 d53d 1afc acbd
00000150: 7c04 61be 4bd5 2cbd b1d4 9abb 74ba 6d3d
00000160: 0ce8 723b a738 5d3a 44b4 99bc 508f f3bc
00000170: 0d06 8ebb 903d 47bd 3734 3c3d 792a b9bc
00000180: bd7d 60bc 43e1 653e c93c 573d 9bec 593d
00000190: 3895 663d 12ef 163d 544f c93c 313a 033b
000001a0: 5457 f8ba b0fa 70bd 7745 c2bb b89d acbc
000001b0: 2a2d dd3c 729e c0bd a21d 143d 43d2 12bd
000001c0: af3a a63c 9b03 743d 0560 d63b 0955 863d
000001d0: 51f4 363d 4ea6 d83b 152c e53c d70e c1bc
000001e0: 3734 0e3d b413 f33b 14d1 dfbc ed33 57be
000001f0: b866 1c3e 3290 dcbd d29a 74bc 3008 8cbd
-0.024123373 -0.04443283 0.0618732 -0.0099750515 -0.028993413 -0.010121082 0.011158867 0.18954132
-0.047805086 0.031813737 0.059983548 0.04049556 0.18171166 0.001516553 -0.044517193 -0.085642636
-0.121007204 0.0049587125 -0.012761074 -0.238918 -0.034979466 0.14176995 -0.008508645 -0.010490648
0.052867938 0.045302916 0.011385375 -0.11233149 0.06430311 -0.124403395 0.023344923 0.050694037
-0.0770903 -0.037350543 0.07558676 -0.014580108 0.025232458 0.014882077 -0.038768865 -0.08948707
0.014303262 0.028421612 -0.029150402 0.052376695 0.09994448 -0.08891816 0.0045224023 -0.05841441
-0.079730675 0.029130949 0.07531109 0.007438662 0.0049433117 -0.032952193 -0.0062642205 0.005803204
0.062401596 -0.044452652 0.060131855 0.074764155 0.12122713 0.00737103 -0.031192765 0.08166642
0.0012494365 -0.018922761 -0.06657918 -0.05174343 -0.06519484 0.08980674 -0.004703902 -0.021300253
-0.07633521 -0.010024333 -0.005990595 0.026244285 0.029580107 -0.07616032 -0.039023057 0.18091044
-0.0023527732 0.04072505 0.10416223 -0.08446522 -0.21974367 -0.0421956 -0.004725062 0.058039144
0.003706458 0.0008438923 -0.018762715 -0.029731423 -0.0043342174 -0.048642695 0.045948233 -0.02260326
-0.013701853 0.22449212 0.052548204 0.05320416 0.05629465 0.03684909 0.02457396 0.0020023698
-0.0018946924 -0.058832824 -0.005928691 -0.0210713 0.026999075 -0.09405221 0.036161073 -0.035845052
0.020291654 0.05957375 0.006542208 0.06559188 0.044666592 0.006611622 0.027975122 -0.023566647
0.034717765 0.0074181203 -0.027321376 -0.21015902 0.15273559 -0.107696906 -0.01492949 -0.06837499
