optim/models/siamese_net_trained_[<ImagePreprocessing.CROPPING: 'cropping'>].pth (torch, 867376 bytes, 16 tensors)

feature_extractor.0.weight f4 [16, 3, 3, 3]
00000000: 6360 8abe 8513 a9be eb95 8cbe 6816 1cbe
00000010: c24c 3ebe 0d5c 5abc 3c85 8b3d 7f4f 13ba
00000020: 636f 373e 8a65 21bd 9cf5 a9bd 7da0 d33c
00000030: 7a35 2abe 76aa 7cbe fa77 95bd 9493 8a3d
00000040: e7a0 503c b9a6 583d ca6d 5abe 5eaf 83be
00000050: c88b 20be f4a9 1c3d ee6b 3f3d 70f6 6ebe
00000060: 3c7b eabd e5ea 1ebe 6cb2 36be 3f2f 503e
00000070: 0a40 7d3e 0981 433e d1f0 a23e 84dd e33d
00000080: 040f 7b3e 46cd e93d a41e 563e 989b 39bd
00000090: 99af 313e 033e 8d3e 8d0e 813e edd7 30bd
000000a0: 8ebb 923e fbba 1e3e 3a63 95be 2b59 343e
000000b0: b2f6 35be 9e99 cfbd caa0 333e 455c 853e
000000c0: 30c7 40bd 9ccd d73d 2451 debd 4262 c6bd
000000d0: 8182 a53d fb0c 27bd e318 c73d 6233 d03d
000000e0: 5f0c 3a3d c24f 973e 8768 823d 2490 3b3e
000000f0: ed63 8d3e 9cf2 543e f72b 4d3e 928d 673e
00000100: cfbe 943e d15d 903e a10d 273c 8c12 b93e
00000110: 3249 863e eac8 c53d 357d 023f eea2 793e
00000120: b129 a83b 37b6 ae3e 1d8f 2d3e b6fd 3b3e
00000130: 0e2b a43e adb0 1a3e be68 b6bd 4db8 233d
00000140: 9de5 af3e f2c6 0fbe cae3 38be a8b8 8bbe
00000150: 3886 bdbd 57cd 2abe 082b 4fbe 3571 183e
00000160: 2b4a c3be df77 6cbd 048f 2f3d 2c43 7fbe
00000170: 067b 3dbc f806 1abe cd5c 51be 398e 073e
00000180: bc02 39be 6900 7cbe 233c 96bd 9d6a cbbd
00000190: ac2f 89be 6551 22be b401 88be 1ad3 10be
000001a0: 9c5f ecbd 4493 80be 3f71 3abe bf4a 0dbe
000001b0: e1f6 d9bd 55b3 a7bd 6fd1 6cbe 5a07 8abe
000001c0: 7023 79be baf2 97be 63e5 a6be a441 0dbe
000001d0: afa7 49be 4def d2bd 2a03 ea3d 6526 123e
000001e0: fd35 2b3e 6ce1 193e fbb7 82bd 8c99 cebc
000001f0: 1e29 23be 4cf6 44be 7768 c23d 8d46 40be
00000200: 7bb6 d4bc c61a 103c c0cd 083e 594a 013e
00000210: 5743 77bd bcb4 88bd 1be0 173c 4d9f 2bbe
00000220: a14b e5be 1272 5bbe d3f5 8f3d 14c3 abbe
00000230: 40f7 c0bd 021f 84bd e71e dcbd 3562 00be
00000240: bb04 f53d 89f1 ee3d f431 153d f93f 5bbe
00000250: 18f3 43bd 2e0e eb3c 3ee0 e8bc 143b 40be
00000260: 8911 7c3d d136 cbbd 47d6 0d3e 7330 d7bc
00000270: d41c 60be 5b2d a8bd aa2a 243d 4db6 c73d
00000280: fe43 14bd 790f 8cbd f838 573e 62f8 ac3d
00000290: da93 0f3d d056 5f3e 10ba 623e f168 3f3e
000002a0: 518f 2fbe b898 18be b396 4a3d 520f 6b3e
000002b0: 9ecb 683c 2bec 78bd 68e0 983e 9331 873e
000002c0: 6dd0 e8bd fa64 853e bc12 58bd ddee 1bbe
000002d0: f051 ef3d 3a72 c8bd 2745 5dbd c6b5 983e
000002e0: 372e a13e b94c 05be 0c05 763e 219b 18bd
000002f0: 4c92 65bc 721e e3bc cd88 143e 28de ad3d
00000300: 9680 c0bd 3674 f3bd f743 3a3d e413 853d
00000310: 35b0 073e 0031 673e d661 92be cd60 a2be
00000320: 469f 8abe 4c49 7ebe 13db 01be c639 0cbe
00000330: d620 43be 67a3 83be 570b bcbc 1d20 0fbe
00000340: c0c2 8cbe 91ef 34be 2565 8b3e cc95 e1bc
00000350: 3741 22be 8d48 f93d 957c 8b3c 3e54 e1bd
00000360: 2f8a 0ebe 4e1a dbbd 2f50 49be 1e29 0a3e
00000370: 81bb 91be 6eeb 0c3c 5761 dabd 552f 9fbe
00000380: d628 56be 2e3e e2bd 6205 d8bc 7284 76be
00000390: b1d1 88be 83b9 a1bd 68af 303c fa97 4bbe
000003a0: 24f2 80be 0853 dcbd c110 57be 47c0 55be
000003b0: 212b 7cbd 7d16 59be 69e3 a7bd 7a6e 98bd
000003c0: 564a 3abe 7c5f 8fbe a625 e4bd e839 343e
000003d0: 5db8 57be 5999 eabd a2e5 323c 4afb 85be
000003e0: cab6 4ebd cb68 493d f675 dcbe 0e6c 09be
000003f0: b606 613c a1b5 4abe 3552 27bd d829 c73d
-0.27026662 -0.33022705 -0.27458128 -0.15242922 -0.18583968 -0.013327611 0.06812522 -0.0005619451
0.17913584 -0.039403476 -0.082987994 0.025833363 -0.16621962 -0.246744 -0.07298274 0.067664295
0.012733675 0.052893374 -0.21330944 -0.25719732 -0.15678322 0.038248017 0.04673379 -0.23336196
-0.11449286 -0.15519293 -0.178415 0.20330523 0.2473146 0.19092192 0.31824353 0.11126235
0.24517447 0.11416106 0.20910126 -0.0453144 0.17352141 0.27586374 0.25206414 -0.043174673
0.28658718 0.15501015 -0.29177266 0.1761214 -0.17769888 -0.10136722 0.17541805 0.2604696
-0.04706496 0.10537264 -0.1085532 -0.0968671 0.08081532 -0.040783864 0.09721544 0.101660505
0.045421954 0.29553038 0.06367593 0.18316704 0.276153 0.20795673 0.20036303 0.22612599
0.29051825 0.28196576 0.0101961205 0.36146963 0.2622772 0.09657462 0.509723 0.24378559
0.005131923 0.34123394 0.16949125 0.18358502 0.32064098 0.15106459 -0.08906697 0.039970685
0.3435487 -0.14040735 -0.18055645 -0.2728932 -0.09254116 -0.16679893 -0.20231259 0.14886935
-0.38142523 -0.057731505 0.042861 -0.24927968 -0.011564976 -0.15041721 -0.20445557 0.13237847
-0.1806745 -0.24609531 -0.07335689 -0.09932444 -0.26794183 -0.15851362 -0.265638 -0.14143029
-0.115416735 -0.25112355 -0.18207262 -0.13798045 -0.106427915 -0.08188502 -0.23126768 -0.26958734
-0.24329925 -0.29677373 -0.32596883 -0.13794571 -0.19692872 -0.10299549 0.11426385 0.14272459
0.16719814 0.15027398 -0.06382748 -0.025219701 -0.15933654 -0.1923458 0.09492581 -0.18776913
-0.02596592 0.008795446 0.13359737 0.12626018 -0.060366955 -0.06675097 0.0092697395 -0.16759987
-0.44784263 -0.21430233 0.07029309 -0.3354727 -0.09422159 -0.06451227 -0.10748082 -0.12537463
0.11963793 0.11667163 0.036424592 -0.21411122 -0.047839254 0.028693285 -0.02842724 -0.18772537
0.06154016 -0.09922565 0.13851272 -0.02626822 -0.21885997 -0.08211776 0.04007975 0.09751568
-0.036197655 -0.06838889 0.21017826 0.08445813 0.03505311 0.2181046 0.2214129 0.18692376
-0.17144515 -0.14902008 0.049460124 0.22955063 0.014208702 -0.060772102 0.29858708 0.2640501
-0.11367879 0.26053602 -0.05275224 -0.15227838 0.1168555 -0.09787412 -0.054021027 0.29826182
0.31480572 -0.13017549 0.24025363 -0.037257317 -0.014011931 -0.027724478 0.1450531 0.084896386
-0.09399526 -0.118874 0.045474973 0.064979345 0.13250811 0.22577286 -0.28590268 -0.31714478
-0.2707464 -0.24832648 -0.12681226 -0.13693914 -0.19055495 -0.25710604 -0.022954626 -0.13977094
-0.27492332 -0.17669512 0.27225605 -0.027537249 -0.1584519 0.12172041 0.017027179 -0.11002396
-0.139199 -0.106983766 -0.19659494 0.13492247 -0.28463367 0.008601053 -0.10663097 -0.310908
-0.20914015 -0.11047016 -0.026369754 -0.24073961 -0.26722482 -0.07896712 0.010784008 -0.19882193
-0.2518474 -0.107580245 -0.21002485 -0.20874129 -0.06156457 -0.21199985 -0.08197672 -0.07442947
-0.1819242 -0.28002536 -0.11139993 0.17600214 -0.21066423 -0.1145503 0.010919007 -0.2616828
-0.05046729 0.049172204 -0.43058747 -0.13420126 0.01373451 -0.19795848 -0.040849883 0.09724778

feature_extractor.0.bias f4 [16]
00000000: b391 0ebd 8074 d0bd 4880 a1bd 61f3 733d
00000010: 0e19 be3d a874 bb3b 92ac 9dbd f146 12be
00000020: 2f6d cabd 72d4 81be daf4 4f3e 5c8c 30be
00000030: 6d65 1bbe c861 e0bd 30ba babd d067 5fbb
-0.03480692 -0.101784706 -0.07885796 0.059558276 0.092821226 0.0057206936 -0.07698931 -0.14284874
-0.09884106 -0.25357395 0.20308247 -0.17241043 -0.1517541 -0.1095615 -0.09117544 -0.0034088977

feature_extractor.1.weight f4 [16]
00000000: 38af 753f a987 7b3f 99a9 933f 6cfe 4c3f
00000010: 9a5f 323f f194 3c3f 1027 8a3f 337b 873f
00000020: 7d1b 3c3f d3d7 483f a686 7c3f 58a3 843f
00000030: 8c1d 2e3f 720d 583f 0e65 6b3f f0a1 ab3f
0.9597049 0.98253876 1.1536132 0.80075717 0.69677126 0.73664767 1.0793171 1.0584472
0.73479444 0.7845432 0.9864296 1.0362349 0.68013835 0.84395516 0.9195107 1.3408794

feature_extractor.1.bias f4 [16]
00000000: bdec a8be 2c93 dc3d 4dcc 3a3e 9c05 bcbe
00000010: 9ff0 cdbe e007 21bf 12b5 253e 8b48 3cbe
00000020: 6e90 b6be 7f5b ffbe 8889 1f3e 4ddb e6be
00000030: f349 bfbe ebdb e63d 0c5f a4be ec2d b23e
-0.32993117 0.10770258 0.18241997 -0.3672303 -0.40222642 -0.6290264 0.16182354 -0.18387048
-0.35657066 -0.49874493 0.15579808 -0.45089188 -0.37361106 0.11272415 -0.32103765 0.3480066

feature_extractor.1.running_mean f4 [16]
00000000: 9e70 28c0 2127 8140 dde0 c040 1467 7dc0
00000010: b559 59c0 3c5b 3dc0 5fdc 0e40 a659 f8bf
00000020: 60f2 89c0 840a 42c0 d062 6d3a 0dfb afbf
00000030: 7423 18c0 d546 a03f 00c6 3bc0 87d8 0a40
-2.6318736 4.0360265 6.027449 -3.9594164 -3.3961003 -2.9586935 2.2322004 -1.9402359
-4.310837 -3.0318918 0.0009055557 -1.374849 -2.377164 1.2521616 -2.93396 2.1694658

feature_extractor.1.running_var f4 [16]
00000000: 7799 483f cae6 a53f 9f12 6a40 33b6 dc3f
00000010: 26ad 4c3f 4f2b 213f bd36 0e3f c003 143f
00000020: b785 ea3f d669 523f d369 283e 6f5a 013f
00000030: ff54 663f 0d41 7b3e 5763 6b3f fdae d53e
0.7835917 1.2961056 3.6573865 1.7243103 0.79951704 0.6295671 0.55552274 0.5781822
1.8322057 0.8219274 0.16446619 0.50528616 0.89973444 0.24536534 0.91948456 0.41735068

feature_extractor.4.weight f4 [32, 16, 3, 3]
00000000: 96bd fcbd ad98 ca3b bd48 843c 6235 30be
00000010: 4d30 37be 3f1c 2cbd 7203 44be 30ab 23be
00000020: c666 11be f2c8 80bd 0b89 363e 563a 433e
00000030: ef57 0e3e 23a8 1a3c 7221 fc3c e79a 263e
00000040: 1475 0b3e 2584 493e 81e4 b33d bc31 0b3e
00000050: 4edb 9f3e 9681 853d 99b0 a2bb 2315 063e
00000060: aa72 db3b 0490 3cbc 4c63 433e 7dff c43c
00000070: e0ab fdbd 3286 4fbd 3207 cebd 4e01 3dbe
00000080: e1dd 18bd 18e7 c6bd 40e9 37be 6d2c abbc
00000090: a9ed 433d 57a2 e83c 03b4 ddbd c89a d2bd
000000a0: 87d8 923c 6e25 b5bc 249e 933c 16a9 98bc
000000b0: a47b 6f3c 038c bf3c d3cf 8a3d ad23 a43c
000000c0: 3ea2 90bd 335a b9bc f1cc 2fbd 2f4c 22bd
000000d0: 8841 ff3c aeca 923c ec66 263d 4979 383e
000000e0: a074 c13d bc1f 3a3d c493 503d c176 b43d
000000f0: 21e4 783d de8a b43d 06ff bc3d 869b 7d3d
00000100: 32fb 6a3d ebbe bd3d 35cc bcbb ab75 1a3d
00000110: 8628 053d 3949 97bd c401 60be 51b1 f8bd
00000120: 45a8 bebd 1aff f4bd 090e 97bd 4560 12bd
00000130: 81cf 04be cc5d 07be c831 92bd 8c2d 82bd
00000140: f9c8 45bd 0f53 53bd 712c eb3c a5d3 5abd
00000150: 902b aabd c023 dd38 bcd6 9dbb 89ce 03be
00000160: f230 8e3b 0e20 91bc 15bc 9d3e 84d3 1d3e
00000170: 791a 503e bb9c 073e 75df 933d ab00 583e
00000180: fa68 a03d 3cb9 a23d eb64 643e a2e6 af3d
00000190: 9b49 79bc fa81 df3d e045 80bd 706d 6fbb
000001a0: 2c89 4bbd 28b1 54bd a42c 18be a8e6 33be
000001b0: 4cd3 69bd e7fa f239 dc24 35bd 280d 41bd
000001c0: 9e2c 34be 1f50 56bd 5563 00be dd90 53be
000001d0: a712 30be bedc e53c 0d2e 0d3c c14f f53d
000001e0: be8a f4bc ad1d 3dbc ea04 60bd d68c f53d
000001f0: 6a0e 60bd d8b1 f2bc 4922 dabc 5db1 84bd
00000200: e078 7d3d b302 68bd e76f 21be 4ca3 72bd
00000210: c6aa 44be 6cf1 53be cf58 46be fc5b 8d3e
00000220: 1d56 813e 07fa 8a3e ad6d 383e c681 a03e
00000230: 4e71 593e 6960 763d 6ecb df3d f4e2 b93d
00000240: a421 8c3e b951 f3bc 792b 65bb d5f3 543e
00000250: 1ab3 a9bd c56c 63bc 6d82 9b3e 7180 86be
00000260: aea5 61be e36f 5c3d e188 4fbd bbf1 643c
00000270: a781 8c3d 8545 93bc b716 363d dbc9 693e
00000280: 4f78 4d3e 0fdd 703e 9053 3b3e eee8 b63c
00000290: df26 113e 45e3 733e 1e56 9a3d 0de4 833e
000002a0: 5f05 413e 714e 183e 0e65 3d3e 3924 283e
000002b0: 3ff1 05bc d57b 9cbd c54e 083e c047 3cbe
000002c0: 0fa4 c7bd f33d 553e 97de 8dbe 656e 84be
000002d0: 7d68 3a3d 08ca b2bd 9680 4ebe 702a 853d
000002e0: a1bf 90be 436e 9cbe d1fb 9fbd 8417 41be
000002f0: 1a5e 91be ac04 383e e695 2e3c e8c1 20be
00000300: 3eec 0b3e d6bc 24be 457b 2abe b372 bb3d
00000310: 7164 98be 56ea febd c4d1 583d 3356 383d
00000320: fd57 abbc e444 5e3d 5018 6dbe 7063 49be
00000330: 57f3 133e bd8d 10be debb 14be 47ce a03e
00000340: 9ded 3a3e 0086 293e 5a61 933e 9a50 053d
00000350: 1716 b4bc 5e48 ed3d b5ad 4abe cc68 7cbd
00000360: 8f6f 583e c6d9 8b3a 624c aabd 8abd 823e
00000370: 0918 40be 247e 0fbd aa3c cf3d 7d13 3fbe
00000380: fe73 47be 5db1 5f3e 5f42 55bd 2311 aabc
00000390: c648 3b3e 0c31 52be 75c2 c8bd b424 b93d
000003a0: 02bd 09be 8220 03be bcbe 2a3e cbb8 31bc
000003b0: 5174 bfbd 5582 183d 6a7d 3ebe 66fd 41bd
000003c0: 2959 a9bd b5bd 63be 2962 91bc 8bcd a93e
000003d0: 6b2f 893d d893 153d 1153 703e ba77 b2bd
000003e0: 209a 91bd 8994 7c3e cc1d 59be 003a 2dbe
000003f0: 9974 4b3e 03e8 893d 2731 48bc caa4 e93d
-0.12340848 0.006182751 0.016147966 -0.17207864 -0.17889519 -0.042019125 -0.1914194 -0.15983272
-0.14199361 -0.06288327 0.17825715 0.19065222 0.13900732 0.009439501 0.030777667 0.16270028
0.1361888 0.19679315 0.08783818 0.13593191 0.31222004 0.06518857 -0.0049648997 0.13094
0.0066970186 -0.011508945 0.19080848 0.024047608 -0.12386298 -0.050665088 -0.10059966 -0.18457529
-0.037320975 -0.097120464 -0.17960072 -0.020895207 0.047834072 0.028397722 -0.1082535 -0.102834284
0.017925514 -0.022112574 0.018019743 -0.018635314 0.014616881 0.023382192 0.067779206 0.020036543
-0.07062195 -0.022626018 -0.042920057 -0.039623436 0.031159177 0.01791891 0.040625498 0.18015017
0.094460726 0.04544042 0.05092217 0.08811713 0.060764436 0.08815549 0.09228329 0.061915897
0.057368465 0.0926493 -0.005761648 0.037709873 0.03250935 -0.07387013 -0.21875674 -0.121431954
-0.093094386 -0.11962719 -0.07375724 -0.03573634 -0.12969781 -0.13219374 -0.07138401 -0.063563436
-0.048287366 -0.051592883 0.028707715 -0.053424496 -0.0830909 0.0001054476 -0.004816858 -0.12871756
0.004339331 -0.01771548 0.30807558 0.15412718 0.20322599 0.13243382 0.072203554 0.21094005
0.07832523 0.07945487 0.22304122 0.085889116 -0.015215303 0.10913463 -0.062633276 -0.0036533736
-0.049691364 -0.051926762 -0.14860779 -0.17568457 -0.057086274 0.00046344774 -0.044224605 -0.047131687
-0.17595145 -0.052322503 -0.12537892 -0.2066073 -0.17194615 0.02805936 0.008616936 0.119781025
-0.029851314 -0.01154272 -0.054692186 0.11989753 -0.054701246 -0.029625818 -0.026627677 -0.06479142
0.061882854 -0.0566432 -0.15765344 -0.059237763 -0.1920577 -0.20697564 -0.19369815 0.2760924
0.25261012 0.2714388 0.18010588 0.3134901 0.21234629 0.060150538 0.10927473 0.09076491
0.27369416 -0.029702054 -0.0034968539 0.2079614 -0.08286114 -0.013880913 0.30372944 -0.26269868
-0.22035858 0.05381764 -0.050667647 0.013973649 0.06860667 -0.017977485 0.044455256 0.22830908
0.20065425 0.23521827 0.18293595 0.022327866 0.14174984 0.23817165 0.07535957 0.25759926
0.18849705 0.14873673 0.1849558 0.16420068 -0.008175193 -0.076408066 0.13311298 -0.18386745
-0.097480886 0.20824413 -0.27708885 -0.25865474 0.045509804 -0.08729941 -0.20166239 0.06502235
-0.282712 -0.30552873 -0.07811702 -0.18856627 -0.28392106 0.17970532 0.010655856 -0.1569897
0.13664338 -0.1608766 -0.16648586 0.091527365 -0.2976413 -0.1244704 0.052934423 0.04500408
-0.02091598 0.054264918 -0.23153806 -0.19666839 0.14448296 -0.14116569 -0.1452479 0.31407377
0.18254705 0.16555023 0.2878521 0.03254757 -0.02198319 0.115860686 -0.19792826 -0.06162338
0.21136306 0.001066976 -0.0831535 0.25535232 -0.18759169 -0.035032406 0.101189926 -0.18659778
-0.19477841 0.21845002 -0.05206525 -0.020760125 0.1828948 -0.20526522 -0.09802715 0.09040204
-0.13451007 -0.1280537 0.16674322 -0.010847281 -0.093483575 0.03723367 -0.18602529 -0.0473608
-0.08268959 -0.22240336 -0.017747002 0.3316463 0.066984974 0.036517948 0.23469187 -0.08714242
-0.07109475 0.24666037 -0.21202773 -0.16916656 0.19868697 0.06733706 -0.01221875 0.11408384

feature_extractor.4.bias f4 [32]
00000000: 9c36 883d b222 aebc cf54 453d 0cf8 48bd
00000010: 37aa 3b3d e814 d5bc 2d76 013d b765 9fbd
00000020: 7b14 8f3c 7303 233c 5e18 f1bc 13c4 6bbd
00000030: a19f 39bd daf8 5bbd 356f b23c 2673 bb3c
00000040: fc9d 8fbd 0c85 353d 1d8c 06bd e2d3 f5bc
00000050: 01ba ddbd 380b 69bc a7e4 b2bc bd7d bcbc
00000060: 7ece a0bc 6d7c f8bb 4d2d 933c 5969 22bd
00000070: 4473 cebd b759 aebd 9531 84bc 0009 11bd
0.06651041 -0.021256778 0.048176583 -0.04906468 0.045816626 -0.026010945 0.03160684 -0.077830724
0.01746582 0.009949553 -0.029430564 -0.057560038 -0.04531825 -0.05370412 0.021781543 0.022882055
-0.07012555 0.044316337 -0.032848466 -0.03000826 -0.10826493 -0.014223866 -0.021837546 -0.023009175
-0.019629713 -0.007583192 0.017965937 -0.03965125 -0.10080579 -0.085132055 -0.016136924 -0.035408974

feature_extractor.5.weight f4 [32]
00000000: ac6d 853f 1b2b a03f 9fa3 633f 05f0 3f3f
00000010: d7f1 803f 5aeb 773f d0d5 873f 8633 403f
00000020: 834a 713f cbc2 5a3f e9e9 293f 2ec5 9e3f
00000030: 96df 483f 99c5 6b3f eac4 593f 2de1 733f
00000040: 214c 6c3f 3da3 3f3f bc8c 613f 5b2c 8e3f
00000050: 7b4c 813f 5b64 423f 7ac7 4c3f e21c 423f
00000060: beff 823f 53f5 723f b7c0 7e3f 592b 453f
00000070: cb93 6a3f e0ae 4f3f 89dd 6d3f 8fa7 5f3f
1.0424094 1.2513155 0.8892154 0.74975616 1.0073804 0.96843493 1.0612125 0.7507862
0.9425432 0.8545348 0.66372544 1.2403924 0.78466165 0.92098385 0.8506609 0.95265466
0.92303663 0.74858457 0.8810537 1.1107286 1.0101465 0.7593438 0.7999188 0.7582532
1.0234296 0.94905585 0.9951281 0.7701927 0.91631764 0.81126213 0.9291616 0.8736505

feature_extractor.5.bias f4 [32]
00000000: 235b d33d bd87 89bd 8325 eebd 81a8 a7bd
00000010: 2b62 44be d2b6 8abd d75a 49be c688 43be
00000020: 1a00 54bd 851c 08be 705d 38be 4566 2ebe
00000030: 0c00 36bd 9c2a 40bd 1276 d2bd e48d 4fbe
00000040: 9944 2dbd 41ac 85be 7f99 d9bd 6d3d 0bbe
00000050: 9d7c 5a3d 883b 41be 5caa f5bd 66b6 b83b
00000060: 384d ebbc b928 1dbd ca5a 66be 49de 0abe
00000070: a6ae 2cbd a1bf 10be cf53 babd e373 b5bd
0.10320117 -0.06715343 -0.116282485 -0.081864364 -0.19178073 -0.067731515 -0.19663559 -0.19095144
-0.05175791 -0.1329213 -0.18004394 -0.170312 -0.04443364 -0.046915635 -0.102764264 -0.2026897
-0.042301748 -0.26107982 -0.1062498 -0.13597651 0.053341497 -0.18870366 -0.11995384 0.005636978
-0.028723344 -0.038368914 -0.22495571 -0.13561358 -0.042158745 -0.141356 -0.090980165 -0.08859994

feature_extractor.5.running_mean f4 [32]
00000000: e560 c83f 81a2 7f3f 65df 063f 2ef3 5140
00000010: 3d61 cd3f 3fbe ed3f 9408 0b40 fcdb 20bf
00000020: e3d4 5840 ca49 9fbf c0bc 3e3f c61d 1240
00000030: 5a82 1640 1ec5 083f bb17 d1bc 3568 1cbd
00000040: 30dc f93e 9e36 fbbf 4714 9440 c3f4 c23e
00000050: a5d7 a33f 5b0f fabf a692 fabe b911 6b40
00000060: 7cb2 1b3d 5ba3 a83e aefe 1840 b968 9bbf
00000070: ceb5 133f bb69 a5bf 5e18 d63f 4479 8bbe
1.565457 0.99857336 0.52684623 3.2804675 1.60453 1.8573684 2.1723986 -0.6283567
3.3879936 -1.2444394 0.7450676 2.2830672 2.351706 0.53425777 -0.02552401 -0.038185317
0.48800802 -1.9626043 4.6274753 0.38077363 1.2800184 -1.9535936 -0.4894001 3.6729567
0.038012013 0.3293713 2.3905444 -1.2141334 0.57699287 -1.2922891 1.6726186 -0.27240956

feature_extractor.5.running_var f4 [32]
00000000: c8aa 2841 c852 b540 be5e 4a41 d60f 9f41
00000010: 2db6 2640 792c db40 558e d941 19b2 3741
00000020: e72b 2c41 89ea 6c41 4a72 a541 d4ac 1741
00000030: 3d53 bc41 52af 6a41 8158 3141 07ac 7740
00000040: 72e4 e041 af1a 7942 372f ba41 717e f440
00000050: a5c2 3440 6883 6f41 5d74 8c41 de33 f741
00000060: 9a73 6d41 4a3d 6a41 2698 6840 d5c8 2741
00000070: a308 8041 f1af 3e42 2db7 8b41 1d0e 6c41
10.541695 5.666355 12.64813 19.882732 2.6048691 6.849179 27.194498 11.480981
10.760718 14.80726 20.680805 9.479694 23.540644 14.667803 11.084107 3.8698747
28.111546 62.27606 23.273054 7.6404347 2.8243802 14.969582 17.556818 30.900326
14.840723 14.639963 3.6342864 10.486531 16.004217 47.671818 17.464441 14.753446

feature_extractor.9.weight f4 [16, 32, 3, 3]
00000000: c6ee b3bd bd1a d9bc 80e7 02be c4aa 11bd
00000010: 7ed8 d0bd bdda 25bd 171e 2fbd d827 90bd
00000020: b694 5fbd 5bc9 f1bc 6757 debd 5fb1 ddbd
00000030: cef9 13bd e385 d7bc a182 2b3d c769 e5bd
00000040: 7335 b1bd 7177 0cbc 902f 41bc 2180 d4bd
00000050: b803 09bd 8722 2dbb f434 d8bc 83fc d53d
00000060: 1d13 abbd f140 b7bd 5a8e afbd d1bb 6fbd
00000070: 664b a7bd f924 3dbd 986d 3abd b9a9 10bd
00000080: e716 03bd 203f d6bd 60de b5bd e629 c7bc
00000090: 1260 5dbd 804f a9bd 6845 703c c260 b5bd
000000a0: 6523 bfbd 0bcf cb3c 63ae 78bd 9acf d0bd
000000b0: 2c93 00be d960 2dbd 0ab2 38bd 0d0b 37bd
000000c0: 9287 05bd 187c f2bc b408 56bc 0242 debc
000000d0: 4e19 e2bc f54d 463d c9c9 8a3d 96e7 b3bc
000000e0: 09f1 6ebd d40c 93bd cae6 2dbd f1ff e13c
000000f0: 5d7f 25bd be16 dabc 0fca 64bd 672a 80bd
00000100: 40f7 63bd 7b80 7bbd 345f 86bd 4552 8dbd
00000110: 2e20 00be 5697 87bd 602d 7cbd 46be a2bd
00000120: 6226 99bd f6ca ccbc 8bcb b1bd 81da 84bd
00000130: 63bb 5ebd 3396 3cbd 0493 9abd 91db 5bbd
00000140: 60e8 7fbd 6f56 11bd f3f1 95bd 32c1 bfbd
00000150: 33b4 ddbd 2e14 51bd 8c53 543c bdbd 4bbd
00000160: 4524 d7bd 3d2b f7bd 0f61 ccbd 7229 84bb
00000170: 87c8 8abd b5e6 81bd 2983 46bd e750 70bd
00000180: 7c51 f5bd 72bc b1bd f05e 98bd e1cc ddbd
00000190: 8342 c8bd 5833 ea3d c7eb 8bbd 72b8 bcbd
000001a0: f7e1 82bd 1df8 b9bc b081 d8bd febf a23d
000001b0: fbc2 75bd 159a 91bd 1c4d bcbd ae44 8cbc
000001c0: fe29 cabc 97a0 46bc 9df1 b9bc f93f 3ebd
000001d0: fb79 96bd 47d9 abbc 943b dabd a07d 77bd
000001e0: e218 f1bd d0ec bebd 4285 f7bd de38 babd
000001f0: d3f9 39bc b9f5 2cbc b159 b7bd 2ac6 7b3b
00000200: 9061 a93c 9db4 42bd 3577 a1bd e2ec ae3d
00000210: 3fab bbbd 747d a7bc b8e7 83bd c675 b1bd
00000220: 9d89 84bd 4d2f 133d a4ef 99bb 630c bbbd
00000230: 54ae d5bc bbb6 7cbd d57c a73c 8a37 8f3c
00000240: 3dd1 32bd 24b5 923d 6b5a 9cbd 1b96 a1bd
00000250: 6daa d1bd d1a1 5bbd 4592 2bbd 1f7b bfbd
00000260: 0d51 e7bc 4847 703d 4032 93bd 106b ad3d
00000270: a7c9 87bd 1e2f 25bd a3b1 303d c91e d9bc
00000280: 0be8 9ebd e2b0 05bc 2079 f7bc 3c32 f0bc
00000290: 9338 02be 4028 99bd 7979 b4bd 922d dfbd
000002a0: 3109 0abd 8e5e bdbc 1637 9abd 43db 29bd
000002b0: 19ce 82bd 7fa2 163c a579 80bd f945 05be
000002c0: 75bb 583c e26f e2bd 608d d8bd dbb2 23bb
000002d0: e6ae 46bd 370f bcbd 1cd3 b8bc ab1f e8bd
000002e0: 11a4 f0bd 1879 7abd 9a17 3ebd ed7c b0bd
000002f0: 6087 c3bc 9d4d 5abd b09d e9bd d8c4 3a3d
00000300: 3714 55bd e921 8cbd 93b2 b2bd b12b 3dbd
00000310: ea04 c9bd 9842 04be 5d53 a6bd 5d56 cfbd
00000320: 9a92 9fbd 8ebf d3bd d50d c2bc 0126 e1bd
00000330: c861 20bd 4516 45bd d5d0 5c3c 75ff eebd
00000340: 2573 f4bd b348 c7bd 2b93 10bd 2509 9dbd
00000350: 395b f0bd 1321 65bd e8a8 97bd b268 ffbd
00000360: b3e9 b0bd 56b0 dfbd 73c4 1ebc b3e9 95bc
00000370: 28de c8bd 7ad8 dcbd 4cf7 9ebd 5f23 9ebc
00000380: 4107 02be d03e 8ebd 1749 c2bc df72 30bc
00000390: bdf8 9fbd 059d 49bd 704d f1bc 0814 05bd
000003a0: 7de2 dbbd e70f e5bd aee5 16bd b947 efbd
000003b0: 9967 34bd c50e c5bc 2022 f6bd 9c66 eabc
000003c0: 26f9 e6bd dd5f c5bd ac50 cbbd c819 19bd
000003d0: 846b 6bbc 7278 c7bc 16d7 023c 7c87 10bd
000003e0: 5127 72bd 46ac 3fbd 6566 1fbd 27a6 5c3c
000003f0: f959 56bd 4d2a debd 90ef cabc c920 afbd
-0.08785777 -0.026502008 -0.12783623 -0.035563245 -0.101975426 -0.04049181 -0.042753305 -0.070388496
-0.05458518 -0.02951496 -0.108565144 -0.108248465 -0.036126904 -0.02630896 0.041872624 -0.11201816
-0.08652773 -0.008573399 -0.011791125 -0.10376001 -0.033450812 -0.0026418285 -0.026392438 0.104485534
-0.08353255 -0.089479335 -0.08572073 -0.058528725 -0.08168678 -0.046177838 -0.045514673 -0.03531811
-0.032004263 -0.10461259 -0.08880305 -0.02431197 -0.054046698 -0.082671165 0.014664985 -0.08856346
-0.09332923 0.024879 -0.060713183 -0.10195847 -0.12556142 -0.04232869 -0.045091666 -0.044688273
-0.032599993 -0.029600188 -0.013063598 -0.027131084 -0.027599957 0.04841419 0.06776769 -0.021961015
-0.058335338 -0.07180181 -0.042456426 0.027587863 -0.040404666 -0.026622172 -0.05585676 -0.062580876
-0.055655718 -0.061401825 -0.06561127 -0.06900457 -0.12512276 -0.06620662 -0.06156671 -0.07946448
-0.07478024 -0.024999123 -0.08681401 -0.06486989 -0.054377925 -0.04604168 -0.07547572 -0.05367619
-0.06247747 -0.03548282 -0.07321539 -0.09363021 -0.10825386 -0.051044635 0.012959372 -0.049741495
-0.10504965 -0.12068794 -0.0997945 -0.004033261 -0.06776529 -0.06342832 -0.048464928 -0.058670904
-0.119784325 -0.08678521 -0.07439983 -0.10830093 -0.09778311 0.11435574 -0.0683208 -0.09214868
-0.063907556 -0.022701317 -0.10571611 0.07946776 -0.0600004 -0.07109467 -0.09194395 -0.017122593
-0.024678227 -0.012123249 -0.022698218 -0.046447728 -0.07347485 -0.02097763 -0.10655895 -0.06042254
-0.11772324 -0.09322512 -0.12085964 -0.09092878 -0.011351067 -0.010556632 -0.08952654 0.0038417676
0.020676404 -0.047535527 -0.07884065 0.085412756 -0.09163522 -0.020445563 -0.06440681 -0.086650416
-0.0647156 0.03593378 -0.004697757 -0.09133222 -0.026084103 -0.061697703 0.020445267 0.017482538
-0.043656576 0.07163456 -0.07634433 -0.078899585 -0.10237584 -0.053621117 -0.04188754 -0.09349655
-0.02823689 0.05866173 -0.07187319 0.08467686 -0.06630259 -0.040328138 0.043138158 -0.026503937
-0.077591024 -0.008159848 -0.030209124 -0.029320829 -0.12716894 -0.0747838 -0.088122316 -0.10897364
-0.03370017 -0.023116376 -0.07530038 -0.04146887 -0.06386966 0.0091940155 -0.06273202 -0.13014974
0.013228287 -0.11056496 -0.1057384 -0.0024978432 -0.04850664 -0.091825895 -0.022561602 -0.11334165
-0.11750043 -0.06115064 -0.046409227 -0.08617578 -0.023868263 -0.053296674 -0.1140703 0.04559788
-0.05202123 -0.06842405 -0.087254666 -0.046184245 -0.098153904 -0.12916028 -0.08121369 -0.10123894
-0.07791634 -0.103392705 -0.023688236 -0.10993577 -0.03915575 -0.04811694 0.013477524 -0.11669818
-0.119360246 -0.09730663 -0.0352966 -0.0766776 -0.11736149 -0.055939745 -0.07405263 -0.12471141
-0.086383246 -0.10922305 -0.009690392 -0.018299913 -0.09807998 -0.10783477 -0.07762012 -0.019303976
-0.1269808 -0.06945574 -0.023716493 -0.010769575 -0.07811115 -0.04922201 -0.02945587 -0.032489806
-0.107365586 -0.11184674 -0.036840133 -0.11683602 -0.04404411 -0.024054894 -0.120182276 -0.028613381
-0.1127799 -0.09637425 -0.09927496 -0.037378103 -0.014368895 -0.024349425 0.007985851 -0.035285458
-0.059119526 -0.046795152 -0.03891601 0.013467348 -0.0523319 -0.10847912 -0.024772435 -0.08551175

feature_extractor.9.bias f4 [16]
00000000: d0f2 5fbd 4644 7dbd f469 4dbe b052 d9bc
00000010: d021 90bd f949 9bbd 0182 4cbd 0b4d a4bd
00000020: e343 18be 849c a2bd ac4f 89bd 386e c53c
00000030: dc91 18bd 82aa 0bbb 4c41 99bd 4e9c 96bc
-0.054674923 -0.06183269 -0.20059949 -0.026528686 -0.07037699 -0.075824685 -0.04992867 -0.08022507
-0.14869647 -0.07940009 -0.06704649 0.024100408 -0.037248477 -0.0021311347 -0.074831575 -0.018385079

head.0.weight f4 [128, 1600]
00000000: 5276 b83a 03ba a6bd e889 b6bd e836 b8bd
00000010: 3cbd a5bd 7e36 8dbd 9060 98bd d90b a9bd
00000020: 6d0c 95bd a992 adbd df7e 98bd 8fa6 78bd
00000030: 74ce 88bd 7ae2 adbd 5c16 69bd 3104 7a3d
00000040: 9832 7cbd 5f56 9dbd 38e5 87bd 92c7 9abd
00000050: e441 92bd 8653 49bd 3a81 5dbd 672b 9dbd
00000060: 96f2 71bc 1b24 883d 5e24 2cbd 957f 8ebd
00000070: cde8 2bbd 106c 64bd 00c9 55bd 0bd0 6abd
00000080: 82dd 893d bf56 0c3d 5e20 9fbd 942c 9fbd
00000090: 1773 5dbd 33a2 40bd c9bf 05bd 1390 a0bd
000000a0: 9087 4fbd c2b6 30bd 3d4d cebd 955c 0cbd
000000b0: 16ba 60bd e285 293d 4200 8e3c e83d 81bd
000000c0: fb9d 79bd 7ba0 9dbd 7b82 f83c f906 b9bd
000000d0: 4bda 9ebd 185f ddbc 0daf 34bd 4207 6dbc
000000e0: 762f 34bd 1daf 7abd 12b9 a0bd 4bdb 43bd
000000f0: 9c7e 9cbd 702c 67bd a4a3 86bd 5132 0a3b
00000100: 0ca6 32bd a4b5 8dbd afe0 febc 6d48 9dbd
00000110: df1a 42bd 67ab 81bd de88 95bd 51eb 9dbd
00000120: 717d 663d 09c2 65bd fa0f a0bd d3d6 193d
00000130: c7ca 83bd c77c 72bd 005c 31bd 95d0 2abd
00000140: b88c 7ebd e8f5 2fbd 74b5 a0bd 6f5a 83bd
00000150: 18fe 4a3d ab2a 543d 8178 983d 12b0 703d
00000160: 11ee 54bd 630c 2bbd 10ed 12bd c21b 74bd
00000170: 3530 79bd 1b4b 56bd 51ab 90bd f11f 0e3d
00000180: a73e 1d3d 6d0a a03d a1a0 5bbd 02f4 93bd
00000190: d51c 41bd 48fc d0bd e9f0 c8bd 5e31 8fbd
000001a0: dbe2 71bb a77a 8fbd 754a b9bd 1924 85bd
000001b0: 6e08 bbbd 99b5 96bd 5f20 6fbd b33f 56bd
000001c0: aac5 91bd 332f 81bd 01a3 2fbd 07ca 0dbd
000001d0: 569d 24bd e9b9 80bd bd59 38bd 977c 9abd
000001e0: 0b9f acbd afab 11bd 63ff 8cbd 8313 9abd
000001f0: acab b53c d4b9 79bd ff87 06bd ca8f 9f3d
00000200: 5b4e 81bd 2043 2cbd d5fc 78bd 9416 92bd
00000210: d552 88bd 2dbb 763d bfd7 41bb 9cbe 96bd
00000220: 47ef 133c adb1 6a3d f8a1 26bd 152b 6fbd
00000230: 7635 9abd 0336 99bd 8501 80bd ff98 913d
00000240: a0b4 0abd 1633 90bd a4ba abbc 43d2 93ba
00000250: 5f2c 29bd 7c81 84bd db4e 9fbd c3b2 adbd
00000260: 9c18 11bd 3421 83bd 96e8 10bd e662 0bbd
00000270: 1e26 18bd ccb8 3bbd 9e52 99bd ec34 84bd
00000280: 91ec a2bd 9d3c 99bd b5db 54bd ad4e 9a3d
00000290: b1de 92bd c33f 92bd f9c3 31bd 1464 0cbd
000002a0: b1f2 52bd 02cc 8cbd 56bb 7ebd 2731 a6bd
000002b0: 6895 88bd 31b9 7d3d 3070 98bd e8f1 52bd
000002c0: 0b96 98bd f803 1bbd 5725 ddbc b664 80bd
000002d0: 8e59 b5bd 1fea 8cbd f23d 50bd 1c50 8cbd
000002e0: 770e 83bd b4b8 99bd 978b 33bd 6d08 17bd
000002f0: 4a0e 76bd 35bf 69bd c6f1 72bd 20fb 23bd
00000300: acd3 68bd 6d14 7cbd cc8d 5fbd edb6 b8bc
00000310: 26df 823d e3df 33bd d144 11bd 0363 5abd
00000320: 9f0f 63bd d92c a6bd c96c 09be 5a97 72be
00000330: 7011 4a3d 5cdf 893d fa8d 7f3d 14e3 a8bd
00000340: 2688 80bd 7e68 8cbd b802 f73b 4a75 4b3c
00000350: ae6a 023c 6cb8 0fbe 0f40 ea3d f870 c23d
00000360: 559f af3c 7f57 48bd dd72 f2bd 1baf d3be
00000370: 2559 663b b04b 95bd d40b 1cbe 5c60 b6bb
00000380: 6485 c8bd b3bf afbd 129d 34bd af7b 87bd
00000390: cf22 04be ffd9 87be d11c a6bd 773d 8abd
000003a0: 8aa6 3dbe a0e5 9ebc a8b8 573e efbe a43e
000003b0: ba01 d5bc 701c 74bd 618b d63b fc5c dfbc
000003c0: ba13 003f 28c9 863b 9cfc 863e ce13 6b3c
000003d0: 3fd4 2b3d 1fba 3c3d efa0 97bc 5b36 39bd
000003e0: 9ddd 3b3d 2ef9 4a3d 4b3f 993d 3b6c 07be
000003f0: 701d d83d 1dd8 00be ff09 6e3e 1a23 853d
0.0014073348 -0.08140948 -0.08913022 -0.089948475 -0.08092734 -0.06895159 -0.07440293 -0.08254213
-0.07277761 -0.08475239 -0.07446074 -0.060705718 -0.06680003 -0.084904626 -0.05690609 0.061039153
-0.061571687 -0.076824896 -0.06635517 -0.07557596 -0.07141474 -0.04915192 -0.05407832 -0.07674294
-0.01476731 0.066475116 -0.04202687 -0.06957928 -0.041970063 -0.05576712 -0.05219364 -0.05732731
0.067317024 0.034262415 -0.077698454 -0.077721745 -0.054064836 -0.047029685 -0.032653604 -0.0783998
-0.05066639 -0.04314304 -0.10073326 -0.03426798 -0.054864965 0.041387446 0.017334107 -0.06310636
-0.060941678 -0.07696625 0.030335655 -0.09034533 -0.0775648 -0.027022883 -0.044112254 -0.014467062
-0.043990575 -0.061202157 -0.07847799 -0.047816556 -0.07641336 -0.056438863 -0.06574181 0.002108712
-0.043615386 -0.06919411 -0.031112997 -0.0767983 -0.047388908 -0.063315205 -0.07301496 -0.07710899
0.056271974 -0.05609325 -0.07815547 0.037558388 -0.06435161 -0.05920103 -0.04330063 -0.041702826
-0.06214592 -0.042959124 -0.078471094 -0.06413733 0.04955873 0.051798504 0.07444859 0.058761664
-0.05198485 -0.04175986 -0.03587061 -0.059596784 -0.06083699 -0.05231772 -0.07063926 0.03469843
0.038389828 0.078144886 -0.053619985 -0.07224275 -0.047146637 -0.10204369 -0.09811575 -0.06991838
-0.0036908898 -0.07005816 -0.09047405 -0.06501026 -0.09132467 -0.07358856 -0.05838048 -0.052306842
-0.071177796 -0.06307831 -0.042880062 -0.034616496 -0.04018911 -0.062854595 -0.045007456 -0.07543295
-0.084287725 -0.03556412 -0.06884649 -0.07523253 0.022176586 -0.060968235 -0.03284454 0.077910975
-0.06313773 -0.042056203 -0.060787994 -0.07133213 -0.06656424 0.0602371 -0.0029578058 -0.073605746
0.009029216 0.05729835 -0.04068181 -0.058390696 -0.07529728 -0.07481005 -0.0625029 0.0710926
-0.033863664 -0.07040994 -0.02096302 -0.0011277873 -0.04130208 -0.0647001 -0.07778712 -0.08481362
-0.03542386 -0.06402817 -0.03537806 -0.034029864 -0.037145726 -0.045830533 -0.07486461 -0.064554065
-0.07955278 -0.07482264 -0.05196734 0.075345375 -0.07171381 -0.07141068 -0.043399785 -0.03427513
-0.05150098 -0.06874849 -0.062190376 -0.08114844 -0.06669122 0.06194419 -0.07443273 -0.05150023
-0.074504934 -0.03784558 -0.026995344 -0.06269209 -0.08854972 -0.068805926 -0.050840326 -0.06851217
-0.06399243 -0.075059325 -0.043834295 -0.03687327 -0.06007222 -0.057067115 -0.059312604 -0.040034413
-0.05684249 -0.061542917 -0.054578587 -0.022548163 0.063902184 -0.043914687 -0.03546602 -0.05331708
-0.05543482 -0.08114023 -0.13420404 -0.23690549 0.049333036 0.067320555 0.06239126 -0.08246437
-0.06275968 -0.06855868 0.007538166 0.012418101 0.007960005 -0.14035195 0.114379995 0.09494203
0.02143828 -0.048911568 -0.11838315 -0.41344532 0.003514835 -0.07289827 -0.15238887 -0.005565686
-0.09791067 -0.085814856 -0.044095106 -0.06615388 -0.12903903 -0.26533505 -0.08110965 -0.06750005
-0.18520561 -0.019396603 0.21066535 0.3217692 -0.0260018 -0.059597433 0.006547377 -0.027266018
0.500301 0.004113335 0.263646 0.0143479835 0.04195046 0.046075936 -0.018509356 -0.045217853
0.045865644 0.049554043 0.07482775 -0.1322488 0.1055249 -0.1258244 0.23246 0.06500836

head.0.bias f4 [128]
00000000: f539 56be ccdc 02bd 0f5f 483e 62b8 e9bb
00000010: 61a1 7a3e b4d0 37be a5b1 143e 1522 4d3c
00000020: 40a0 273e 422a 28be fe4f 1b3b 8ac9 523e
00000030: 7d82 83bd e960 42be 8ceb c03b 01f6 af3e
00000040: d700 9abd 7efc 763d 2c66 72be b391 90bd
00000050: 4986 c03e a02b d73d 9d6f 5dbe e660 01be
00000060: fdc3 f73b 88f8 0fbe 574f 81be 0d11 973c
00000070: 9f0f f8bc d887 87be 4244 073e 24bf 5b3d
00000080: eb78 bf3d a9f7 2bbe 5321 c43d 33d4 ccbc
00000090: 002c e5be a39d 273e 0207 5a3e 278c 823e
000000a0: bf41 1c3e 0f97 343d 10c1 b8bd 3854 4bbe
000000b0: e526 3f3e 3200 8ebc 13d1 bcbb 8d3d 053e
000000c0: 8c39 bfbd 6215 ac3d cf75 873e 31b6 d83c
000000d0: 5bd2 493e c286 40be 752e 01bf 7eac 113e
000000e0: 4be0 0c3e a2ff 0dbe e631 adbe e716 b03d
000000f0: 4ec9 18bd 33d9 8abd 07cc 3d3d d7e9 59be
00000100: 6c67 bc3d 9638 cc3d 5eec 68bd 7460 d73e
00000110: 15ef 823d 05a0 5b3d 6f83 6f3e 6c0b 22be
00000120: 2963 123e eebe a63e f24f 953e 2513 adbb
00000130: 5b89 5dbe cef9 82be 019c 25be c874 6cbe
00000140: 8650 323e 2633 26be d181 81be 0f6b 1ebe
00000150: b4ed 043c 5896 59bc b997 febc 4dc8 483e
00000160: a542 26bd 3b0c 78be 85dc 7bbd 2bfc 713c
00000170: 39ac 20be ba9d 1a3e 4d8a d03c 591c 34be
00000180: 1c81 c93e d842 f5be 8b88 be3d f3d1 dd3d
00000190: 11c3 69bd 43f2 2a3e db39 293e f632 edbd
000001a0: 8970 25bc bef1 cabd cd51 b13e 6f33 473e
000001b0: 34a4 b0be 1e45 0bbe 140c c33d ac0c 8fbd
000001c0: 059b 943e 24cb 3cbe ed71 7dbe 6ac2 d1bb
000001d0: 6f42 9c3e 3264 583e e73a 0c3e 9060 dd3d
000001e0: eb11 8d3e c4d9 ec3e 5dae babe e985 10be
000001f0: c544 633e 15ca 323e 22e9 093e d575 303d
-0.20920546 -0.03194885 0.19567512 -0.007132576 0.24475624 -0.17950708 0.14520891 0.012520333
0.16369724 -0.1642237 0.0023698802 0.20584694 -0.06421373 -0.18982281 0.0058874544 0.34367374
-0.075196914 0.06029939 -0.23671788 -0.0705904 0.3760245 0.10506368 -0.21624608 -0.1263462
0.0075612054 -0.14059651 -0.25255844 0.018440748 -0.030280886 -0.26470828 0.13209632 0.053649083
0.09349235 -0.16793694 0.095766686 -0.025003528 -0.44760132 0.16368727 0.21291736 0.25497553
0.15259455 0.044089373 -0.09021199 -0.19856346 0.18667181 -0.017334078 -0.0057622283 0.13011761
-0.09337148 0.08402516 0.26457068 0.026454063 0.1970915 -0.18801406 -0.5046151 0.14225957
0.13757436 -0.13867047 -0.33827132 0.08598118 -0.037301354 -0.06779709 0.046337154 -0.21280609
0.09199414 0.099717304 -0.056866042 0.42065775 0.063932575 0.053619403 0.23389982 -0.1582467
0.14295639 0.32567543 0.29162556 -0.005281823 -0.21634428 -0.2558121 -0.16172792 -0.23091424
0.1741353 -0.16230449 -0.25294355 -0.15470527 0.0081133135 -0.013280474 -0.031078206 0.19607659
-0.0405909 -0.24223416 -0.0614896 0.014769594 -0.15690698 0.1509923 0.025456572 -0.17588939
0.39356315 -0.4790256 0.09303387 0.1083106 -0.057070795 0.16693978 0.16525976 -0.11581986
-0.010097631 -0.0990939 0.34632722 0.19453214 -0.34500277 -0.13600585 0.09523788 -0.06984839
0.2902452 -0.18436867 -0.2475049 -0.00640135 0.30519435 0.21131971 0.13694344 0.108094335
0.27552733 0.46259892 -0.36461154 -0.14113583 0.22194202 0.174599 0.1346784 0.043081123
