optim/models/siamese_net_trained_[<ImagePreprocessing.CROPPING: 'cropping'>, <ImagePreprocessing.BACKGROUND_REM: 'background_rem'>, <ImagePreprocessing.GREYSCALE: 'greyscale'>].pth (torch, 872264 bytes, 16 tensors)

feature_extractor.0.weight f4 [16, 3, 3, 3]
00000000: cd06 49be 5247 743d 6ab5 9dbd 8a22 113e
00000010: 673d c63c c070 753c c04d d33d 21dd 3c3e
00000020: 4a72 3a3e 2998 833d 1078 903e 2018 203e
00000030: dc93 83bd 9aa1 9a3e 9ece 803e 21d9 75bd
00000040: b457 343b 9da1 a4bd f530 d4bc dc33 9f3e
00000050: bac0 cabc 2f52 4a3e 0208 d83d aa04 963d
00000060: 2752 17bd 86e0 14bd c531 8fbd 336c a03d
00000070: d6c9 6fbd 4a12 15be b52d 0abe f13d a53d
00000080: dce0 aa3d 4ded 2dbd 8fda 9f3d 918a 5cbe
00000090: a309 54be be4d 3dbe 3325 10be 6ddf 33be
000000a0: 5216 933d c2a2 9fbc f706 dabc 0f91 30be
000000b0: 5277 513c a447 5b3d f00b 833d e318 2fbe
000000c0: f15e 17be 290f b4bd d6b8 0bbd 939a 7fbe
000000d0: 4afc 5cbd 8217 69bd e566 d7bd e2d4 903d
000000e0: d425 0abe 5338 bf3d 1024 9b3e ec50 2dbd
000000f0: bd68 8bbc d57d b6bc d344 1b3d 0fd8 bbbd
00000100: 3c27 2c3e ac77 943d 4409 1b3e 68c5 233e
00000110: 236f 683e 39c9 d2bd 6d57 a93d 5ab5 533e
00000120: fc11 e23d 7f9d cabd 7424 ff3d d8ff e13d
00000130: 7966 31bd 9416 8a3e 6099 2a3c 1ff8 a43e
00000140: 4574 d13c 22db 58bd bb66 113e dde9 3bbe
00000150: dff5 1cbe 381a 023d f184 023e 4cb1 d8bd
00000160: a11f 493d a7c0 8a3e 5080 9c3d a7ee 18be
00000170: 0cba 2dbe b769 95bd f724 663e 24ee dcbd
00000180: d952 4b3e 3c20 8b3e a5cd b4bd 717c f43d
00000190: 76da 043e 7e4f f8bd 4c18 283e 59df 8b3e
000001a0: d92f 413e 1003 0a3d 657b 333e 4395 033e
000001b0: 2b7a d03d 6859 9ebc 9ca9 643e a1d3 b1bc
000001c0: 6b54 763e 3ae0 b3ba d585 87bd debe a83e
000001d0: 511c 483e 99f0 ae3d 3874 a23e d051 1f3d
000001e0: fbd1 1f3e 9729 5c3e 427d 9abb a1b7 a0bc
000001f0: 0512 833e 6b2a 693e af7b 92bd d543 403e
00000200: c220 7e3e 7854 03be b23d 9a3e 340c 133d
00000210: 1c29 d23d e0f1 4a3e dbb6 883e 0230 bdbd
00000220: acc3 adbb aa30 a9bd 4abe 4ebe 1c39 86bc
00000230: d295 1cbe ba49 cdbd 9e84 143e 5a7d 03be
00000240: f5f9 30bc 89a1 843d 0ae7 6cbe 37e3 02bd
00000250: fe6c 1e3e 8762 58be 0ec2 0cbe 2d69 e63c
00000260: 8af7 85bd bfce a6be 6307 29be d2e7 8abd
00000270: 913f b03d f12e 1fbe ce89 c3bd d625 92bc
00000280: e71e 2a3e 08c0 6f3c de4c b43d ee3a 7d3e
00000290: bd8a 8fbd 4c1f 423e f186 9e3e 5302 8f3d
000002a0: 6cf9 07be 12dd 00be 07d9 edbd c352 9a3d
000002b0: 04d8 07bd 8691 3a3e 187e 573e 4a45 cc3b
000002c0: af5c 3a3e 5bf8 08be 6499 4d3d 6311 1a3c
000002d0: 21b3 ec3d 0381 003c bf35 393e 761b 99bd
000002e0: 1c62 a53e daad f43b d922 06be 1538 b83c
000002f0: 58db d53d c93b 5d3d c92a 14bd 756a 613e
00000300: e8f9 193e e787 ce3e 68f8 bb3e c8fe 61be
00000310: 60eb 20be a901 09be f011 f63d f36b 243e
00000320: 8a20 a23d 3436 063e 0c07 703e 8b16 af3d
00000330: 6e1a a83d d689 01be b23e 21be 1e2d 25be
00000340: 0de1 3a3e d203 fe3d 08bc 313d 4d70 483d
00000350: e53f a23e 1416 403d 245f 0a3e 6402 3bbe
00000360: 467e d3bd 8dff 76bd 827e 663d 6dcd 0bbd
00000370: 2bcb 213e 4fb7 d53b 2c66 c03a 5e81 ce3d
00000380: f6b6 ea3d b0af 863d 8168 863e 8a47 c63d
00000390: b6cf 7f3e cb6e 8f3d 4255 0f3d 4ffa 69bd
000003a0: 5854 553c 19fd 943e 321b 2e3c a9d2 8d3e
000003b0: 23cd 623e 92d7 853c 9d2a 1f3c b87f 553e
000003c0: 5077 d33d 8677 673e 37e6 6a3e 73af 643c
000003d0: 3c15 30be 0e26 883c 89d0 85bd 7254 093e
000003e0: 6ce1 16be 99df f23d d647 8d3d 5fcd 3f3e
000003f0: c5ec 26be 4ae3 debd fd90 55bc 8b92 d63d
-0.196315 0.05963833 -0.077006176 0.14173332 0.0241992 0.014980495 0.10317564 0.18443729
0.1820766 0.064255066 0.282166 0.15634203 -0.06424686 0.30201417 0.25157636 -0.060021523
0.0027518095 -0.08038638 -0.02590225 0.31094253 -0.024750102 0.19757913 0.10548402 0.07325108
-0.03694358 -0.036346935 -0.06991915 0.07833137 -0.058542095 -0.14557758 -0.13493998 0.08068455
0.0834367 -0.042462636 0.078053586 -0.21537234 -0.20706801 -0.18486688 -0.1407669 -0.17565699
0.07181992 -0.019486789 -0.02661465 -0.17242835 0.012784796 0.05353512 0.06398761 -0.17099337
-0.14782311 -0.08791954 -0.03411182 -0.24961309 -0.05395154 -0.056907184 -0.105176724 0.07071854
-0.13490993 0.09336915 0.3030095 -0.0423135 -0.017017717 -0.022276798 0.037907433 -0.09172069
0.16811842 0.07249388 0.15140253 0.15993273 0.22698645 -0.102922864 0.08268628 0.20674649
0.110385865 -0.09893321 0.12458125 0.110351264 -0.043310616 0.2697035 0.010412544 0.3222055
0.025568137 -0.052943356 0.14199345 -0.1835093 -0.15328167 0.031763285 0.12746026 -0.10580692
0.04910243 0.27100107 0.07641661 -0.14934789 -0.16965503 -0.07295554 0.22475038 -0.10787609
0.19855823 0.2717303 -0.08828286 0.11937798 0.12973961 -0.12124537 0.16415519 0.27318838
0.18865909 0.033694327 0.1752754 0.12849908 0.10179552 -0.019329742 0.22330326 -0.021707358
0.2405564 -0.0013723441 -0.06617323 0.3295812 0.19542052 0.08541984 0.31729293 0.03889638
0.15607445 0.2150024 -0.004714639 -0.019618811 0.25599685 0.22770087 -0.07152497 0.18775876
0.24817184 -0.12825191 0.30125195 0.03590031 0.10261747 0.1981883 0.26702008 -0.092376724
-0.005302867 -0.08261235 -0.20189777 -0.016384654 -0.15291527 -0.10023828 0.14503714 -0.12840787
-0.010801782 0.06476123 -0.2313501 -0.03195497 0.15471265 -0.21131335 -0.13745901 0.028126324
-0.06541355 -0.3257961 -0.16506724 -0.067824975 0.08605874 -0.1554525 -0.095477685 -0.017840307
0.16613351 0.014633186 0.08803724 0.24729511 -0.07008884 0.18957251 0.30962327 0.06982865
-0.1327874 -0.12584332 -0.1161366 0.07535317 -0.033164993 0.18219575 0.21044195 0.006233846
0.18199418 -0.1337599 0.050195113 0.009403559 0.115576036 0.007843259 0.18086909 -0.07475941
0.32301414 0.007467014 -0.13099231 0.02248768 0.10442227 0.054012094 -0.036173616 0.22013266
0.15036738 0.4033806 0.36712956 -0.22069848 -0.15714788 -0.1337954 0.1201514 0.16056804
0.079163626 0.13106614 0.23440188 0.085492216 0.08208166 -0.12650236 -0.15746573 -0.16130492
0.18249913 0.124030724 0.04339221 0.048935223 0.31689373 0.046896055 0.13512856 -0.1826263
-0.10326819 -0.060302306 0.05627299 -0.034131456 0.15800159 0.006522096 0.0014678887 0.100832686
0.11460678 0.065764785 0.26251605 0.09681614 0.24981579 0.07003554 0.034993418 -0.05712348
0.013020597 0.29099348 0.010626601 0.27699783 0.22148566 0.016338143 0.00971475 0.20849502
0.103254914 0.22604188 0.22939382 0.013957846 -0.171956 0.016619708 -0.065339155 0.1341112
-0.14734429 0.11859054 0.06898467 0.18730687 -0.16301258 -0.10883196 -0.013035056 0.104771696

feature_extractor.0.bias f4 [16]
00000000: 7faf c23c a287 073e 35c7 67bd ae67 413e
00000010: b41a 963b 2816 4d3e dc8e f53c d621 0e3d
00000020: bcf3 0c3d d579 833e 1def 1e3e 4407 e13d
00000030: 49f6 8cbc d8a8 673d d3e4 593d 0f32 c23d
0.023765324 0.13235334 -0.056586463 0.18887207 0.00458082 0.20027983 0.029975347 0.034700237
0.03441213 0.25678888 0.15520902 0.10987714 -0.017207282 0.056557506 0.05319674 0.09482204

feature_extractor.1.weight f4 [16]
00000000: b8cf 8b3f ac57 643f 8120 823f 7cd1 4c3f
00000010: 5f97 663f 0e8a 703f c677 5f3f 3723 833f
00000020: 29e8 703f 5838 8b3f 6ab6 733f 472c 813f
00000030: fae1 9d3f 73ea 963f 3bb9 573f 0ee7 703f
1.0922766 0.89196277 1.016617 0.8000715 0.90074724 0.93960655 0.87292135 1.0245122
0.9410425 1.087657 0.95200217 1.0091637 1.2334588 1.1790298 0.84267014 0.9410256

feature_extractor.1.bias f4 [16]
00000000: 6146 8dbe 41ac 23be d049 c0bd 0e3a 07be
00000010: 8e86 bcbd ef33 0ebe 2e9a e6be e376 683e
00000020: 65e4 9dbe 2a51 4c3e ac02 3d3e 4521 0f3e
00000030: c3da 29be 8123 093f 5b2b a6bd bd18 e43d
-0.27592757 -0.15983678 -0.093890786 -0.1320574 -0.09205352 -0.13886999 -0.45039505 0.22701602
-0.30838314 0.19952837 0.1845805 0.13977535 -0.16587357 0.535698 -0.08113738 0.11137531

feature_extractor.1.running_mean f4 [16]
00000000: 47f8 5ac0 9568 6240 de16 67c0 3b9d 15c0
00000010: 1e28 d0c0 4166 5540 cd30 3dc0 4237 5ec0
00000020: 22f7 97c0 1d7d d73f 74fc 4b40 b496 1340
00000030: fa60 b6c0 23fe c440 c2c9 c0c0 9972 4440
-3.4214036 3.5376332 -3.6107707 -2.3377216 -6.504897 3.334366 -2.9561036 -3.4721227
-4.7489176 1.6835057 3.1872835 2.3060732 -5.699338 6.1560225 -6.0246286 3.0694945

feature_extractor.1.running_var f4 [16]
00000000: 95d3 cf3e fe8a da3e fa14 e63e ab53 813e
00000010: d66b ba3f 1cc0 b83e 9846 a53e 841b dd3e
00000020: 0c17 563f 0f53 b43d 3957 b03e c4b4 1d3e
00000030: 4ece 913f 0d62 b33f 6838 a83f 6543 a23e
0.40591112 0.42684168 0.4493788 0.25259146 1.4564159 0.36084068 0.3228042 0.43185055
0.83628917 0.08804905 0.34441546 0.15400988 1.1391084 1.4014298 1.3142214 0.31692043

feature_extractor.4.weight f4 [32, 16, 3, 3]
00000000: ee32 a4bd edf0 47bd ae8b 6dbd 64f5 95bd
00000010: 6435 b9bc b619 11be 2104 c6bd 8044 d9bc
00000020: 53bc 2cbe 9c8e bcbd 791f bcbd e1fe cabc
00000030: 809e 553c e83f c8bc a907 dfbd 51ea 663c
00000040: 0dfe 79bd 7fe3 86bd dfbc 54bd 46a4 b9bd
00000050: 3668 e4bd f815 8bbc 14a0 e4bc 8a7c adbc
00000060: 1ecb a13c b665 09bd 3be8 b6bd 8cca a33d
00000070: 0fd4 24bd eafe 4fbd 770d d63d 8c47 41bc
00000080: 302a ce3c aef8 c03d cb51 293d e881 173c
00000090: f600 16bd a1aa eebd 0b1e 11be 2f9b 243c
000000a0: fec4 02bd 9fb7 fcbd 9eb2 67bd 8758 383c
000000b0: 98b5 083d 13ff 41bd e9dd 40be bbe0 b6bd
000000c0: 9362 ba3c 7169 43be 591f 4bbd 739a 513d
000000d0: e4d1 94bd 9e01 03bd 95b2 49bd 8fa5 1ebd
000000e0: e154 40bc 59c1 393c a54b 14bd 3066 7abd
000000f0: bb30 8bbd 5739 febd 137c 19be 1b11 24bd
00000100: b668 f03c 220d da3d c267 50bd 0f9f 2abd
00000110: 40ec cf3c df2a f7bb d9e5 093d b49b ebbd
00000120: ed6d abbd add5 e2bd 0fb7 d2bd d6dd 06be
00000130: c6c4 c9bd a592 b33b 1644 b6bd dfe6 3fbe
00000140: df3b 97bd 1301 67bd 62ea f1bd 0ea8 a8bc
00000150: 9a29 023d 90f4 093e 8a1c 59bc a74f 823d
00000160: 1eba 853c f67b eb3c d385 14bc 4f4e 97bd
00000170: bab2 1ebd 8dff ab3d f030 4b3d 4e8e 50bd
00000180: 6fa1 d63d 2fbe 9a3c 5dc3 2bbd e051 733d
00000190: bbb9 ecbb 413e d83b a57d 85bd 7824 5239
000001a0: 1cb3 a03c ae15 01bd adfa 17be 6457 33bd
000001b0: 1619 c6bd eea6 f7bd d638 a4bd 92f3 d8bd
000001c0: 97bd 8dbd 9f0e b3bd e585 dbbd b235 3abe
000001d0: 061d 3cbe e5c9 de3d f766 01bd b84e 983b
000001e0: 62c9 74bc 1bd5 b13d 97da 4bbd 9e98 b9bd
000001f0: 51db b43d b942 92bd 3c24 49bd b9c2 523a
00000200: c11f 12be a786 b63a 41ed a9bd 8d47 5dbd
00000210: 960f a8bd 70d6 afbd 7863 713c bd4c 36bd
00000220: 9468 8fbd 33fb 9c3c bf0e 7ebd 6214 fcbd
00000230: 57e7 24be 6683 16bc 8634 3d3d 06f7 01bd
00000240: e6b4 383e 93cd 8a3e 4716 fc3d fdbe 41bc
00000250: e683 62bc 333d 4abd 9772 82bd fb12 1bbe
00000260: 5eca 33be e146 1dbd 977b e6bc 93fa d93c
00000270: 5f71 dd3b fc7e 883d d324 32bd c14b 61bb
00000280: fb75 9e3c 8812 2c3d facc 693e cbb3 db3d
00000290: e3a0 d73d 95c2 58bd 388e cdbd e80a 92bd
000002a0: 5c6e 2dbe 6d83 7cbe a753 48be 83b3 4a3e
000002b0: 40a5 7e3e 4f3d e63d 648d 003e 43c7 a43c
000002c0: 370d 7ebc 8286 423d 2f19 4fbb 4aa6 15be
000002d0: 1622 5a3e 5122 7f3e a67a 99ba 9997 e93c
000002e0: 2370 5bbd 5552 34be 7a03 32be e374 17be
000002f0: 073d d5bd c6a1 213e 9786 f13b 19f9 383d
00000300: c4db f23d 4e1f be3b 47ab aabd 5994 953d
00000310: 65d9 e5bb 1f2e 18ba 208e 763e 9126 f53d
00000320: 075e 443e 84b8 633d 4f52 e53d 3491 1bbb
00000330: 7a5c 7c3c 2fe1 50bd 5496 0bbe d655 9c3e
00000340: 71e4 413e 8a96 253e 92cf 8fbd 5395 953d
00000350: 0898 81bc f098 993d 4b61 a4bc e328 863b
00000360: 7bd7 de3d aa3c 1c3e edb3 413d 04d0 91bd
00000370: 8ecb b6bd e8bd 89bd 86ab 04be 1f3f d9bd
00000380: b308 44bd 2bc0 c93d 2c23 933d e26a 273e
00000390: 0887 833e cae7 c93d 5500 f53d bd0d f53d
000003a0: e01b 0e3d e449 513e 693f 1c3e 078e 223d
000003b0: c6d2 c53d 06ef 383e e4c2 383e 5b3f 103e
000003c0: a9ff 683e 550b 233e 8fc6 8b3c 543d 093e
000003d0: 578b 3d3d 045d d73d ffd1 403e 3638 4bbd
000003e0: ae65 e33c 8cb9 8e3d 0a90 f23d d860 b9bd
000003f0: 49a5 3d3e 3a3c 7d3e ee5c fe3d d778 15bd
-0.080175266 -0.04881375 -0.057994537 -0.07322195 -0.022608466 -0.14169964 -0.09668756 -0.026521921
-0.16868715 -0.09206888 -0.091856904 -0.024779739 0.013038278 -0.024444535 -0.10890133 0.014093951
-0.061033297 -0.0658636 -0.051937934 -0.09064536 -0.11152689 -0.016978249 -0.027908362 -0.021177549
0.019750174 -0.033544265 -0.08931013 0.07997617 -0.040241297 -0.050780214 0.10451787 -0.011796843
0.025166601 0.09422432 0.04133777 0.009247281 -0.03662201 -0.11653639 -0.14171617 0.010046764
-0.031926148 -0.123397104 -0.056566827 0.011251575 0.033376306 -0.0473624 -0.18834652 -0.08929583
0.022752082 -0.19083191 -0.049590442 0.051172685 -0.07266596 -0.031983964 -0.049242575 -0.038732108
-0.011738987 0.011337602 -0.036204953 -0.06113261 -0.06796404 -0.124132805 -0.14988737 -0.040055376
0.029346805 0.10647036 -0.0508802 -0.041655596 0.025381207 -0.0075429524 0.033666465 -0.115043074
-0.08370576 -0.11075912 -0.10288822 -0.13170561 -0.09851985 0.005480128 -0.08899705 -0.18740414
-0.073844664 -0.05639751 -0.11812283 -0.020587947 0.031777956 0.134722 -0.013251433 0.06362849
0.0163241 0.028745633 -0.009065109 -0.07387983 -0.038744666 0.08398352 0.049607217 -0.050916962
0.1048001 0.018889515 -0.04193436 0.059404254 -0.0072242892 0.006599218 -0.065181054 0.00020040746
0.019616656 -0.031514816 -0.14841719 -0.043784514 -0.096727535 -0.12092386 -0.08018653 -0.10593332
-0.06920927 -0.08743023 -0.10718898 -0.18184546 -0.18370447 0.10878352 -0.031592336 0.004648056
-0.0149405915 0.08683225 -0.04976901 -0.090623125 0.08830894 -0.071416326 -0.04910682 0.000803988
-0.14269926 0.0013925628 -0.08297206 -0.054023314 -0.08206098 -0.085858226 0.014733188 -0.044506777
-0.070023686 0.01916275 -0.06202578 -0.12308575 -0.16103874 -0.009186601 0.04619267 -0.03172972
0.18037757 0.27109966 0.123089366 -0.01182532 -0.013825392 -0.04937477 -0.063695125 -0.15143959
-0.17557666 -0.038397674 -0.028135104 0.02660874 0.0067578997 0.06664845 -0.04349215 -0.0034377428
0.019343367 0.04200986 0.22832099 0.10727652 0.105287336 -0.052919943 -0.10036892 -0.071309865
-0.1693663 -0.2465951 -0.19563161 0.19795041 0.24867725 0.112421624 0.12553936 0.020114547
-0.01550608 0.047491558 -0.0031600704 -0.14614215 0.21302065 0.24915434 -0.0011709526 0.02851467
-0.05357374 -0.17609532 -0.17384139 -0.14790682 -0.10412031 0.15784368 0.0073707807 0.045159433
0.11858323 0.0058020717 -0.0833345 0.07303686 -0.007014441 -0.00058052124 0.24077654 0.119702466
0.19176494 0.05559589 0.1119734 -0.002373767 0.0154029075 -0.050996 -0.13631564 0.30534238
0.189348 0.16170707 -0.07022013 0.07303872 -0.015819564 0.07499874 -0.020065924 0.0040942295
0.108809434 0.15257517 0.04729073 -0.07119754 -0.08925544 -0.06725675 -0.12956056 -0.106077425
-0.04785986 0.09851106 0.07184443 0.16349366 0.25688958 0.098586634 0.11962954 0.11965511
0.034694552 0.20438343 0.15258564 0.03968623 0.096593425 0.1805993 0.18043095 0.14086668
0.22753777 0.15922292 0.017062454 0.13402301 0.046275463 0.10515788 0.18830107 -0.049614154
0.027758446 0.06968984 0.118438795 -0.090516746 0.18520083 0.24730006 0.12420069 -0.036492195

feature_extractor.4.bias f4 [32]
00000000: 6fa8 513c 4959 b53d 87a3 573d d51b b8bb
00000010: 0b6f a73d b20c 493d 4ce3 12bd 3b36 693d
00000020: 4899 803d c53c 84bd 7f80 7f3d 9c23 96bd
00000030: 6ed7 07bd a09f c93c 70fa 4f3d 2e87 27bd
00000040: 55a8 3cbd 8576 6cbd c0da 14bd f0b5 0d3c
00000050: d826 463d e0d2 7a3d 6031 a73d 17ef 82bd
00000060: 9b02 203d a2f8 27bb 2092 efbc 1286 853d
00000070: 5c51 923c 6d08 a3bd 5258 bb3d 136b a0bc
0.012796505 0.088549204 0.052646186 -0.005618552 0.08175477 0.049084373 -0.0358613 0.056936484
0.06279236 -0.06456903 0.062378403 -0.07331011 -0.033164434 0.024612248 0.050775945 -0.0409004
-0.04605897 -0.057730217 -0.03634143 0.008649334 0.048376888 0.061236262 0.081637144 -0.06393259
0.039064985 -0.0025630374 -0.029244483 0.065197125 0.01786106 -0.079605915 0.09147705 -0.019582307

feature_extractor.5.weight f4 [32]
00000000: 0e92 3e3f aad2 893f 69c3 7a3f 3846 2f3f
00000010: 1915 4e3f a653 323f 57a2 433f 40a1 3b3f
00000020: a086 723f 94cb 6b3f 2c68 923f e0f5 3b3f
00000030: a35a 423f a3c9 923f 4ced 733f 5706 853f
00000040: b841 703f 2575 843f a373 403f 27c6 9c3f
00000050: 9080 393f b602 8d3f 978c 353f 07c5 a23f
00000060: 0eb6 903f 8913 5d3f 5ca2 893f 89ed 9b3f
00000070: ca93 853f c17c 803f dee3 3d3f b784 473f
0.7444161 1.0767415 0.9795442 0.6846652 0.8050094 0.6965889 0.76419586 0.7329292
0.9473667 0.9210751 1.1438041 0.7342205 0.7591955 1.1467785 0.9528396 1.039256
0.9385028 1.034825 0.7517645 1.2247971 0.72461796 1.1016452 0.7091765 1.2716378
1.1305559 0.86357933 1.0752673 1.2181865 1.0435727 1.0038072 0.7417582 0.7793688

feature_extractor.5.bias f4 [32]
00000000: 7dc1 48be 5168 a7be a05e 8bbe 9fa1 3ebe
00000010: db69 11be dec5 e43c fc2c 56be 76ea 1abe
00000020: 5ed6 50be 5363 0abe 8e46 3fbe d061 51be
00000030: a097 2dbe 0403 9ebe 0403 86be 029d b63d
00000040: e44f 123e e224 39be fcd7 41be 6db1 c2be
00000050: 56d9 6abe 52c9 9fbd acc4 43be da10 b5bd
00000060: 4f5b 24be 5443 f1bd 81c3 84be 225d 83be
00000070: 2cb6 58be 90c8 f2bd e87c 50be 98b6 21be
-0.1960506 -0.32696775 -0.2722063 -0.18616341 -0.14200537 0.027926382 -0.20915598 -0.15128502
-0.20394275 -0.13514452 -0.18679258 -0.20447469 -0.16952372 -0.30861676 -0.26174176 0.089166656
0.14288288 -0.18080476 -0.18930048 -0.3802599 -0.2293447 -0.07802071 -0.19117993 -0.08841105
-0.16050456 -0.1178042 -0.25930408 -0.25656992 -0.21163243 -0.118546605 -0.20360148 -0.1579231

feature_extractor.5.running_mean f4 [32]
00000000: c4d1 75bf f903 2f40 085e 093e b171 f2bd
00000010: e700 9c3f 8594 a8be d7dd 393f d90e c13f
00000020: 17d9 06bd 5ae5 163f 7a50 b73f 830b a2bf
00000030: 60dc 4dbf 52df 983f fa02 bf3f 06d1 7dbf
00000040: 5d0a 9dbf 6764 2d40 213d 88bf b4b7 2340
00000050: c181 d3bf f288 44bf e404 b4bf a390 15c0
00000060: 39d8 0dbe d2e2 a3be 0437 3240 2199 dc3f
00000070: fc30 e03e a5bf a4bf da9c 62bf 231d 6ebf
-0.960232 2.7346175 0.13414776 -0.11838091 1.2187775 -0.3292581 0.72604126 1.5082656
-0.032921877 0.5894371 1.4321434 -1.2659763 -0.8041439 1.1943152 1.4922783 -0.9914707
-1.2268788 2.709253 -1.0643655 2.5580873 -1.6523973 -0.7677146 -1.4063993 -2.336953
-0.13852014 -0.32008988 2.784608 1.7234231 0.43787372 -1.2870985 -0.88520586 -0.9301321

feature_extractor.5.running_var f4 [32]
00000000: 744e 8341 b9bd 8140 2dc0 b640 94ca d440
00000010: af36 f541 81ce 0b42 4c43 d641 23cd a541
00000020: 4d85 1341 d5d8 0841 936e 8841 af36 bb41
00000030: b930 9441 6ef2 5641 a186 de3f 5553 4641
00000040: e251 ac41 e706 f840 ed7c 8a40 1e19 b840
00000050: 7c13 a941 f0c1 9241 3600 0541 5328 4740
00000060: 01d7 7b41 8f39 ab41 8d29 bf40 f057 5a40
00000070: 272f c841 bf7e b440 8485 0741 93cb c941
16.413307 4.0544095 5.710959 6.649729 30.651701 34.951664 26.78286 20.725164
9.220044 8.5529375 17.053991 23.401701 18.52379 13.434187 1.7384835 12.395345
21.539982 7.7508426 4.3277497 5.753066 21.134514 18.344696 8.3125515 3.1118362
15.739991 21.403105 5.973822 3.4116173 25.023024 5.640472 8.470097 25.224401

feature_extractor.9.weight f4 [16, 32, 3, 3]
00000000: 9574 bdbd fa96 9cbd 7f3b 07bd 0f12 d5bc
00000010: 8dc7 0fbe 83ca 91bd 2c1a d4bd 78ad e0bd
00000020: e889 8dbd f277 813e a8f0 a9be 0aff eb3b
00000030: e854 bcbe 75ed 03be fcf6 45bd 369f 5cbe
00000040: e302 8dbd 9a91 00bc 7393 873e e0c1 92be
00000050: fa26 09bd e066 c5be 93d4 edbd df9f 09bd
00000060: bae1 ccbc 6834 82be 24d9 2dbc 1d31 2f3e
00000070: 1f39 6ebe 9f35 ffbc 53d9 e3bd e854 f5bc
00000080: 9799 34bd 514e f6bd de77 08be bbce 753d
00000090: bff8 393e e9d9 79be 713d adbd 838c 55be
000000a0: 85ce 15be a222 17bd cee7 51be 26b5 e8bd
000000b0: a3dc 0d3d ac03 3fbd db9a 5abe 1ad6 f7bd
000000c0: 57ba 9fbe 99cb 91bd 4b4d cabc 7387 8fbd
000000d0: d294 8fbd 1880 99bd e17c ab3d 1de6 94be
000000e0: 6078 16bd 8564 cbbd d149 203d 8f14 eebd
000000f0: 11f4 853d 5922 87be 0d8d 49bd 29ae 16bd
00000100: 2fb5 60be 9364 a6bc 8032 10be 81ef d0bd
00000110: b537 febd e10e acbd 5aa7 883d 4ce8 2a3d
00000120: 390e 363e 5fcd 50be ca72 aebc a4c7 a2be
00000130: cce5 eebd 918f 5dbd d9ae 383d 8c85 94bd
00000140: d743 4fbb a06c 863e 67e6 aabe 19a9 97ba
00000150: bc96 b5bd cf61 afbd e675 363b 05f2 c3bd
00000160: dbdb c13b b59d 7d3d b040 303e bfa0 91be
00000170: fc72 56bd c276 b6be beee 01be a7e3 11be
00000180: 59f3 09be 8d14 0c3c 0515 1c3c a0cf b8bd
00000190: 03a7 38bd 135a fcbc ff39 05be 80d1 c4bd
000001a0: b423 0dbe 30d5 00be f70c 98bd 30e6 44bd
000001b0: 2b0f d4bd accd 9abd ba04 7f3d c70b 1ebd
000001c0: 88fe a23c d610 683d 4681 143d a433 b23d
000001d0: 0a07 893d d465 e53d 1f7c 46be 35b3 8cbd
000001e0: 0300 97be 8624 76bd 56e1 373d 7522 cfbd
000001f0: 17ce abbd 6226 d83b b250 14bd 8ba7 5cbe
00000200: dfd0 a4bd 842b 9ebd 1fb6 afbd 3b83 b1bd
00000210: 3aff 9ebc c06c b6bd 7350 2c3c 7b65 16bd
00000220: ac96 99be 2d9a 56bd 9d5f eebe 3695 e7bd
00000230: 09d7 81bd 1820 293e 00f9 4dbe 042d 05be
00000240: 15d0 273e bd4c 81be 5b63 15be 86be c1be
00000250: 9112 9bbd 493c 3abc 1c7d adbd 888d f0bd
00000260: 8638 69bd e075 e73c 7c34 06be b3d1 203e
00000270: 5050 c6be 2e7a 2dbe ef19 a9bd 9c11 89bd
00000280: 93dd b43d 9a72 b23d 4160 02be d0a4 d5bd
00000290: 33c4 1ebd 3a6b 2fbe 0b45 49bd b696 3bbc
000002a0: a4b1 10bc a596 1cbe b124 b33c f6c4 9abd
000002b0: 84a9 79be c159 41be bb61 31be b9ed 0cbe
000002c0: 8a22 7cbd ea8e 0c3e ed77 1abe feda a9bc
000002d0: 3f4f c5bd 9646 56bd f023 38bd 8c4e d8bd
000002e0: da2a fbbd 7bf0 21bd ef5d 0bbe 324f 54bd
000002f0: 3412 a1bc b119 6d3d 94e4 80be dc01 d6bd
00000300: 8c1f 9cbe 57d1 553b 4bd9 fdbd 326b 31ba
00000310: d902 bfbc 6870 84bd aac8 1bbe d8f2 d0bc
00000320: 47e2 8cbd 47e4 9dbd a29a 93bd c236 9bbc
00000330: 1663 f7bd 6b54 b3bd a03d 4cbc b57d 86be
00000340: 0ca3 b6bd acdf 82be df3c d1bc dd66 943d
00000350: 29a5 2a3c 9300 8a3d c740 59be 0408 2d3b
00000360: 5808 0bbc d28c 98be 1307 46be 8dc5 b1be
00000370: 85ef 683b b03a 47bd 287b f1bc 56f0 cfbc
00000380: 625c babc 40a0 e1bc 683f f0bd ba1b 2ebe
00000390: a8a3 24be 7bfb fbbd e357 f2bd 0980 4ebe
000003a0: 9805 39be 61dd d23c 69f8 df3e 3519 78be
000003b0: d63d 5dbd f056 22be f29f 04be 927f 42be
000003c0: b94c 9ebd 08b7 98bb 841e ceba 337e eb3c
000003d0: 20a1 52be cdeb 2abe ced8 d4bd 9c6b 40bd
000003e0: 7bd9 78bd 4685 a43d ee11 46bd 4684 0bbd
000003f0: ac7e 88bd 4b0c b1bd 49c3 06be 7394 1ebe
-0.09250752 -0.07645984 -0.033015724 -0.026009588 -0.14040966 -0.07118704 -0.103565544 -0.109705865
-0.06911069 0.25286824 -0.3319142 0.007202034 -0.36783528 -0.12883551 -0.048331246 -0.21545109
-0.06885316 -0.007847214 0.26479682 -0.2866354 -0.033484437 -0.3855505 -0.11612811 -0.03359973
-0.025009979 -0.25430608 -0.010610852 0.17108579 -0.23263977 -0.031153498 -0.11125436 -0.029947713
-0.044091787 -0.120266564 -0.13326976 0.060011607 0.18161295 -0.24399532 -0.08458985 -0.20854382
-0.14629562 -0.036898263 -0.20498583 -0.11362676 0.034634244 -0.04663436 -0.21348135 -0.121013835
-0.31196854 -0.07118911 -0.02469506 -0.07008257 -0.07010807 -0.07495135 0.08373428 -0.29081813
-0.036735892 -0.09931282 0.039132897 -0.11625015 0.065406926 -0.26393393 -0.049206782 -0.036787186
-0.21944116 -0.02031163 -0.14081764 -0.10201932 -0.12412969 -0.084012754 0.06672545 0.04172544
0.17778863 -0.20390843 -0.02129497 -0.3179294 -0.11664924 -0.054091994 0.045088623 -0.072520345
-0.003162613 0.2625475 -0.33378908 -0.0011570781 -0.08866641 -0.085635774 0.002784127 -0.09567646
0.0059161014 0.06191798 0.17212176 -0.28442952 -0.05235575 -0.3563748 -0.12688729 -0.14246999
-0.13471736 0.008549822 0.009526496 -0.09023976 -0.04508115 -0.03080467 -0.13010405 -0.096102715
-0.13783151 -0.12581325 -0.07424348 -0.048071086 -0.103544556 -0.0755876 0.062260367 -0.03858545
0.01989676 0.05665668 0.036256097 0.08701256 0.06690796 0.11201063 -0.19383286 -0.068701185
-0.29492196 -0.060093425 0.04489263 -0.10113994 -0.08388918 0.0065963725 -0.03620977 -0.21548288
-0.080476515 -0.07723144 -0.08579659 -0.08667608 -0.01940881 -0.08907461 0.010517227 -0.036717873
-0.29997766 -0.052393127 -0.46557322 -0.113077566 -0.06339843 0.16516149 -0.20114517 -0.13005453
0.16387971 -0.2525386 -0.14588682 -0.3784067 -0.07571901 -0.011366912 -0.08471128 -0.11745745
-0.05693867 0.02825445 -0.13105959 0.15704994 -0.3873315 -0.16941139 -0.082568996 -0.06692812
0.088313244 0.08713265 -0.1273203 -0.10431826 -0.03876133 -0.17130747 -0.04913811 -0.0114495065
-0.008831415 -0.15291841 0.021868082 -0.075570986 -0.24381071 -0.18881895 -0.17322437 -0.13762559
-0.061556377 0.13726392 -0.1508481 -0.020734306 -0.096342556 -0.05231341 -0.044956148 -0.105618566
-0.12264033 -0.03953598 -0.13610052 -0.05183334 -0.019662 0.05788583 -0.2517439 -0.104495734
-0.30492818 0.0032625997 -0.12394961 -0.00067679875 -0.023316788 -0.06466752 -0.15213266 -0.025506422
-0.068790965 -0.07709556 -0.07207228 -0.018947009 -0.12079446 -0.08756336 -0.012465864 -0.26267782
-0.089178175 -0.25561273 -0.02554172 0.07246182 0.010415354 0.06738391 -0.21216117 0.0026402483
-0.008485876 -0.29794937 -0.19338636 -0.34721032 0.0035543155 -0.048639953 -0.02947767 -0.025383156
-0.02274913 -0.027542233 -0.11730844 -0.17002764 -0.16078055 -0.123038255 -0.11833169 -0.20166029
-0.1806854 0.025740327 0.4374421 -0.24228366 -0.05401405 -0.15853477 -0.1295164 -0.18993977
-0.077294774 -0.004660491 -0.0015725647 0.0287467 -0.20569277 -0.16691513 -0.10392915 -0.046977624
-0.06075428 0.080332324 -0.048356943 -0.034061693 -0.06664786 -0.08644923 -0.13160433 -0.15486316

feature_extractor.9.bias f4 [16]
00000000: e1e8 cebe 4ed3 e3bd 9f9e c53c 1022 06be
00000010: 4796 a3be 1272 f5bb 8798 68bc de49 0fbd
00000020: a2c2 ec3c a7ec b8bd 1236 c8bd 4b52 37bd
00000030: 95a5 94be 2c14 89bd 459a 01be cec4 74bd
-0.40412048 -0.111242875 0.024123488 -0.13098931 -0.3195059 -0.007490405 -0.014196522 -0.034982555
0.028901402 -0.09029513 -0.09775938 -0.044756215 -0.2903258 -0.066933006 -0.12656505 -0.059758

head.0.weight f4 [128, 1600]
00000000: 0060 75bc b34c 67ba 5e55 09bb f7a5 b6bc
00000010: 57b3 533c ece2 4a3c 1381 9e3c 654d 2e3a
00000020: 45d8 a1bc 0a9b afbc 9fe1 87bd 962a 9bbd
00000030: 857f 56bd 357d 91bd 56b4 60bd a3a1 02be
00000040: d852 35be 437d 99bd 018b 39bd f226 9ebd
00000050: f80d 14bd 9a33 7dbd 798f 9abd b376 eebd
00000060: 02eb dd3d dcd1 973d 47c0 29bc 9352 d8bd
00000070: de14 88bd accc 76bd 54e3 3bbd a041 81bd
00000080: eb23 4abd 37c6 953c e483 5d3d 06f9 5dbd
00000090: 5a93 f4bb 3f7a 623e fa4b 333e a7bb 50bd
000000a0: e5d7 15bd 402b 94bd 4330 1dbd 8914 923d
000000b0: 3d97 d93c 73fc a4bd cce3 283e 439e 2bbe
000000c0: d98c 31bf a222 7fbd 65d2 9abd 63a8 6f3c
000000d0: cb63 ae3d 2792 23be 916b dbbd 337e cc3d
000000e0: 42ea 2ebe 2b54 5a3e e953 203e 1372 6bbd
000000f0: 9557 65bd 9216 8ebd ba13 c3bd cba1 33bd
00000100: e29e b23d 130b 1a3e 7059 943d fc1c b6bd
00000110: 49e7 00bd 2394 70bd a559 13bd e992 1dbd
00000120: 0d67 d13d 5549 c4be ec12 533e afef c2bc
00000130: 00ff 51be cf25 bd3d fd59 21bd 189f 65bd
00000140: 01e3 18bd d870 40bd e37c 0cbd bb39 323e
00000150: dd63 353d bdc5 6a3e 5b1d 9ebe 6983 25bd
00000160: 1fe7 97bd 5cc4 20bd 8eab 14bd ef90 94bd
00000170: cba7 92bd c53f 6dbd dd80 01be dfc9 09bd
00000180: 6ffe a5bd 5736 9cbd 7422 77bd 09d2 9fbd
00000190: b224 5a3c 3232 83bd b627 86bd e11a 88bd
000001a0: fdd0 8ebd 3d54 9dbd 1ac0 6cbd 68d2 1dbd
000001b0: e65f 3ebd 45b5 a0bd c33d 3bbd 4570 57bd
000001c0: 5106 00bd a9a1 06bd 099b 063d d934 74bd
000001d0: c754 82bd 68a6 12bd 44f0 71bd 7beb 35bd
000001e0: c6dc 13bd 8c67 57bd 57d0 7cbd a60a 513d
000001f0: a8cb 9dbd f524 853d 12b9 dd3c 9a8f 273c
00000200: c257 98bd cc18 50bd 277f 0bbd a84e 35bd
00000210: 0ce3 7cbd 6ab6 a0bd 6a8f 933d ad3f 3abc
00000220: 8020 923c 4066 e2bc 6a66 4e3d dd5c 5bbd
00000230: 6a49 0ebd 76c9 0bbd afb4 3dbd 4a37 68bc
00000240: 46e6 79ba a0cf 11bd 4f47 2b3d e561 9f3d
00000250: e033 debc 740c 94bd ba86 58bd 220f 39bd
00000260: 8af9 1abd b1cb b83d af75 30bd d38f cfbc
00000270: ff13 c83d 0e32 e5bd c93f 14bb e726 1cbd
00000280: 1692 f3bc f52a 8abd 8bd8 69bd 4434 bc3c
00000290: 90cb 3bbd e1f5 89bd cad8 3ebd 109b 4abd
000002a0: 637a 393d dea2 62bd f13f 54bd 271d 8ebd
000002b0: f2b9 13bd 8b8a b5bc 36a5 97bd b025 87bd
000002c0: c22a 35bd b29c 603d a5a5 27bd c953 3cbd
000002d0: 68ea 44bd f2a8 83bd bbdb 49bd e55a 19bd
000002e0: dbe5 5cbd 2707 ebbc 5362 97bc e3f4 8bbd
000002f0: 4bff 95bd 0a74 74bd 7e60 92bd f6f6 77bd
00000300: e208 86bd fb05 9cbd 7b65 84bd 4695 98bd
00000310: d097 f7bc f0e2 4ebd 2232 74bd 52ef 70bd
00000320: e57b 123d 1159 e33d cb0c ca3d a5af e23d
00000330: 7408 ce3d 2321 fb3d 6529 fa3d 1033 e83d
00000340: 1e6c c33d e4b7 f63d 5f27 b0bb d2f2 403c
00000350: f305 393d 12f3 4a3d f59f 8a3d 0b85 233c
00000360: 4963 a93c ae6b 353d bcd4 293d 9d84 403d
00000370: 0cb5 e53c 4cda ba3c 6265 5d3d 9406 4bbe
00000380: 1575 4fbc 8109 b0bd 00db 4b3d a89d 223d
00000390: 6c61 063c 8476 0b3d 8822 c6ba 9fa3 173c
000003a0: 4d62 2fbd fa8a d4bd 54eb b6bd b674 003e
000003b0: 96f1 52bd a057 9a3d 5c90 383d 9fe4 c03c
000003c0: 093f 9dbb a87d 94bb 54a5 953a 9c57 243c
000003d0: 03ae ba3a a52b 273d 6ff9 b93c 13e3 4a3d
000003e0: 61f3 f63c 25df 353d 20d1 5d3b e18e 91bd
000003f0: 6770 83be 7e0d a0bc e817 bbbd f793 dcbc
-0.014976501 -0.000882338 -0.0020955424 -0.022295935 0.012921176 0.012383204 0.019348657 0.0006649106
-0.019756446 -0.021436233 -0.06634831 -0.07576482 -0.052367706 -0.071039595 -0.05485948 -0.12756972
-0.17707384 -0.07494595 -0.04529858 -0.07722272 -0.036146134 -0.06181679 -0.075468965 -0.11643734
0.1083584 0.074130744 -0.010360784 -0.10562625 -0.06644605 -0.060253784 -0.045871094 -0.06311345
-0.04935066 0.018282993 0.05408086 -0.054192565 -0.0074638547 0.22116946 0.17509452 -0.05096021
-0.036582846 -0.07234812 -0.038376104 0.07132823 0.026561374 -0.08055963 0.16493148 -0.16759591
-0.6935554 -0.062288888 -0.07559661 0.014627549 0.08515128 -0.15973721 -0.10713876 0.09985008
-0.1708155 0.2132117 0.15657009 -0.057481837 -0.055991728 -0.06937899 -0.09525247 -0.04385547
0.08721711 0.15043287 0.07243621 -0.08892247 -0.03147057 -0.058735024 -0.035974164 -0.038470183
0.102247335 -0.38337198 0.20612687 -0.02379593 -0.20507431 0.09235727 -0.03939246 -0.056059927
-0.037325863 -0.046982616 -0.03429879 0.17404835 0.04428469 0.22926994 -0.3088177 -0.040408526
-0.0741713 -0.039249763 -0.03629642 -0.072542064 -0.0716091 -0.057922143 -0.12646814 -0.033639785
-0.0810517 -0.07627552 -0.06033559 -0.07803733 0.013314413 -0.06406058 -0.06550543 -0.06645752
-0.06973455 -0.07682083 -0.05780039 -0.038530737 -0.046478175 -0.078470744 -0.045713197 -0.052597303
-0.031256024 -0.032869015 0.032862697 -0.059620712 -0.06363826 -0.03580323 -0.059067026 -0.044414025
-0.036099218 -0.052588984 -0.061722126 0.051035546 -0.0770486 0.065011896 0.027065787 0.010227108
-0.074386135 -0.0508049 -0.03405681 -0.044264466 -0.061739966 -0.07847293 0.072050884 -0.011367721
0.017837763 -0.027636647 0.05039064 -0.05355536 -0.03473798 -0.034127675 -0.04631489 -0.014173338
-0.00095329096 -0.035598397 0.041816052 0.07782344 -0.027124345 -0.07228938 -0.05286286 -0.045180447
-0.037835635 0.09023226 -0.04308098 -0.025337135 0.09769439 -0.11191188 -0.0022621027 -0.038123038
-0.029732745 -0.06746475 -0.057091277 0.022974141 -0.04584843 -0.06736351 -0.046593465 -0.049464285
0.045282733 -0.055331104 -0.05181879 -0.06939154 -0.036066003 -0.022160789 -0.07404558 -0.06598985
-0.04423023 0.054836936 -0.040929455 -0.04597834 -0.04807511 -0.06428708 -0.049281817 -0.0374402
-0.053930145 -0.028689934 -0.018479502 -0.06833818 -0.07324084 -0.059680976 -0.07147311 -0.060538255
-0.06544663 -0.07618328 -0.06464668 -0.07450347 -0.030223757 -0.050509393 -0.059618123 -0.058821984
0.035762686 0.111009724 0.09865721 0.11068658 0.10060206 0.1226218 0.12214927 0.113378644
0.09542106 0.12046793 -0.005375787 0.011776643 0.04517169 0.049548216 0.06768791 0.00998045
0.020677226 0.044292144 0.041462645 0.04700147 0.028040431 0.02280917 0.054051764 -0.19826728
-0.012662192 -0.08595563 0.0497694 0.039701134 0.008201938 0.034048572 -0.0015116492 0.009255319
-0.042818356 -0.1037807 -0.08931604 0.12544522 -0.051499926 0.075362444 0.045059547 0.023546515
-0.004798774 -0.004531581 0.001141707 0.010030653 0.0014242533 0.040813107 0.022701947 0.04953296
0.030145349 0.04440226 0.0033846572 -0.0710733 -0.25671694 -0.019537684 -0.09135419 -0.026926024

head.0.bias f4 [128]
00000000: 3b53 4b3d e08f bfbd 8616 9ebe 619d 7d3c
00000010: 78f1 02be 00ec 6e3c 540d 46be 90d3 8e3c
00000020: a72d eb3c 5281 af3e 549d 13be 3ab2 0fbe
00000030: 50a3 983d dd78 903c 285b 803d 895b 0fbe
00000040: 2e3a 13bc 2bc0 70be 62ad 42bd 5877 903e
00000050: 45ea 753e 7912 3e3e a812 bcbc daba 6e3e
00000060: 2c35 0ebe 4d0c 3e3d 694d 183d 342e b3bd
00000070: 4d67 ebbc be37 a73d ef79 be3d af55 7ebb
00000080: 68d3 ebbd 9fa7 823d 21f9 653d 7e93 f43b
00000090: 49ea 4b3e 9666 583d f826 d7bd 1724 a5bd
000000a0: 1ff8 3dbe 1b08 3e3e 393b 04be f2d0 3ebe
000000b0: ce55 2ebe 1e51 94bd 771a 66bd f75f bb3d
000000c0: f82d 3f3e 99e4 333b 6d0a 933d 6290 28bd
000000d0: cc18 f53d 29fd 723c ec82 dcbd 81bc 0bbe
000000e0: 3d44 683e 752a 1ebe 625b 1ebe 4a85 573d
000000f0: ac75 ca3d 584d 1b3e ed58 5b3c a2b6 0cbe
00000100: db86 bebe 0e2a f43c 3b97 39be 4a02 333e
00000110: 0653 4cbe 03fb c5bc dfb6 dfbd a49f 6a3d
00000120: a12f 44be 652a 843d 2ba6 1ebe c9f1 1fbe
00000130: 8bf5 483e f241 0eb9 9722 a83d 1a2d 99bb
00000140: bcd0 fbbd c06c 553d c4ee 27be 53a5 403e
00000150: 1e66 313d e0cb 503e 3620 d7bd 92c8 1fbe
00000160: 8a16 4ebc 068e 473d aa63 2b3d d08c 503d
00000170: 7b7f e93c 0ca3 343e d56c 2b3e 7191 b4be
00000180: e673 053d e5d5 813d 638b 2b3e 00b1 ccbb
00000190: 0587 c53d 8dbd 413e 74d2 1ebd d2f1 b93d
000001a0: 1795 313d 6457 babd 7965 7d3d efd4 013e
000001b0: 97cc f93d 7dc2 2cbd 632e 413d 319a 86be
000001c0: 19a7 013e 5910 6f3e 2ef4 9fbd 5ce4 c0bd
000001d0: 65d5 50bd d03c 8cbd 4b4c 22be 54c4 4e3e
000001e0: ab20 6c3e 47af 263e e7d6 413e d692 30bc
000001f0: 0c23 983d 01d1 eabd 4763 5b3d 5cf6 513d
0.04963992 -0.09353614 -0.3087656 0.015479417 -0.12787426 0.014582634 -0.19341022 0.017434865
0.028708292 0.3427835 -0.14415485 -0.14032832 0.074530244 0.017635757 0.06267387 -0.13999762
-0.008986039 -0.23510806 -0.047528632 0.28216052 0.24015148 0.18561734 -0.022958115 0.23313466
-0.13887471 0.04639845 0.0371832 -0.08749047 -0.028735781 0.08164929 0.09300601 -0.0038808396
-0.11514932 0.063796274 0.05614579 0.0074638715 0.19913591 0.05283221 -0.105054796 -0.08063524
-0.18551682 0.1855778 -0.12913217 -0.18634394 -0.1702492 -0.072420344 -0.056177583 0.09149163
0.1866988 0.0027449487 0.07179723 -0.04115332 0.1196762 0.014830866 -0.10767159 -0.13646127
0.22682281 -0.15445884 -0.15464547 0.05261735 0.098857254 0.15166223 0.013387901 -0.13741544
-0.37212262 0.02980521 -0.18124096 0.17481342 -0.19953546 -0.024167543 -0.10923552 0.05728115
-0.19158794 0.064533986 -0.15493076 -0.15619577 0.19624917 -0.00013566742 0.082097225 -0.004674566
-0.12295672 0.052105665 -0.16399676 0.18813066 0.043310277 0.20390272 -0.105041906 -0.15603855
-0.012578616 0.04871943 0.041843094 0.05091554 0.02850317 0.17640322 0.16740735 -0.35267213
0.032581232 0.06339625 0.1675239 -0.006246686 0.096448936 0.18919964 -0.038774922 0.09079327
0.043355074 -0.090987 0.06186435 0.12678884 0.121972255 -0.042177666 0.04716338 -0.26289514
0.12661399 0.2334608 -0.078102455 -0.09418556 -0.05098476 -0.068475366 -0.15849416 0.2019208
0.23059337 0.162778 0.18929635 -0.010777196 0.0742856 -0.114656456 0.053561475 0.051260337
