optim/models/siamese_net_trained_[<ImagePreprocessing.CROPPING: 'cropping'>, <ImagePreprocessing.GREYSCALE: 'greyscale'>].pth (torch, 869646 bytes, 16 tensors)

feature_extractor.0.weight f4 [16, 3, 3, 3]
000000 5a 76 aa bd 29 af 31 3e 1e 55 53 3c 97 a9 1f 3e
       -0.08323355 0.17351975 0.0128987115 0.15592037
000010 f5 f7 80 3d 79 f4 cd 3c ec c0 d1 3d 0f 5b 82 3e
       0.06297294 0.025140988 0.10241875 0.25460097
000020 95 41 af bd 26 c9 29 3d 66 ae 54 3e a1 47 22 3e
       -0.08557431 0.041451596 0.20769653 0.15847637
000030 0a c4 20 3e a3 9a 78 3d d6 fc 00 3e f3 11 bf bc
       0.15699783 0.060694348 0.1259645 -0.023323989
000040 c9 43 87 3e 23 7c 63 be 05 d1 de bd 11 31 80 3d
       0.26418903 -0.22215323 -0.10879711 0.06259359
000050 66 3d c9 bd 70 e4 58 3e 1d 55 22 3e b9 b6 a8 bd
       -0.09826164 0.21180892 0.1585278 -0.082379766
000060 fb 10 65 3e 1a e7 b7 3d e7 8b 32 be a8 2f 47 3e
       0.22369759 0.08979626 -0.17436181 0.19451773
000070 8a fb 00 3e b2 25 01 3d f0 75 45 3e f0 c2 f7 3c
       0.12595955 0.03153009 0.19283271 0.03024432
000080 83 0f 1b 3e d9 30 e7 bd 0e 47 9a bd 4a 54 19 3e
       0.15142636 -0.11288614 -0.07533084 0.1497356
000090 31 2a 66 3e 85 d8 d2 bd 8a af 9f bd 8b ab 31 3e
       0.22477032 -0.10295204 -0.07797153 0.17350595
0000a0 96 4a 16 3e df da f6 3c 07 b1 af bd 2a cb ab bd
       0.1467689 0.030133663 -0.08578687 -0.0838836
0000b0 34 1c 60 bb 7d 5d 06 bd b3 10 6f 3e 5f 75 9d 3d
       -0.0034196498 -0.032804 0.23346214 0.076884024
0000c0 b0 2b b3 bd ff 1a 44 3e cc 7d 55 3e 15 b0 0d be
       -0.08748567 0.19150923 0.20848769 -0.13836701
0000d0 11 33 5a 3e 86 e5 1c 3d e8 29 ff bd f3 a9 c8 bd
       0.21308543 0.038304828 -0.12459165 -0.0979804
0000e0 76 ed 94 bc dc 06 da bd 1d 58 4d be 9b 43 8f be
       -0.018179636 -0.106458396 -0.20053144 -0.27981266
0000f0 41 ea 7f 3a 3f 60 d2 3d 65 53 3f be 98 78 11 3e
       0.00097623846 0.10272264 -0.18684156 0.14206159
000100 51 c4 37 be a8 eb 28 be 6e e5 b6 bd ef 26 9c bd
       -0.17945983 -0.16496146 -0.08930479 -0.076246135
000110 10 da 18 be af f7 07 3e df 2e 53 be 7b 53 d7 3c
       -0.14926934 0.13278078 -0.20623349 0.026284924
000120 c3 5a cf bd da c9 64 be be 3d 51 be 1b 8d b9 bd
       -0.10124733 -0.22342625 -0.20433709 -0.09060117
000130 46 2c 57 be ea 21 99 be 52 51 52 be 9b 30 d9 3d
       -0.21012983 -0.29908687 -0.20538834 0.10604974
000140 e8 60 0a 3e fa 5a fc 3d 48 ad a4 bc ee 35 da bd
       0.1351353 0.1232204 -0.020102158 -0.106548175
000150 9e eb 66 bd 2b 1a df 3c 1c 37 38 be b6 57 13 bd
       -0.056377046 0.027234158 -0.17989773 -0.03597232
000160 99 e1 90 be 42 fc 29 3c f5 ea 1f bd ea f0 5e bd
       -0.28297117 0.010375084 -0.03904243 -0.054428972
000170 f4 82 d2 bd 9c be ea bd e0 86 03 be 74 91 b7 3d
       -0.102788836 -0.11462137 -0.1284442 0.0896329
000180 68 95 94 be bd d0 8b be 3f 4f 3f be 53 7b 4f 3e
       -0.29020238 -0.27307692 -0.18682574 0.20261888
000190 93 b6 54 3e ed 71 b1 bc 49 f6 df 3c 6d de d4 3d
       0.20772772 -0.02166077 0.027339118 0.10393987
0001a0 f6 2d a3 3d ee 9e 5e 3d 78 99 73 be 49 1c a2 be
       0.07967751 0.054350786 -0.23789012 -0.31662205
0001b0 c2 a3 39 be 4c b1 ea 3d af 78 99 3c bf 0b 85 be
       -0.18128875 0.11459598 0.018734304 -0.25985524
0001c0 bb 8c c6 bd 0c c0 81 be 6e 3c 97 be 50 f6 4e be
       -0.09694811 -0.25341833 -0.29538292 -0.20211148
0001d0 4d 1d 82 be 9a 48 87 be e6 d7 5b bc a1 b8 31 3d
       -0.2541298 -0.26422578 -0.013418173 0.043388966
0001e0 a1 cf 17 be 83 74 21 be b6 b0 66 bd e3 97 54 be
       -0.14825298 -0.15767102 -0.05632087 -0.20761065
0001f0 fe ea 4a bd 5c f6 9a bd 19 40 2c be 4c 07 e4 bb
       -0.049540512 -0.075665206 -0.16821326 -0.0069588777
000200 9b f6 ff 3d 96 a5 a2 3d 28 4b 55 be 0e 94 46 be
       0.12498208 0.07941739 -0.20829451 -0.19392416
000210 8d 51 7f bd 30 4a 64 3d 62 62 41 3d 9f de 4c bd
       -0.062333632 0.055734813 0.047212966 -0.050016996
000220 ce aa 5c 3c ae dd 1c 3e 33 15 5d 3d 3c 39 2e 3d
       0.013468457 0.15318939 0.053975295 0.04253505
000230 d2 ca 2b 3e e3 d6 32 bd 3f 86 e7 bd 83 17 66 bc
       0.16776589 -0.043661963 -0.11304902 -0.014043692
000240 7d a2 91 3c 71 8e 96 3d 7f e0 48 3e bc 52 c7 bb
       0.017777676 0.07351387 0.19616888 -0.0060828608
000250 ce 55 29 3e 33 37 99 3e c8 4a f6 3d ad 26 9a 3d
       0.16536638 0.29924926 0.12025982 0.07526908
000260 3e f2 96 3e d4 ce 6a 3e 70 1b 86 3e 97 08 2b 3e
       0.2948169 0.22930461 0.26192808 0.16702496
000270 d1 36 97 3d 50 56 02 3e 35 a0 75 3d 5c 7b 3e 3d
       0.07383502 0.12728238 0.05996724 0.046504363
000280 5d 38 ce 3d 89 3d 59 3d 83 07 50 be a0 1a 90 bd
       0.10069344 0.0530372 -0.20315365 -0.07036328
000290 2e 2a 46 3e 0a 48 03 bd ca f9 0f be 33 5e 6d bd
       0.19352028 -0.032051124 -0.1406013 -0.057951164
0002a0 c1 eb 8c be ab bd 5f bd eb d6 2d 3e bf 3f 80 3b
       -0.27523616 -0.05462424 0.16976516 0.003913849
0002b0 e1 c0 18 3d e5 50 b5 3c 9f cb aa be 83 a9 80 bc
       0.03729332 0.0221333 -0.33358476 -0.01570583
0002c0 f5 2c 5f bd b0 75 fb bd bf 66 25 bd c3 fb bf 3d
       -0.054486234 -0.122783065 -0.04038119 0.093741916
0002d0 f6 80 77 be ad 4e f1 3b 59 d8 64 bc 4b 5d 59 be
       -0.24170288 0.007364115 -0.013967597 -0.21226995
0002e0 62 94 98 be 24 03 53 bb 14 37 85 be 25 9f 1f be
       -0.29800707 -0.0032197917 -0.26018584 -0.15588053
0002f0 27 4a 1f bc 6b 03 07 3d 6e c7 04 3c c4 b3 a6 bd
       -0.009722269 0.032962244 0.008104188 -0.08139756
000300 84 6b eb bd d4 7a 4b be 71 d9 4f bd c7 03 de bd
       -0.11495116 -0.19871074 -0.050744478 -0.10840564
000310 4c 20 82 be a3 8c 86 be f7 e6 18 3c a4 c7 87 3d
       -0.25415266 -0.26279172 0.00933241 0.06629875
000320 f7 b9 85 3d 59 d7 fb 3d 9a 29 6e be 36 57 fb bd
       0.065296106 0.12296934 -0.23258057 -0.122724935
000330 60 ae 93 be 07 86 dd be 16 d6 20 be e2 7f 4c 3e
       -0.28843975 -0.43266317 -0.15706667 0.19970658
000340 f6 f5 5c 3e 05 aa 5e 3e 96 62 11 3e 24 74 10 be
       0.21578202 0.21744545 0.14197764 -0.14106804
000350 bf d2 d7 bb 77 3a 6f be d0 c4 de be 4b 53 57 bb
       -0.006586402 -0.23362146 -0.4350953 -0.0032856043
000360 99 10 7d bd 21 94 2e 3c 23 10 ed 3c 0c 2a 30 be
       -0.061783407 0.010655434 0.028938359 -0.1720354
000370 fe a6 a5 bd 5f 40 ae bd da ec 24 3e 6e 17 db bd
       -0.08088492 -0.085083716 0.16105977 -0.10697828
000380 54 68 ff 3d f8 41 34 be e7 f2 2d be f6 91 0c be
       0.12471071 -0.1760329 -0.16987191 -0.13727555
000390 1c 22 db 3d 18 d5 db 3b 1a 22 ca bc 74 e0 b6 bd
       0.10699865 0.0067087524 -0.024674464 -0.0892953
0003a0 b9 ab cc 3d 79 58 87 bc 7a 45 2f be 05 19 fc bd
       0.09993691 -0.01652168 -0.17116347 -0.123094596
0003b0 58 54 83 be 2e 29 ce bc 1e 87 48 be 55 29 cd bd
       -0.25650287 -0.02516612 -0.19582793 -0.10017649
0003c0 5f 82 a4 bd 8b 93 89 3d b6 32 b8 3d b7 b1 c9 3c
       -0.08032679 0.06717595 0.08994047 0.024620874
0003d0 b6 d6 ca bd c2 0e 54 3e f3 f7 95 3e 47 da 8b 3d
       -0.09904234 0.20708755 0.29290733 0.068287425
0003e0 c0 c3 73 3e 35 59 0e 3e 76 91 a7 3e f7 38 8d 3e
       0.23805141 0.13901217 0.32728165 0.27582523
0003f0 b2 3e 7a 3e da 1c 74 3d fe 90 d9 bd 16 67 20 3e
       0.24437979 0.059597827 -0.10623358 0.15664324

feature_extractor.0.bias f4 [16]
000000 d5 68 90 bc b4 11 2b 3d cc 92 a5 3d 8c 57 a7 bd
       -0.017628113 0.04176493 0.0808464 -0.08170995
000010 35 17 a5 3d dc 1d 95 bc 15 3d 80 bb b8 dd 62 3e
       0.08061067 -0.018202715 -0.0039135315 0.22154891
000020 2d e3 86 bd 79 1d 05 3e 94 ea c3 bc 56 44 2d 3e
       -0.06586299 0.12999524 -0.023915567 0.169206
000030 ff a5 8b 3d 7f 14 74 3d 15 bf 86 3e 31 bb 4b 3d
       0.068187706 0.05958986 0.2631766 0.049739067

feature_extractor.1.weight f4 [16]
000000 e2 82 66 3f f7 30 84 3f ee 1b 85 3f 8a 2f 54 3f
       0.9004346 1.0327443 1.0399148 0.8288504
000010 c5 7f 22 3f c7 f1 57 3f c2 05 54 3f 3b 3f 45 3f
       0.6347621 0.843533 0.82821286 0.7704961
000020 0c 28 76 3f e1 97 8a 3f f1 08 89 3f 22 d7 6d 3f
       0.96154857 1.08276 1.0705854 0.9290639
000030 96 4c 7e 3f e1 52 79 3f 0a fe 65 3f 1a a2 7c 3f
       0.9933561 0.9739209 0.8984076 0.9868485

feature_extractor.1.bias f4 [16]
000000 10 c6 c8 3d e8 06 90 3e 04 94 4a bf 9c 11 23 bf
       0.098034024 0.2813027 -0.79132104 -0.63698745
000010 fb 36 45 bf 13 59 b9 be 63 29 16 bf 2f 1e 2c bf
       -0.7703702 -0.3620077 -0.586569 -0.67233557
000020 6f 36 27 bf ff 49 b3 3d 66 8c fc 3d 43 52 12 3c
       -0.65317434 0.08754348 0.123314664 0.008930746
000030 0d 47 c2 bc 31 d5 12 3e be 23 22 bf ba 83 8f 3e
       -0.02371552 0.14339139 -0.6333579 0.28030187

feature_extractor.1.running_mean f4 [16]
000000 1e f3 16 40 fd 38 1b 40 c4 41 6a c0 34 9f 07 c0
       2.3585887 2.4253533 -3.660264 -2.119092
000010 0e 39 66 c0 a8 6c 7a 40 d6 48 4b c0 f1 10 18 c0
       -3.5972323 3.9128819 -3.1763206 -2.376034
000020 02 ae 0d c0 83 94 b7 40 2d 87 0d 40 0c 59 93 40
       -2.2137456 5.736879 2.2113755 4.60462
000030 77 b1 8a 40 f8 51 19 40 92 83 53 c0 2a c9 4f 40
       4.334163 2.395628 -3.3049054 3.246653

feature_extractor.1.running_var f4 [16]
000000 8e f2 bd 3e ce ac ad 3e 8c 26 54 3f d8 40 93 3e
       0.37099117 0.33920902 0.8287132 0.2876041
000010 b5 d4 69 3f dc 69 5e 3f c5 39 1a 3f 21 7f fe 3e
       0.9134019 0.8688028 0.602444 0.49706367
000020 7a f7 8a 3e f3 6f f0 3f 7a c1 93 3e 05 65 98 3f
       0.27141935 1.8784164 0.28858548 1.1905829
000030 93 91 8f 3f f6 d4 bd 3e c6 88 45 3f b1 71 1a 3f
       1.1216301 0.3707654 0.77161825 0.6032973

feature_extractor.4.weight f4 [32, 16, 3, 3]
000000 71 01 4b bd 53 12 fa 3d 80 d0 29 bd 57 07 14 3d
       -0.04956192 0.12210526 -0.041458607 0.036139812
000010 33 90 45 bd b5 f9 9a bd 35 c1 3e bd 56 99 9c 3b
       -0.048233222 -0.07567159 -0.046570975 0.0047790213
000020 ad e2 0e bd fa 20 2c bc a1 63 fb bc f7 b8 28 3c
       -0.034884144 -0.010505909 -0.030687155 0.010298005
000030 1b a6 fe bd 53 6a cf bd 85 6d ac 3c 9f b4 bb 3d
       -0.12434026 -0.101277016 0.021048317 0.0916531
000040 75 41 9f 3d 97 46 2c 3d 7e ec cf bc d7 7f da bd
       0.07776157 0.042059507 -0.025381323 -0.10668915
000050 bd 5f 78 bd 0a 65 dc bd 23 28 58 bd 71 88 93 bd
       -0.06063818 -0.10761459 -0.052772652 -0.072037585
000060 d7 ea 89 bd 9e 5b a5 bd 48 68 f6 3c 59 7a 8c bd
       -0.06734245 -0.08074115 0.030079022 -0.068592735
000070 4f 72 25 bd be 96 02 3d 53 a1 10 bd c1 5b 0c bd
       -0.040392216 0.03188204 -0.0353101 -0.03426719
000080 06 83 06 3d 5d c8 6c bd 02 d3 2a 3c 07 b7 9f bd
       0.032839797 -0.05780827 0.010426285 -0.077985816
000090 b5 93 18 be ff 92 9e bd 8f 6d 28 bd 24 7e 73 bd
       -0.14900096 -0.07742881 -0.04112011 -0.05944647
0000a0 d2 d2 f2 bc 4a d8 00 bd ad 71 4b bc 31 f8 bb bd
       -0.029641543 -0.03145627 -0.012417239 -0.09178198
0000b0 f0 60 57 3b bf e8 94 bc 7f a0 ad 3d 78 a6 c8 bd
       0.0032864176 -0.018177388 0.08477878 -0.097973764
0000c0 15 e3 77 3c 1a db 53 3c cf 24 98 3b f2 1b 15 bd
       0.015129824 0.012930656 0.00464306 -0.036403604
0000d0 01 0c 3f 3c 40 1b 67 bd cd 4e a7 bd 8e 7e 1c bd
       0.011660577 -0.056422472 -0.08169327 -0.03820663
0000e0 e2 e8 83 bd 4a 70 3e bd 72 ff 97 bb ff 77 d2 bd
       -0.06440903 -0.046493806 -0.0046386058 -0.10276794
0000f0 f4 c0 20 be d4 8d 9b bd 42 44 29 bd ad 01 1d be
       -0.15698606 -0.07595411 -0.04132486 -0.1533267
000100 3d 3c 9f bd a5 30 b2 bd 3a c1 ad bd 57 f2 a1 bd
       -0.077751614 -0.087006845 -0.08484121 -0.07907551
000110 5f 54 92 3c ac 42 1a bd ea 1f dc bd b7 3e 6f bd
       0.017862497 -0.03766124 -0.107482746 -0.05840942
000120 2d 8a f4 bd 36 eb 04 be 6f c8 e4 bd 12 6f 72 3d
       -0.119404174 -0.12980351 -0.11171042 0.059187956
000130 3a eb a2 bd 39 cc 33 3b 52 14 f3 bc 65 2b 45 3c
       -0.07955022 0.0027434959 -0.029672775 0.012034272
000140 e2 ee 71 3d ee 34 25 3d ab c8 86 3d 1e cb a7 3d
       0.059065707 0.04033368 0.06581243 0.081930384
000150 28 02 cb bc e9 73 9c 3d 69 0e 1f 3e 2c 40 5b b9
       -0.024781302 0.076392956 0.15532841 -0.00020909373
000160 20 7d 36 3e c5 df 4a 3e fe 30 e7 bd 7d e2 e6 bd
       0.17821169 0.19811924 -0.112886414 -0.11273668
000170 7e 7c c7 3d 4a 78 e0 bd cd bc a5 bd bf a0 db 3b
       0.09740542 -0.10960443 -0.080926515 0.006702512
000180 20 10 c9 bc d0 d9 97 bc af f7 9f 3d 44 49 b8 3d
       -0.024543822 -0.018536478 0.07810914 0.08998349
000190 38 45 d2 3d 44 8b 95 3d fd 2f da bc 74 5e 23 3d
       0.10267109 0.073019534 -0.02663421 0.039885
0001a0 7f 77 cc 3d 8b b3 25 3d 61 44 76 3e e8 76 f5 3c
       0.099837296 0.04045443 0.24049522 0.029963925
0001b0 c6 b2 97 3d d8 6f 30 3e f8 70 a4 3d 94 f8 d6 bc
       0.07407145 0.17230165 0.080293596 -0.026241578
0001c0 4c 74 98 3d 43 ce 21 3e e4 6f 74 3d 59 89 b3 3e
       0.07444057 0.15801339 0.05967702 0.35065725
0001d0 37 47 03 3c e9 84 5d 3d 8e 8d 2f 3e b1 f4 e1 3c
       0.008012584 0.05408183 0.17143843 0.027582498
0001e0 0a 2d 58 3d d7 52 a4 bd ea b3 8e bd 73 30 b3 bc
       0.052777328 -0.08023613 -0.0696791 -0.021873688
0001f0 3a 80 0b 3e 0b 47 4d bc 2e 46 fc bc d3 d8 b9 bd
       0.13623133 -0.012529145 -0.030795183 -0.09074559
000200 09 2f 82 bd cd 25 9a bd 16 66 c7 bd 40 65 58 3d
       -0.063566275 -0.07526741 -0.09736268 0.052830935
000210 f9 e7 a2 bd 12 5b 15 be ad 96 b6 3d b2 95 40 bd
       -0.079544015 -0.14585522 0.08915458 -0.04701776
000220 a5 47 32 3d fb b0 67 3d 65 28 df 3d d7 a1 02 bd
       0.043525357 0.056565266 0.108963765 -0.031892624
000230 44 b7 6f bd 82 1d 94 ba 2f 41 21 3e 99 9c eb 3d
       -0.058524385 -0.0011300298 0.15747522 0.11504478
000240 fc 15 2a 3e 16 fb 1e 3e 2e 90 aa bc 96 13 df bc
       0.16609949 0.15525469 -0.020820703 -0.027231019
000250 19 f4 1c bd 0e 9b df bd 46 8e 0d 3e a9 66 fa 3d
       -0.038318727 -0.10918246 0.13823804 0.12226612
000260 d1 5b 88 bc 89 d8 c7 3c 92 ef 7d 3d c7 c2 a2 3d
       -0.016645344 0.024395244 0.06199605 0.07947307
000270 e6 d6 ad bc 54 47 ea bc 8c d0 32 bc 56 67 72 3d
       -0.021220636 -0.028598465 -0.010913979 0.05918058
000280 0e c0 b7 3d 48 be 7b 3d a2 f3 f9 3d 43 f0 e9 3d
       0.089721784 0.061460763 0.122046724 0.114227794
000290 43 08 ac 3c 4c 51 85 bd 45 99 39 bc 50 ae ab bd
       0.021000033 -0.06509647 -0.011328046 -0.08382857
0002a0 5c ca 38 3e 7a ce cf 3d 52 38 85 3d fb c0 a9 3d
       0.18045944 0.10146804 0.06504883 0.08288761
0002b0 23 84 3e 3e 56 0f 1e 3d 22 8c 4d bb 97 0f dd 3c
       0.18605094 0.038588844 -0.0031364043 0.026984973
0002c0 77 45 7f bc e8 39 58 3d fb 86 18 3d 4f 44 47 bd
       -0.015580527 0.0527896 0.037238102 -0.04864913
0002d0 53 c8 aa 3d 7a 57 54 3d e7 f5 ca 3d 72 3b 45 3d
       0.0833899 0.051841237 0.099101834 0.048152395
0002e0 c7 d4 a8 3c f4 6a 93 bc 82 43 a3 3c cd 2f 95 3d
       0.020609273 -0.017995335 0.019929651 0.07284508
0002f0 15 65 fe 3b 9b 33 b4 bd b2 e5 b4 3d 25 7b c7 3c
       0.0077635148 -0.087989055 0.088328734 0.024350712
000300 2a b8 c2 bd ca df a8 3c 5d 0d 23 3e e9 62 1c bc
       -0.09507783 0.020614523 0.15923066 -0.009545066
000310 7e 79 fb 3d 9c c1 c1 3d db 60 92 3d 04 08 02 3e
       0.12279032 0.09460756 0.0714738 0.1269837
000320 8f f2 05 3e 26 2f bc 3c 5b df 92 3d 38 2f c4 b9
       0.1308081 0.0229717 0.07171508 -0.00037419214
000330 8f 8c 4c 3d 3b cb f5 3d 1e e9 d7 3d 7f 61 ae bc
       0.049938735 0.12001654 0.105425104 -0.021286724
000340 e8 ec 42 3e 1e d7 28 3e 96 94 b3 3a 31 72 c8 3d
       0.19035685 0.1648831 0.0013700898 0.09787405
000350 0c 59 ad 3d 8e d0 7f bb a0 87 28 3d 90 75 9a bd
       0.0846425 -0.003903422 0.041144967 -0.075419545
000360 05 8f 7b bc 79 19 33 3e 51 11 fa 3c 03 31 cb bd
       -0.015353923 0.17490186 0.030525835 -0.099214576
000370 65 43 89 bc 15 9d 04 be 1f a9 6a 3d 90 c0 30 3d
       -0.016755769 -0.12950547 0.057290193 0.043152392
000380 29 9a 06 3d cb b2 04 bc 8e 19 ef bd ed 30 46 3e
       0.032861862 -0.008099268 -0.11674796 0.19354601
000390 b2 2e 92 bd 70 09 30 be 65 61 45 3c f2 6f ba bd
       -0.07137813 -0.171911 0.012047146 -0.09103383
0003a0 f5 74 b7 bd 44 38 1b be f8 fd ab 3d c2 e2 0b 3e
       -0.08957855 -0.15158182 0.0839805 0.1366072
0003b0 30 57 79 3d 36 b6 42 be e2 60 1b bd 02 77 59 bb
       0.060874164 -0.1901482 -0.03793419 -0.0033182506
0003c0 13 f9 f0 3d aa f3 43 be 3c 30 d4 bd 01 10 02 bd
       0.11766257 -0.19135919 -0.103607625 -0.031753544
0003d0 1d 98 a6 bd 34 0a 77 3d 04 68 a5 bd ea b4 9e bd
       -0.08134482 0.060312465 -0.0807648 -0.0774935
0003e0 17 8d 77 3c da fc 0b bd 98 31 ff bd fc b9 47 bd
       0.015109322 -0.034176685 -0.12460631 -0.048761353
0003f0 6b ad eb bd 44 51 a3 bd 0a 11 c4 3d 54 3e cf bd
       -0.11507686 -0.079744846 0.095735624 -0.1011931

feature_extractor.4.bias f4 [32]
000000 ba da 23 3d a6 d7 cd 3c ce 09 c5 bd d8 1d 8d bd
       0.040003516 0.025127243 -0.09621011 -0.06890458
000010 32 1c da 3c 89 e8 ad bc 58 0a 8c bd d4 c2 a9 bd
       0.026624773 -0.021229045 -0.068379104 -0.08289114
000020 c5 18 27 bb 7d 42 9a 3d 83 a4 eb bc 0b ec 12 bd
       -0.0025496942 0.07532213 -0.028764969 -0.03586964
000030 a7 6f 76 3c 42 f7 1c bd 7d bf c1 bc 2f 6b 7c bc
       0.015041268 -0.03832174 -0.023650879 -0.015406414
000040 ac 42 f2 3b 31 9d ae bd 6b 96 59 bd 60 f4 be bd
       0.007393202 -0.08526076 -0.053121965 -0.093239546
000050 94 8d 3b bd 1a b4 26 3d 89 bc 95 3c a4 34 28 bd
       -0.045789316 0.040699102 0.018278377 -0.041065827
000060 fb 28 53 3c 3a 35 f9 bc 3d fc 8a bd 43 73 a5 3d
       0.0128881885 -0.030420888 -0.06786392 0.08078625
000070 c3 6f 04 3c 5a 4d 6a 3d 8a 96 02 bd 07 cf 2f 3d
       0.008083287 0.057202674 -0.031881846 0.042922046

feature_extractor.5.weight f4 [32]
000000 c4 d5 72 3f f1 f3 8f 3f 5f a5 39 3f db 1c 92 3f
       0.9485743 1.124632 0.7251796 1.1415056
000010 8a c9 80 3f e3 c1 73 3f bd a1 52 3f 3f c6 84 3f
       1.0061505 0.9521772 0.82278043 1.0373
000020 b3 aa 85 3f 01 dd 84 3f f8 a9 87 3f 16 0a 6b 3f
       1.0442718 1.0379945 1.0598745 0.91812265
000030 92 33 4e 3f ea f6 a7 3f d8 9f 53 3f ec b9 69 3f
       0.8054744 1.3122227 0.8266578 0.9129932
000040 e6 da 8d 3f 2f 35 86 3f 45 e9 63 3f 14 cd 63 3f
       1.1082428 1.048498 0.89027816 0.889848
000050 fc e4 4b 3f c5 2a 7d 3f 34 7e 7c 3f da 77 76 3f
       0.7964628 0.98893386 0.9863007 0.9627663
000060 6d 41 8a 3f ba 5c 4b 3f 2d 9c 68 3f 50 50 46 3f
       1.0801216 0.79438365 0.90863305 0.774663
000070 c4 65 5a 3f 7d e5 4d 3f d6 96 7b 3f 74 52 6c 3f
       0.8531153 0.80428296 0.9827703 0.92313313

feature_extractor.5.bias f4 [32]
000000 53 d5 51 bc 27 1c 54 bd 91 b9 bc bd 68 e1 35 be
       -0.012807208 -0.05178466 -0.092150815 -0.17761767
000010 a9 23 6e be 89 aa 77 be 90 e9 96 bd c0 5e 7a be
       -0.23255791 -0.24186148 -0.07368767 -0.24450207
000020 99 e4 9d bd 29 ae aa 38 49 9d a6 bd 19 a5 9a be
       -0.07709617 8.1386715e-05 -0.081354685 -0.30204085
000030 0c a0 e2 be b6 0c 01 be 0d 5e b7 be 8d ab 86 3d
       -0.4426273 -0.12602505 -0.35813943 0.065756895
000040 ad ef 24 be 9b f9 73 be 86 34 97 bd b2 4d cf be
       -0.16107054 -0.23825686 -0.07383065 -0.40488964
000050 d1 7d 29 be 41 41 b5 bd 9c 02 e2 bd 5e 8a 9f be
       -0.16551901 -0.08850337 -0.11035654 -0.31160253
000060 35 3c a2 be 99 ac 34 be 0b be 97 bd 88 03 42 be
       -0.3168656 -0.17643966 -0.07409295 -0.1894666
000070 5f 86 8d bd 2f 72 1e be 33 7b 97 be 56 e6 d9 bd
       -0.06910395 -0.15473245 -0.2958618 -0.10639636

feature_extractor.5.running_mean f4 [32]
000000 de 35 43 3e 08 e7 e7 3e ca f1 b7 3f fa 7d 78 3f
       0.19063517 0.4529345 1.4370663 0.97067225
000010 76 d1 db 3f fd cf 55 3f 6a db 92 3d dd b6 bd 3f
       1.7173297 0.8352049 0.07170756 1.482143
000020 56 45 fc 3f d7 f1 dd 3f 86 99 e0 3f fd 3d dd 3f
       1.970866 1.7339429 1.7546852 1.7284542
000030 01 3a 18 3f 48 ab 8b bf e7 2a bf 3f 68 db 5e 3f
       0.59463507 -1.0911646 1.4934968 0.8705354
000040 15 df 38 bf e0 e8 14 40 3d a5 00 40 77 25 2e 3d
       -0.72215396 2.3267136 2.0100853 0.042516198
000050 e9 df 85 3d 1d e4 be be de bd 21 3e fc cf 5d 3f
       0.06536848 -0.37283412 0.15795085 0.86645484
000060 b5 f5 a5 3f b5 52 6f bf 6c 6e 2a 3f 07 06 c8 3e
       1.2965609 -0.93485576 0.6657474 0.39067098
000070 ff f8 e2 be ad 96 d4 bf 0b e9 a9 3e c2 41 d5 3f
       -0.44330594 -1.6608483 0.3318561 1.6660693

feature_extractor.5.running_var f4 [32]
000000 9a 1d b4 40 94 3a a3 40 d6 ec 1a 40 b3 0a 12 41
       5.6286135 5.1009007 2.4207053 9.127612
000010 9d 59 b5 3f ad 22 05 41 ea cf b3 40 e1 26 02 40
       1.4167973 8.320966 5.61913 2.033623
000020 6a 96 5a 40 02 95 d7 40 5e 0a 1d 40 ae cc bf 40
       3.4154305 6.7369394 2.4537578 5.9937353
000030 5b 97 ce 40 28 77 e7 3f b8 a6 18 41 02 30 04 40
       6.455976 1.8083239 9.540703 2.0654302
000040 b2 68 fb 3f e5 d8 4f 40 f4 77 f6 41 f8 16 8d 40
       1.9641325 3.2476132 30.80857 4.409054
000050 46 90 ec 40 11 31 04 41 fd 71 1e 41 bb 52 f3 40
       7.3926115 8.261979 9.902829 7.603849
000060 6e 1c 0a 40 56 11 a6 40 a1 41 67 40 dd b3 93 40
       2.1579852 5.189616 3.6133807 4.615706
000070 e0 38 0d 41 cf 13 39 41 1f d1 9e 40 70 c3 0f 41
       8.8263855 11.567336 4.9630275 8.985214

feature_extractor.9.weight f4 [16, 32, 3, 3]
000000 22 fb e3 3d ad a7 02 3d 01 47 66 bb 06 1b af bc
       0.11131884 0.03189819 -0.0035137536 -0.02137519
000010 88 95 05 3c cc 38 7d bd c9 36 12 3e e4 f9 f1 3d
       0.008153327 -0.061821744 0.14278711 0.11815241
000020 f4 74 5c bd ba 48 9e bc 0e 5b 44 bd af 73 8e bc
       -0.053822473 -0.019321788 -0.0479384 -0.017389147
000030 2f 5f fd bd f2 09 01 be 80 d1 c7 bd 9f 92 31 3e
       -0.123716705 -0.1260145 -0.09756756 0.17341088
000040 29 40 70 bd 0f 4e b5 bd a4 e4 fa 3c 89 98 0e be
       -0.058654938 -0.08852779 0.030626602 -0.13925375
000050 44 98 3b be b8 f2 1e bc 20 7e 57 be 88 c4 1a bc
       -0.18319803 -0.009701423 -0.21044207 -0.009446271
000060 ce 5b 30 3d 36 d5 f2 3c 0d 54 89 3d 53 26 d8 3d
       0.0430563 0.029642683 0.067054845 0.10554185
000070 5f d3 9d bd 2f 3f 98 3d bb ec f2 bd 64 c7 02 be
       -0.077063315 0.07433926 -0.11861559 -0.12771374
000080 c1 01 09 bd 58 9e 48 3e 76 72 23 3e 8f af d0 bb
       -0.03344894 0.19591653 0.15961632 -0.0063685845
000090 7b 46 f6 bd e2 3f ba bc 3a c9 d0 bc b9 5f f9 bd
       -0.12025162 -0.02273554 -0.025486577 -0.12176461
0000a0 77 72 e9 bd 29 82 2a be 03 15 ef 3d d5 ff c9 3d
       -0.113987856 -0.16651215 0.116739295 0.09863249
0000b0 3c 88 d1 bd f1 ce 31 3d ba dc 4a bd 72 03 34 be
       -0.10231063 0.043410245 -0.049526908 -0.1757944
0000c0 c6 44 8e bd 7e fa e3 bc ac c2 20 be 0f ba d7 3d
       -0.06946711 -0.027829405 -0.15699261 0.10533535
0000d0 77 19 20 bc 18 74 1b 3d 8e d0 47 bc e3 f1 6a bd
       -0.009771696 0.037952513 -0.012195719 -0.057359587
0000e0 4d 56 56 bd 92 33 2b 3d 2d 36 d3 bd 99 37 ab bd
       -0.052328397 0.04179723 -0.103130676 -0.08360214
0000f0 56 76 f9 3d f1 1c 7f bd 21 82 9a 3b 96 ae 40 3c
       0.12180774 -0.06228346 0.0047152196 0.0117603745
000100 6b e1 4c bd f8 c1 1f 3d c1 e5 c4 bb 38 21 35 be
       -0.050019663 0.039003342 -0.006008834 -0.17688453
000110 22 37 1e be 8b a6 64 3e c5 6e 33 3d c4 8c 99 bc
       -0.15450719 0.22329156 0.04380681 -0.01874388
000120 03 14 03 3c e1 7d fc bd 34 40 17 be c5 c7 43 bd
       0.008000377 -0.12328697 -0.14770585 -0.047797937
000130 e9 06 21 be d3 27 00 3e 14 94 08 3e 17 b7 5e 3c
       -0.15725292 0.12515192 0.13337737 0.013593457
000140 76 5a 6b 3d fe e2 c0 bd 69 cc 84 bd 06 d4 d1 bd
       0.057459317 -0.09418295 -0.06484301 -0.102455184
000150 14 ad 25 be 35 c9 b6 bd 8f 8a b4 bd 71 29 89 3d
       -0.16179305 -0.08925096 -0.088154905 0.066973574
000160 16 37 96 3d b8 b3 e6 bd 5c dc b6 bd 5d 4b 0c be
       0.073347256 -0.112647474 -0.08928749 -0.13700624
000170 98 c5 b7 ba 46 e9 ef bd a2 b5 cc bd 64 3d e7 bd
       -0.001402068 -0.11714415 -0.09995581 -0.11291006
000180 3b 50 09 3e 7c 98 b4 3d fc ed d9 bd 6e a0 61 bd
       0.13409512 0.088181466 -0.10641095 -0.05508464
000190 99 b9 cc bd db 66 89 bd 23 65 a7 bd 87 5e f3 bd
       -0.099963374 -0.06709071 -0.08173587 -0.11883264
0001a0 fc 92 c3 bd 7e 10 3c 3e 00 1f af 3d c1 68 5e bd
       -0.095495194 0.18365666 0.08550835 -0.05429912
0001b0 7f 3f 93 bd a7 a7 40 be dd 21 b0 bd bb c7 36 be
       -0.07189845 -0.18813954 -0.08600209 -0.17849629
0001c0 fa b9 86 bd a9 e8 11 be 84 09 ab 3d 7d 45 16 3e
       -0.06578441 -0.14248909 0.08351424 0.14674945
0001d0 76 b0 f7 bd e0 3d 59 bd 72 1c 9a bd 4b 48 e7 bd
       -0.12094204 -0.053037524 -0.07524957 -0.11293086
0001e0 0d c5 a7 bd 98 16 e0 bd 45 76 cf bd 59 23 06 3e
       -0.08191881 -0.109418094 -0.1012998 0.13099422
0001f0 09 6a 3c 3e af c9 56 be a3 99 95 3c 13 92 fa bd
       0.18399824 -0.20975374 0.018261736 -0.12234893
000200 10 2c 22 be fb e3 dc bd d1 b8 e5 bd 20 cb b4 bd
       -0.15837121 -0.10785671 -0.112168916 -0.088278055
000210 34 b6 34 3e 4c 82 2b 3e 61 b7 2a bd ad 62 04 3d
       0.1764763 0.16748923 -0.04167879 0.032320667
000220 ea 4e 28 be 29 bb 37 be b1 25 2c be e4 24 a8 bd
       -0.16436353 -0.1794249 -0.16811253 -0.08210161
000230 84 32 1f be dc 14 f9 3d eb 87 5d 3d 02 89 e3 bd
       -0.15546614 0.12162182 0.0540847 -0.111101165
000240 ed 9b e3 bd 53 7a 83 bc 1e f6 2b bd 35 ef f7 bd
       -0.11113725 -0.01604954 -0.041982763 -0.12106172
000250 08 d7 fe bd d7 27 c0 bd f6 8f 06 3e 5b 40 b6 3d
       -0.12443358 -0.09382599 0.13140854 0.088989936
000260 9c 7c ec bd c6 1d 86 bd cb 98 38 be a2 7a 0f be
       -0.11547205 -0.065486476 -0.18027036 -0.14011624
000270 32 68 29 be 7c 8e 1c be 1f d4 97 bd fa e6 20 3e
       -0.16543654 -0.15288728 -0.07413506 0.1571311
000280 8b 41 f8 3d 8b 4e bd bd 89 4f 32 bd 94 7f 0d be
       0.12121876 -0.092434965 -0.043532882 -0.13818198
000290 23 47 91 bd 64 80 32 3c 70 13 27 be 75 3e d1 3c
       -0.070936464 0.0108948685 -0.16316009 0.025542477
0002a0 70 7d 75 3e 83 3c ba 3d 74 c8 01 bc 20 d1 2f bd
       0.23973632 0.09093573 -0.007921327 -0.042924047
0002b0 ea 4c a2 bd 86 0b a9 bd 74 7c 1b be 17 d5 32 bc
       -0.079248264 -0.08254151 -0.15184194 -0.010915062
0002c0 96 3a 3d bd 39 0a 9d 3d 71 33 1e 3e d4 5e bf bc
       -0.04619845 0.076679654 0.15449311 -0.023360647
0002d0 33 2f e1 3d 5c 0b 8d bc f4 a8 70 bd e8 85 74 bd
       0.10995331 -0.01721733 -0.058754876 -0.059698015
0002e0 96 60 3b bb 55 3b c6 bd fd 90 4b 3e dc 2f b3 3c
       -0.0028591505 -0.096792854 0.19879527 0.021873407
0002f0 0d 45 0f 3c 09 b5 01 be 4f d5 23 bd 0c c7 c5 bd
       0.00874449 -0.12666716 -0.03999835 -0.09657106
000300 75 77 2f be 3d 14 1b bd 95 35 a8 bd 41 35 68 bc
       -0.17135413 -0.037861098 -0.08213345 -0.014172853
000310 e5 20 42 3c e8 cb cb bd c4 c5 ad 3d 1c 8b 44 bd
       0.011848663 -0.099510014 0.084849864 -0.047984228
000320 e3 92 b5 3b 2c ba c8 bd 46 73 4a bd 1d 2d 25 be
       0.005541192 -0.098011345 -0.04942634 -0.1613049
000330 ff 4b 1e 3e c0 08 67 3e 61 2a b4 bd 1d 7e b6 bd
       0.15458678 0.22561932 -0.08797146 -0.08910773
000340 62 f3 27 be d6 88 15 be 91 64 fc bc 5e 0a 37 bd
       -0.16401437 -0.1460298 -0.030809673 -0.04468762
000350 ff a6 b7 bd b9 cf b5 3d d3 02 ef 3d a2 d4 2e bd
       -0.08967399 0.088775106 0.116704606 -0.04268325
000360 5f d4 31 3d c1 4e a7 bd 5f 9e 33 bd 3b 10 b9 bd
       0.043415423 -0.08169318 -0.043852206 -0.09036299
000370 f7 dc 14 be 52 1a 31 be 11 93 61 3d 49 fb e9 3d
       -0.14537416 -0.17295197 0.055071894 0.11424882
000380 24 1d 7d bd 76 a9 56 3b b5 a1 86 3d 5c fb 7c bd
       -0.06179537 0.0032754815 0.06573812 -0.061763152
000390 87 0c 92 bd 0a 17 25 bc 80 a9 4b bc b8 7e 41 bd
       -0.07131296 -0.010076294 -0.012430549 -0.04723999
0003a0 c9 30 9f bd c3 f3 91 3c 15 09 67 bc 5b 7c 3a bd
       -0.07772977 0.01781643 -0.014101286 -0.04552875
0003b0 cf 94 a7 bd 5b 6b 2f bd 76 d3 46 bd ab f8 b6 3c
       -0.0818268 -0.04282699 -0.04854151 0.022335371
0003c0 d5 01 93 3e 5b 8c f4 bc 12 66 09 bd d4 7d 7f 3c
       0.28712335 -0.029852083 -0.033544607 0.015593965
0003d0 b7 94 06 bd e3 76 ce bd c8 50 c9 bc 8c ef dd bc
       -0.03285667 -0.100812696 -0.024574652 -0.027091764
0003e0 3d ac 41 bd 88 b5 37 3e a9 c6 9e 3a 6f af 60 bd
       -0.0472834 0.17940342 0.0012113649 -0.054854807
0003f0 80 9b fd 3d e6 5d 41 bd 36 e1 52 3b 22 6e 8a 3c
       0.12383175 -0.04720869 0.0032177693 0.016898219

feature_extractor.9.bias f4 [16]
000000 ec 1f c0 bb b8 af df bd 3b bb ae bd 6f 85 d7 3a
       -0.0058631804 -0.109221876 -0.08531805 0.0016442965
000010 a9 81 0c bd 3b 5d 65 bd 5b 45 99 3c 05 87 62 bd
       -0.03430334 -0.055997115 0.01870983 -0.055304546
000020 40 a9 d3 bd 61 4c 99 bd c6 f6 13 bd b5 43 4a bc
       -0.10335016 -0.07485271 -0.036124013 -0.012345244
000030 44 ac 73 bd ab e8 ee bd 77 b4 2d 3e ed ea 2a bd
       -0.059490457 -0.11665472 0.16963373 -0.04172795

head.0.weight f4 [128, 1600]
000000 75 ea 9b 3d 6e 57 a8 3d 6f 4a 70 3d bc b7 a6 3d
       0.076130785 0.08219801 0.058664735 0.08140513
000010 fe 5e 9c 3d 30 49 ad 3d c8 ab 51 3d 5a 5b 85 3d
       0.07635306 0.08461225 0.051189214 0.065115646
000020 e0 bb 42 3d 72 38 72 3d 74 c0 05 bd 02 be ce 3d
       0.047542453 0.05913586 -0.03265424 0.10094835
000030 91 91 ca 3d d5 b5 bc 3d 3d 34 50 bc 1a 5f 0f 3e
       0.09891046 0.09214369 -0.012707767 0.14001122
000040 bb 03 dc 3d c1 4f 0e 3e ba ae d9 3d ed 51 0a 3e
       0.10742899 0.13897611 0.106290296 0.13507815
000050 ac e7 e1 bc fa e1 c6 3d e3 2b e4 3d b2 14 b3 bd
       -0.02757629 0.0971107 0.11141183 -0.08744182
000060 81 63 9c bd 0d bb 04 3e 9a cc c4 3c 7f 21 33 3e
       -0.07636166 0.12961979 0.024023343 0.17493246
000070 0c 8a e6 3d 81 8e da 3d 72 d2 16 bd 77 fc d5 3d
       0.11256799 0.10671712 -0.03682179 0.104485445
000080 59 08 b6 bd 6c 62 af 3d 3b dc 61 3b da 9a 66 bd
       -0.08888311 0.08563694 0.0034463543 -0.05630002
000090 40 d5 36 3d 16 9b 52 bd 85 63 99 bd db 58 c8 3d
       0.044636965 -0.051417433 -0.07489685 0.09782573
0000a0 f7 90 a8 bc 9d 00 0b 3e b3 08 70 be a2 f7 bc 3d
       -0.020576937 0.13574453 -0.23440818 0.0922692
0000b0 0f 37 88 3d 48 cb 48 be 0a 97 f9 3c 18 a4 3b 3d
       0.066511266 -0.19608796 0.030467529 0.04581079
0000c0 fe 9d bf bd 2f ec 04 3e ae 79 53 bd ec 31 9d 3c
       -0.093563065 0.12980722 -0.051629715 0.019188844
0000d0 01 ee c0 3c c3 54 91 bb 81 2b f5 bd 2f 68 bf 3d
       0.02355099 -0.004435153 -0.11971188 0.09346043
0000e0 b6 83 23 bd 0b 4a 8f be 73 11 5c 3d 64 d1 0d 3e
       -0.03992053 -0.27986178 0.05372758 0.13849407
0000f0 86 5a b5 bc 66 38 f2 3d 28 33 8f 3e 85 53 96 bd
       -0.022137892 0.118271634 0.27968717 -0.07340149
000100 2e 7a a1 3d cb 1b 45 3d 31 78 4a bc eb 7a cc 3c
       0.07884632 0.04812221 -0.012357757 0.024960956
000110 f0 17 7c 3c 45 8c df 3d b1 dc dc bc 76 73 03 3e
       0.0153865665 0.10915426 -0.026960703 0.12837014
000120 16 2e ee 3d a3 86 0a bd cd 5f be bc fb 76 8a 3d
       0.11629884 -0.033819806 -0.02323904 0.06760975
000130 dc e1 25 be ea 36 ad 3d 54 07 d4 3d cc d0 f7 3d
       -0.1619944 0.0845774 0.1035296 0.12100372
000140 fb 86 b0 bc 89 83 cf 3d 58 83 e4 3d 09 f7 9d 3d
       -0.021548739 0.1013251 0.11157864 0.07713134
000150 d8 67 06 bd e2 12 59 bd 7d 16 54 bd 5b 1f d8 3d
       -0.032813877 -0.052996524 -0.05177926 0.105528556
000160 3d 71 00 3e 5a bb d8 3d 52 c8 4e bd a0 ba fc 3d
       0.12543197 0.105826095 -0.05048401 0.123402834
000170 60 e6 07 3e ea 08 de 3d da 9e aa 3d 7d 47 af 3d
       0.13271475 0.10841544 0.0833108 0.08558557
000180 ff d3 de 3d a4 a4 d0 3d 7c 61 ff 3d 03 13 e7 3d
       0.10880279 0.10187653 0.124697655 0.11282923
000190 f5 0c 4b bd 06 f8 52 3d b7 9b 9c 3d 24 10 92 3d
       -0.049572904 0.051506065 0.07646888 0.07131985
0001a0 a5 5d 43 3d bc ee 7d 3d 6e 88 79 3d 7e f0 80 3d
       0.04769673 0.061995253 0.060921125 0.0629587
0001b0 98 f4 a6 3d cc b1 7c 3d 10 ed ad 3b 4b 1d 7e bc
       0.08152121 0.061692998 0.005307801 -0.015509914
0001c0 15 82 55 3a 4a 9c 1a bd fa f5 32 bb b5 79 cc 3d
       0.0008144689 -0.037746705 -0.0027307258 0.09984151
0001d0 ae 89 0c bd 06 83 fe bc ef 44 22 3b bf 6d 0b 3b
       -0.03431099 -0.031068336 0.0024760326 0.002127513
0001e0 6e cf 2c bc 66 75 02 bd 80 9f c7 bc 97 d1 1e be
       -0.010547502 -0.03185024 -0.024368048 -0.1550964
0001f0 49 87 37 3d eb d4 72 3e 73 ad 37 ba b4 36 57 be
       0.044806752 0.23714034 -0.0007006742 -0.21016961
000200 e1 2e 66 bc 54 f7 13 bd ec 56 a9 3c c9 0b ae 3b
       -0.014049263 -0.036124542 0.02067133 0.0053114635
000210 46 34 93 bd ea ee 5f 3c fb 21 e3 bd 91 a7 21 bd
       -0.07187705 0.013667801 -0.11090466 -0.039466444
000220 52 7f 17 be 44 b7 62 be 66 1a f1 bd 4b b2 fc bc
       -0.14794663 -0.22140223 -0.11772613 -0.030846735
000230 90 f1 73 bb ca 72 4d 3b 23 e8 95 bd 9c ef 50 bc
       -0.003722284 0.0031348937 -0.07319667 -0.01275244
000240 3b 41 7a bd 45 5c 32 bd 1d 35 88 bd 35 19 ac 3d
       -0.061097365 -0.043545026 -0.066507556 0.08403245
000250 7b f7 04 be 85 aa e5 bc 31 1f 80 bc 74 42 aa bd
       -0.12985031 -0.028035412 -0.015639873 -0.08313456
000260 26 c1 07 3c 18 17 a9 bd bf 85 ac bd 8c d7 84 3a
       0.008285796 -0.08256358 -0.084239475 0.0010135039
000270 b5 ef 23 be 0a 75 60 bd d8 d4 88 be ba f6 0f bd
       -0.1600941 -0.054799117 -0.26724887 -0.035147406
000280 23 9d 64 3c a4 bd 49 bc 2e 52 26 bd 0b e4 37 3d
       0.01395348 -0.01231328 -0.040605716 0.044895213
000290 b3 68 b3 3d 24 bb 92 3d d9 21 02 3d 39 36 9d bd
       0.08760204 0.071646005 0.03177056 -0.07676358
0002a0 e5 3c a1 bd 06 6f d2 bc 6f 38 52 bc 16 9e 86 bc
       -0.07872943 -0.025687706 -0.012830838 -0.016432803
0002b0 9c 4f 21 bd 40 6f 61 3d e3 b4 d2 bc 39 61 81 bd
       -0.039382562 0.055037737 -0.02572102 -0.06317372
0002c0 95 2b 9c ba 84 22 63 be dd bb e6 bc 13 2c e1 bc
       -0.0011914844 -0.22181135 -0.028165752 -0.027486837
0002d0 98 88 b1 3c f9 be bb bb 57 c3 25 3b f7 5f 9f bd
       0.021671578 -0.005729553 0.0025293434 -0.07781976
0002e0 f3 65 a0 bd 25 6d b3 3c 37 0d d2 3d 3d 75 d2 3b
       -0.07831945 0.02190263 0.10256427 0.0064226673
0002f0 47 80 14 bd c0 df 22 bd 67 fa 6e bb a2 f1 f5 bc
       -0.036255147 -0.039764166 -0.003646517 -0.030022446
000300 d7 88 fb 3b 04 4f d8 bc a6 e1 63 bd 40 5d a5 bd
       0.0076762247 -0.026404865 -0.055635117 -0.08074427
000310 97 77 37 bc 4d 4a a9 bc 9a dd 9b ba 13 68 f3 bc
       -0.011197946 -0.020665312 -0.0011891604 -0.029712712
000320 b6 e3 c4 bc 92 e6 fd bb ce 70 28 bd d4 e6 00 bd
       -0.024034362 -0.0077484334 -0.041123204 -0.031470135
000330 5a 9a 18 bd 82 f2 1d bd 9c ef 10 bd 73 e2 74 bb
       -0.037256576 -0.03856135 -0.03538476 -0.003736642
000340 be 97 b8 bc 26 d6 3c bc 85 d9 1a 3d 5f db 3b bb
       -0.022533294 -0.011525666 0.0378051 -0.002866469
000350 e8 ce 3a 3a b9 c6 2a bc 59 6c 39 bd 3f 2e bc bc
       0.00071261683 -0.010423356 -0.045269344 -0.02297127
000360 68 90 32 3b 62 cf 8f ba c1 9c 9f 3c b6 fa 4a 3c
       0.0027246717 -0.0010971839 0.019483926 0.012388876
000370 58 5c 27 3d e3 aa b2 bb d2 40 67 ba b9 87 c8 bd
       0.04085955 -0.0054525 -0.00088216097 -0.09791512
000380 ee 34 a7 3d d0 7b 93 bd 3f 70 32 bc fd 4c 6d 3c
       0.081643924 -0.0720135 -0.010891019 0.0144836875
000390 87 36 37 3c a8 34 59 3c 30 69 67 3d 01 e3 92 bb
       0.011182434 0.013257183 0.0564968 -0.0044826274
0003a0 38 75 59 bd c9 11 b8 bd ac b0 f7 bc 93 05 af bd
       -0.053090304 -0.08987767 -0.03023561 -0.08545985
0003b0 9e cb 61 3d 80 78 7b bd 58 6d eb 3b c6 40 81 3c
       0.055125825 -0.061394215 0.0071846657 0.015777957
0003c0 e7 94 38 3d de 51 1c bd 47 6b a8 be 69 1e 89 bd
       0.04506388 -0.038164012 -0.32894346 -0.066952534
0003d0 2b aa 9e bc 3a 61 8f bd 13 b8 0b bd 72 1a 27 3d
       -0.019368252 -0.07000966 -0.034111094 0.040796705
0003e0 09 b6 3f bd 06 62 f3 3b 53 ea 2c 3d 0c 22 96 bd
       -0.04680446 0.007427457 0.042215656 -0.07330713
0003f0 b5 db 82 bd 15 85 de bd 3f 4e b0 bd b0 96 f1 bc
       -0.06389562 -0.10865227 -0.08608674 -0.029490799

head.0.bias f4 [128]
000000 76 a2 68 bd 4b af bf 3c cd 3b a2 3a 64 b1 53 3d
       -0.05679556 0.023399016 0.0012377441 0.051682845
000010 f9 57 98 3d b9 b1 fc 3d ba 25 dd bc 02 5e 95 3d
       0.074386545 0.123385854 -0.026995528 0.07293321
000020 f8 97 11 bd de 63 1c bd 6c 50 c0 bd 7b a5 2c bd
       -0.03554532 -0.03818118 -0.09390339 -0.042150002
000030 b3 33 59 3d 70 d1 f7 bd 46 a1 53 bb 39 9a 66 3d
       0.05302782 -0.12100494 -0.0032292171 0.056299422
000040 38 63 10 3e 94 7c 88 bd 95 b9 2f 3e 9d 69 ea 3a
       0.14100349 -0.066643864 0.17160638 0.0017884258
000050 76 b8 a3 3d 22 3e ba bd a3 19 c2 bc 4f 67 05 be
       0.079941675 -0.09093882 -0.023693865 -0.1302769
000060 cc b9 fb 3d 1c ee 04 be 97 d0 b5 3d a6 e1 9a 3c
       0.12291297 -0.12981457 0.08877676 0.018906426
000070 56 ee 17 3d 59 50 12 3d 4b 8d d1 3c 7c 28 b6 bc
       0.03709253 0.035721157 0.025580069 -0.022236101
000080 ed fa a5 3d 4a 49 1b 3d 10 7d a8 3d 59 d7 44 bd
       0.08104501 0.03791169 0.08226979 -0.048056934
000090 9f af 2d 3e 47 28 04 3d a4 67 0e bd 32 6e e0 bd
       0.16961525 0.032264974 -0.03476681 -0.10958518
0000a0 5b 23 3d bc d0 a3 08 bd 90 07 0b be fc 61 19 3e
       -0.011544074 -0.03335935 -0.13577104 0.14978784
0000b0 6c 68 1a 3d ed 46 98 bd 95 72 af 3d 42 ea 54 bc
       0.03769724 -0.07435403 0.08566777 -0.012995305
0000c0 79 73 e6 bc 6d 01 b6 bd dd 89 54 bd e1 cf 59 3c
       -0.028131234 -0.08886991 -0.05188929 0.013294191
0000d0 ef b9 a4 3d db d0 b7 3b 9a 85 04 3e 86 b6 dc 3d
       0.080432765 0.0056096143 0.1294159 0.10777001
0000e0 c5 82 32 bd 00 ad 07 bd 59 70 81 3d c7 f7 32 3d
       -0.043581743 -0.03312397 0.06320257 0.04369333
0000f0 9b 84 db 3c 4e 1d c1 bc f0 c1 11 be ae af b7 3d
       0.02679663 -0.023573544 -0.14234138 0.08969055
000100 b6 94 bd 3d 47 ca 42 3e 30 13 aa bd 7d 36 84 bd
       0.0925688 0.19022475 -0.08304441 -0.06455705
000110 23 20 06 bc 73 83 9f 3d f7 95 ba 3d 3a bd 37 bd
       -0.008186373 0.07788744 0.09110635 -0.044858195
000120 eb ff 8e 3d 8c 20 09 be 03 69 20 3e 4b a5 2b 3e
       0.06982406 -0.13391322 0.15665059 0.16762273
000130 e5 8a 35 3e 9f aa 02 bd 07 6e 6d 3d 80 d7 03 bd
       0.17728765 -0.031901 0.05796626 -0.03218794
000140 10 8b ad 3d 8f 43 cd bd 56 f5 5b bd 79 46 a8 3d
       0.0847379 -0.100226514 -0.053700767 0.082165666
000150 9e 27 29 bd be 08 82 3d f1 8f 90 3d 85 f7 f9 3d
       -0.041297548 0.06349324 0.07058705 0.12205414
000160 15 e5 11 be 49 a3 54 bc c6 7a 0d bd 2d 8f 6e bd
       -0.14247544 -0.012978383 -0.034540914 -0.05824201
000170 44 0c 4b 3e 86 d6 70 bc b9 71 1c 3d 42 e2 c4 bb
       0.19828898 -0.014699584 0.038194392 -0.0060084173
000180 99 59 3b bd fd de c4 bd 5e 5e 34 bd 31 53 0b 3d
       -0.045739744 -0.09612844 -0.044035308 0.034014884
000190 bf 20 4b 3e 58 2d e4 bd 66 fb 2a bd 83 9e d8 bd
       0.1983671 -0.11141461 -0.04174366 -0.10577109
0001a0 0a 48 c6 3c 1d f4 9d bd 8b db b7 bd 7a b5 88 3c
       0.024204273 -0.077125765 -0.089774214 0.016688097
0001b0 d1 31 15 3d 35 2a 9b 3d 9d 8a 7d bd 90 4a 19 be
       0.03642446 0.0757641 -0.06189977 -0.1496985
0001c0 9c 62 57 bb 20 34 5d 3d 24 ef 5c be 50 fc 03 3d
       -0.0032865172 0.05400479 -0.215756 0.032223046
0001d0 cf 88 59 3e 94 33 fa 3d 24 c3 fb bd 73 7a d7 3c
       0.21243595 0.12216869 -0.122930795 0.026303506
0001e0 36 04 5e 3c 98 f8 9a bd dc c4 31 bd fd fd ba 3d
       0.013550809 -0.07566947 -0.04340063 0.09130476
0001f0 ce 3b 67 bd ac 2e b6 bd ff 71 b4 3a 7b e9 37 3d
       -0.05645352 -0.08895621 0.0013766884 0.0449004
