optim/models/siamese_net_trained_[<ImagePreprocessing.CROPPING: 'cropping'>, <ImagePreprocessing.BACKGROUND_REM: 'background_rem'>, <ImagePreprocessing.GREYSCALE: 'greyscale'>].pth (torch, 872264 bytes, 16 tensors)

feature_extractor.0.weight f4 [16, 3, 3, 3]
0.15007842 0.1339135 -0.21317615 -0.13107301 0.30333313 -0.16261926 0.12287819 0.09763302
-0.2407946 0.029714016 0.12156565 -0.13918562 -0.04854944 0.10047442 -0.17954426 -0.023602523
0.16392103 -0.12354314 0.006093198 0.339247 -0.27459404 0.12809534 0.30963933 -0.11733295
-0.14555123 0.01673401 -0.2769308 -0.19579414 0.06313661 0.1252284 0.00072437397 -0.174521
0.10048756 -0.20826392 -0.020425513 -0.053617794 -0.21484579 0.09750685 0.15816659 -0.1646249
-0.21117285 0.37446797 -0.039036628 0.047742687 0.15012239 -0.21620324 0.15347409 0.33646193
-0.014623124 -0.18998998 0.17104107 0.0037937528 -0.13819951 0.04717639 0.004696098 0.057697352
0.18693544 0.21217161 -0.045646645 -0.096807525 -0.14149478 -0.018675402 -0.090171725 0.17814605
0.23100223 0.16346923 0.09783374 -0.090327606 0.23303194 0.08136921 0.019570056 0.019475054
-0.042580787 0.09164121 0.22606106 0.03319823 0.0055840774 -0.009681324 0.1175419 0.067397416
-0.06733308 0.1658775 0.09590866 0.18534538 0.09019862 0.20381975 -0.053832658 -0.0071173916
0.037752878 -0.040265054 0.26237357 0.02486758 -0.009635907 0.27040005 0.025528986 0.036662884
-0.07445785 -0.11029138 -0.09029428 0.022779401 -0.049689792 0.027771335 0.1898802 0.16508442
-0.0124917 0.19233318 -0.022217955 -0.09915271 -0.19455256 -0.01358734 -0.11770313 0.070296496
-0.085197 -0.097233616 0.058528505 -0.15703443 0.0024328034 -0.05638867 -0.17057678 -0.17932725
-0.107874006 -0.14324231 -0.16288084 -0.1150828 -0.17889032 0.101521015 0.017641325 -0.22278485
-0.09806715 0.12146451 -0.1473918 -0.20940146 -0.009881095 0.0693284 -0.17618898 0.22259094
0.33371377 0.058700927 -0.07307473 0.014240329 -0.08890342 0.0053222813 -0.14934717 -0.30049068
0.26465452 0.0750301 -0.10798881 -0.071278915 0.24677871 -0.12612852 -0.07652305 -0.2593127
-0.30061984 0.054431837 0.24607463 0.052291006 0.077154614 0.12667932 -0.19815338 -0.109970845
0.037986577 -0.35407782 -0.14164336 0.10298145 -0.10870538 0.0007400564 0.16575092 -0.16026019
-0.078647606 -0.013378825 -0.08336123 -0.19524053 0.06977379 0.030172257 -0.1292087 0.065789655
-0.16937335 0.0143483775 -0.0012720708 -0.26713657 -0.16808549 -0.0028003296 0.066039026 -0.06800221
0.13264269 -0.11200356 0.13033785 0.059612144 -0.16735603 -0.21194892 -0.16149083 0.22722334
-0.26414514 0.00654191 0.33931163 -0.013873787 0.0016220736 0.03856122 -0.28626797 -0.25504452
0.103520975 -0.13686365 0.05735422 0.13345727 -0.22673848 0.19395755 0.16674334 0.07004224
-0.23795979 0.19478293 -0.03538209 -0.13497028 0.17154475 -0.16140054 -0.13173974 0.13272034
-0.039217535 -0.088461615 0.021108773 0.054386817 -0.11097786 -0.2222764 -0.124745235 -0.17274009
0.08944217 0.04669633 0.04231486 0.06544888 -0.19966617 -0.22582641 -0.24993657 0.047988053
-0.041720867 -0.16353881 -0.21549937 -0.24897644 -0.101921484 0.038151305 -0.14682905 -0.0055548036
-0.07393462 -0.19686383 -0.15843323 0.05215706 0.033554237 -0.05200341 -0.026336297 -0.21000607
-0.010436478 -0.03995767 0.07820351 -0.008943709 -0.17669 -0.18169342 -0.16610138 -0.07835298
00000000: 28ae 193e 9f20 093e d94a 5abe 0138 06be
00000010: 7b4e 9b3e aa85 26be 8fa7 fb3d d2f3 c73d
00000020: dc92 76be cf6a f33c 69f7 f83d ad86 0ebe
00000030: c7db 46bd 88c5 cd3d 73da 37be 145a c1bc
00000040: eada 273e 3004 fdbd 73a9 c73b c8b1 ad3e
00000050: 9797 8cbe 6d2b 033e 0c89 9e3e 424c f0bd
00000060: 620b 15be c315 893c e0c9 8dbe 427e 48be
00000070: c44d 813d e03b 003e eae3 3d3a a2b5 32be
00000080: 6ccc cd3d 2343 55be 6853 a7bc 559e 5bbd
00000090: 8900 5cbe acb1 c73d 6cf6 213e 6e93 28be
000000a0: b23d 58be 44ba bf3e dfe4 1fbd d68d 433d
000000b0: afb9 193e 6264 5dbe 5028 1d3e bd44 ac3e
000000c0: d495 6fbc bc8c 42be 6425 2f3e 9ca0 783b
000000d0: 2c84 0dbe 083c 413d bae1 993b 0f54 6c3d
000000e0: 016c 3f3e 8443 593e faf7 3abd 0643 c6bd
000000f0: 02e4 10be 28fd 98bc f4ab b8bd eb6b 363e
00000100: d98b 6c3e 7a64 273e 0e5d c83d aefd b8bd
00000110: ed9f 6e3e e6a4 a63d 6251 a03c 268a 9f3c
00000120: 3169 2ebd 63ae bb3d 8d7c 673e defa 073d
00000130: a3fa b63b 6a9e 1ebc cfb9 f03d a807 8a3d
00000140: ede5 89bd cbdb 293e c26b c43d 2ecb 3d3e
00000150: 0eba b83d 20b6 503e a27f 5cbd 0239 e9bb
00000160: c3a2 1a3d f8ec 24bd d455 863e 18b7 cb3c
00000170: ecdf 1dbc e071 8a3e 2a22 d13c d22b 163d
00000180: 5b7d 98bd 72e0 e1bd 35ec b8bd de9b ba3c
00000190: 8687 4bbd b680 e33c f56f 423e e40b 293e
000001a0: fda9 4cbc fdf2 443e 6e02 b6bc 9310 cbbd
000001b0: c938 47be 6f9d 5ebc 570e f1bd 9cf7 8f3d
000001c0: c47b aebd 6b22 c7bd 96bb 6f3d a2cd 20be
000001d0: ab6f 1f3b cef7 66bd aeab 2ebe 90a1 37be
000001e0: 0ced dcbd 1dae 12be 3cca 26be 88b0 ebbd
000001f0: 062f 37be 40ea cf3d 8a84 903c b621 64be
00000200: 6ed7 c8bd 63c2 f83d e0ed 16be 566d 56be
00000210: 51e4 21bc 0cfc 8d3d e26a 34be e1ee 633e
00000220: 88dc aa3e 6270 703d 34a8 95bd 4550 693c
00000230: ff12 b6bd 8866 ae3b 77ee 18be ead9 99be
00000240: cc80 873e 62a9 993d 3d29 ddbd aefa 91bd
00000250: 8fb3 7c3e d627 01be 1eb8 9cbd a2c4 84be
00000260: d8ea 99be ebf3 5e3d fdfa 7b3e 182f 563d
00000270: 3d03 9e3d 39b8 013e b8e8 4abe 6538 e1bd
00000280: d097 1b3d b049 b5be f50a 11be f0e7 d23d
00000290: eda0 debd 5800 423a 9cba 293e 3f1b 24be
000002a0: ff11 a1bd dc32 5bbc 4bb9 aabd 22ed 47be
000002b0: 90e5 8e3d cf2b f73c 494f 04be babc 863d
000002c0: 3570 2dbe 7515 6b3c 9dbb a6ba 20c6 88be
000002d0: 9a1e 2cbe bc85 37bb 783f 873d be44 8bbd
000002e0: 7cd3 073e 1f62 e5bd 4977 053e dd2b 743d
000002f0: 615f 2bbe 2309 59be da5d 25be 3cad 683e
00000300: 083e 87be 855d d63b 41ba ad3e e14e 63bc
00000310: c29b d43a 5ff2 1d3d b791 92be 3295 82be
00000320: ce02 d43d fc25 0cbe 42ec 6a3d 06a9 083e
00000330: 222e 68be cf9c 463e c4be 2a3e 4e72 8f3d
00000340: bbab 73be 2d75 473e cfec 10bd a635 0abe
00000350: 6da9 2f3e 2f46 25be c8e6 06be d7e7 073e
00000360: 91a2 20bd 5d2b b5bd 4eec ac3c b6c4 5e3d
00000370: 5c48 e3bd 6d9c 63be 6e7a ffbd c7e2 30be
00000380: 752d b73d a744 3f3d 5952 2d3d 100a 863d
00000390: 4a75 4cbe 0a3f 67be 5fef 7fbe 1f8f 443d
000003a0: 80e3 2abd b876 27be deab 5cbe aef3 7ebe
000003b0: 36bc d0bd 8b44 1c3d 5b5a 16be 1205 b6bb
000003c0: 096b 97bd ac96 49be 523c 22be a4a2 553d
000003d0: 2b70 093d 8701 55bd 38bf d7bc d50b 57be
000003e0: c3fd 2abc a7aa 23bd 2929 a03d a288 12bc
000003f0: 39ee 34be d70d 3abe 7b16 2abe 8777 a0bd

feature_extractor.0.bias f4 [16]
0.12411881 -0.165217 0.23206459 -0.05854877 0.15399143 0.16489471 0.07787567 -0.04183926
0.10928408 0.019856313 -0.00983289 -0.008097894 0.124867335 0.024279887 -0.1503749 -0.19817142
00000000: 0132 fe3d a52e 29be 57a2 6d3e d6d0 6fbd
00000010: eeaf 1d3e 29da 283e 477d 9f3d a55f 2bbd
00000020: 55d0 df3d b5a9 a23c 211a 21bc 07ad 04bc
00000030: 72ba ff3d 9de6 c63c e1fb 19be 73ed 4abe

feature_extractor.1.weight f4 [16]
1.1673353 0.95048255 0.6634478 0.8277509 0.95051825 0.93938845 1.1004859 1.0229559
0.8989202 1.0281254 1.053382 0.71782017 0.99490565 1.0094993 0.9921315 1.0644656
00000000: 3e6b 953f d352 733f b7d7 293f 7ce7 533f
00000010: 2a55 733f c37b 703f b9dc 8c3f 38f0 823f
00000020: a21f 663f 9d99 833f 39d5 863f 10c3 373f
00000030: 23b2 7e3f 4637 813f 54fc 7d3f 6940 883f

feature_extractor.1.bias f4 [16]
-0.13811319 0.12112666 -0.29208785 -0.18082602 0.22745976 -0.1302163 -0.025714258 0.33780155
0.16448472 0.08848916 -0.19599646 -0.16630784 0.12640549 0.12750666 0.054545254 0.3160598
00000000: 8b6d 0dbe 4111 f83d 8a8c 95be 752a 39be
00000010: 36eb 683e 6c57 05be b5a6 d2bc 53f4 ac3e
00000020: af6e 283e ce39 b53d 4cb3 48be 9a4c 2abe
00000030: 7170 013e 1b91 023e d86a 5f3d 97d2 a13e

feature_extractor.1.running_mean f4 [16]
0.21710804 -0.08223073 -2.4361684 -2.7817369 4.330891 0.94051266 2.0693166 0.73543245
4.540918 2.0456696 -1.0940844 -1.8458704 6.383345 1.5257165 1.4573369 4.754949
00000000: 9251 5e3e 9668 a8bd 2fea 1bc0 fa07 32c0
00000010: a996 8a40 70c5 703f af6f 0440 4d45 3c3f
00000020: 334f 9140 40ec 0240 f50a 8cbf 7b45 ecbf
00000030: 5d44 cc40 ae4a c33f 048a ba3f 8b28 9840

feature_extractor.1.running_var f4 [16]
0.025462482 0.05744078 0.38094363 0.38868856 0.8449779 0.10813565 0.19121064 0.1129102
0.96518075 0.21156415 0.09039558 0.17590007 1.7838995 0.09691682 0.1309955 1.3420267
00000000: b296 d03c 0647 6b3d 0b0b c33e 3002 c73e
00000010: 7950 583f 3976 dd3d b9cc 433e 773d e73d
00000020: 1616 773f 46a4 583e 5121 b93d 261f 343e
00000030: d256 e43f 537c c63d af23 063e 88c7 ab3f

feature_extractor.4.weight f4 [32, 16, 3, 3]
0.391798 0.097322054 0.07103991 0.16099685 0.026170654 0.04649842 0.077639185 -0.08724447
0.044741884 0.03931615 0.21205407 0.032927714 -0.06861873 -0.006352865 0.2519156 0.007683133
-0.17745228 0.1955511 0.04825344 0.064198084 0.1467772 -0.015411506 -0.046695106 -0.07226371
-0.024218375 -0.09691235 0.04612305 0.012721826 0.033116437 -0.022271518 -0.048472345 -0.18391488
-0.10530846 -0.09493378 -0.099525645 -0.056136176 0.092653655 0.10031007 -0.02420382 0.13530123
0.034888748 0.027525472 0.18982401 0.029933793 0.033727594 0.17281906 0.16969869 0.20335303
-0.027638245 -0.13837132 -0.1897982 0.06802368 -0.12887275 -0.015402073 0.13687706 -0.00073807215
0.037592854 0.062053617 -0.1662595 -0.05582602 -0.08000253 -0.17865661 -0.043913934 0.016602429
-0.100474454 0.19210774 0.008681281 0.027984098 0.377817 -0.21380663 -0.17814559 0.15753034
0.07476159 0.14333256 -0.022168964 0.043077063 0.05129808 0.05884899 0.14268585 0.18944561
0.001821493 0.058301855 0.039454795 0.15228218 0.082685396 0.20670623 0.19688125 0.0879534
0.041484624 0.11153068 0.24364273 0.17494874 0.22091168 0.0057936586 -0.03915784 -0.086077966
0.049487602 -0.2316518 -0.049015168 -0.0038405764 0.05342816 0.089438334 0.0040046778 -0.033132836
0.03068155 -0.058634132 -0.14104 0.08387772 0.12077736 0.0825973 -0.0015535873 0.05628316
0.05436738 0.067040704 0.1301886 0.17670287 0.004066492 0.10634769 -0.07006152 -0.07835148
0.032294035 0.0041160304 -0.018540736 0.008487335 -0.03383884 0.06415793 -0.035353594 0.06877858
0.11240349 -0.011910511 -0.0972664 0.14031473 -0.03305949 -0.09496162 -0.0023716642 0.14493102
0.07288075 0.3454063 -0.03813876 0.16252594 0.35978603 -0.014467273 0.0723814 0.10662802
0.40042517 0.046300594 -0.0034410385 0.18762156 -0.07541042 -0.048227217 0.020010829 -0.038372684
-0.075760044 0.20935844 0.23353368 0.057025798 0.023661481 -0.06890747 0.20680045 0.10636152
-0.15480301 0.15917231 0.026967568 0.012316345 0.061430253 -0.08473077 -0.13464619 -0.027893703
-0.032886278 -0.13857745 0.034223355 -0.037394345 0.018023195 -0.014196711 -0.009784608 -0.06645019
-0.10935099 -0.0708771 -0.08825394 0.055249706 0.060855325 0.016553685 0.072094314 0.22297686
0.18834311 0.28892577 0.12424399 0.07323608 0.15429153 0.17576312 0.22872941 0.22169985
0.088545136 -0.019203344 -0.07872363 0.07646779 0.0066223284 -0.103121355 0.19046488 0.16344841
0.112837575 0.10392135 0.023632245 0.10516871 0.07704131 -0.09048767 -0.0339352 0.3452877
-0.049594637 0.22220637 0.15805112 0.12247655 0.46559435 0.000901464 -0.094085716 0.07386329
0.15796155 -0.04518308 -0.032480087 0.053372562 0.1308702 0.14977816 0.03327848 -0.017766874
0.052288074 0.037062023 0.03288234 0.1885347 0.1287738 0.107408255 0.09314237 0.0041735163
0.013788719 -0.004564198 0.40998563 0.17492074 0.21754004 -0.08157538 -0.23334222 -0.10445932
0.108962916 -0.08458069 -0.019999366 0.058701333 0.051264144 0.038117543 0.025244655 -0.13228264
-0.023796946 -0.102548644 -0.08361764 0.012685958 0.01633759 0.05491077 0.13170771 0.20198894
00000000: bf99 c83e c950 c73d 5f7d 913d 5cdc 243e
00000010: d763 d63c 2175 3e3d 4b01 9f3d 3bad b2bd
00000020: 4443 373d f909 213d b424 593e 36df 063d
00000030: fa87 8cbd b22b d0bb 15fb 803e cac2 fb3b
00000040: 0db6 35be 8c3e 483e 66a5 453d 497a 833d
00000050: c34c 163e 8b80 7cbc 5e43 3fbd fffe 93bd
00000060: 9d65 c6bc fb79 c6bd 86eb 3c3d 356f 503c
00000070: 1aa5 073d c272 b6bc f08a 46bd 2f54 3cbe
00000080: f6ab d7bd a46c c2bd 1ad4 cbbd 0cef 65bd
00000090: 33c1 bd3d 5e6f cd3d 1747 c6bc 688c 0a3e
000000a0: 81e7 0e3d 197d e13c 3a61 423e b737 f53c
000000b0: f225 0a3d 7bf7 303e 7ec5 2d3e c73b 503e
000000c0: 9a69 e2bc 36b1 0dbe 765a 42be 0050 8b3d
000000d0: 38f7 03be fa58 7cbc 8029 0c3e 2f7b 41ba
000000e0: f7fa 193d ef2b 7e3d ee3f 2abe d3a9 64bd
000000f0: 5ed8 a3bd c2f1 36be 19df 33bd d101 883c
00000100: 8dc5 cdbd e4b7 443e ee3b 0e3c e83e e53c
00000110: 3b71 c13e 20f0 5abe cc6b 36be a24f 213e
00000120: 9b1c 993d c5c5 123e b09b b5bc 9371 303d
00000130: ef1d 523d a30b 713d 3d1c 123e 08fe 413e
00000140: 2abf ee3a edcd 6e3d 5a9b 213d dcef 1b3e
00000150: f656 a93d ccaa 533e 3d9b 493e ea20 b43d
00000160: c8eb 293d 326a e43d 7b7d 793e c325 333e
00000170: ac36 623e bbd8 bd3b f963 20bd a549 b0bd
00000180: 83b3 4a3d 2136 6dbe 21c4 48bd 2eb2 7bbb
00000190: 7cd7 5a3d 722b b73d ac39 833b 4cb6 07bd
000001a0: e057 fb3c 582a 70bd ca6c 10be 15c8 ab3d
000001b0: 1f5a f73d c628 a93d bda1 cbba 2c89 663d
000001c0: 54b0 5e3d a34c 893d 2950 053e 99f1 343e
000001d0: 3540 853b d1cc d93d 6a7c 8fbd be76 a0bd
000001e0: c046 043d c4df 863b bee2 97bc 770e 0b3c
000001f0: 989a 0abd 3c65 833d eece 10bd c9db 8c3d
00000200: cd33 e63d 4e24 43bc 9b33 c7bd aaae 0f3e
00000210: 6369 07bd 3d7b c2bd ec6d 1bbb cc68 143e
00000220: 8142 953d 18d9 b03e 6337 1cbd 336d 263e
00000230: e035 b83e 2408 6dbc b33c 943d cb5f da3d
00000240: 8704 cd3e b1a5 3d3d 0c83 61bb de1f 403e
00000250: c770 9abd e789 45bd c0ed a33c ad2c 1dbd
00000260: 1528 9bbd 0f62 563e 7423 6f3e e293 693d
00000270: b9d5 c13c 5c1f 8dbd 7fc3 533e 12d4 d93d
00000280: ae84 1ebe 11fe 223e 17eb dc3c 7fca 493c
00000290: 4a9e 7b3d 5387 adbd b1e0 09be 5681 e4bc
000002a0: c3b3 06bd 3fe7 0dbe ca2d 0c3d d02a 19bd
000002b0: 61a5 933c 5299 68bc 9f4f 20bc 0a17 88bd
000002c0: 69f3 dfbd 0328 91bd 7bbe b4bd 844d 623d
000002d0: 6f43 793d 989b 873c 2fa6 933d 0c54 643e
000002e0: 04dd 403e 14ee 933e a273 fe3d ccfc 953d
000002f0: 99fe 1d3e 3ffb 333e 0b38 6a3e 4905 633e
00000300: 2757 b53d 5550 9dbc db39 a1bd 259b 9c3d
00000310: 1e00 d93b 4a31 d3bd 3a09 433e 055f 273e
00000320: 6317 e73d b7d4 d43d 6998 c13c b162 d73d
00000330: d6c7 9d3d 9951 b9bd a3ff 0abd 8dc9 b03e
00000340: bf23 4bbd 118a 633e 27d8 213e fcd4 fa3d
00000350: 6262 ee3e 3a50 6c3a 03b0 c0bd a345 973d
00000360: acc0 213e e511 39bd d709 05bd 309d 5a3d
00000370: d602 063e 725f 193e 044f 083d d68b 91bc
00000380: 052c 563d 59ce 173d a2af 063d 3e0f 413e
00000390: 47dd 033e dcf8 db3d 6dc1 be3d fec1 883b
000003a0: 14ea 613c 458f 95bb a3e9 d13e 6c1e 333e
000003b0: d1c2 5e3e fe10 a7bd 43f1 6ebe c5ee d5bd
000003c0: f327 df3d a438 adbd b6d5 a3bc cf70 703d
000003d0: 5afa 513d 2421 1c3d e1cd ce3c 1a75 07be
000003e0: d0f1 c2bc 0605 d2bd ba3f abbd c4d8 4f3c
000003f0: 69d6 853c 1eea 603d 63de 063e 30d6 4e3e

feature_extractor.4.bias f4 [32]
0.014132878 -0.04239464 -0.09703238 0.049722906 0.029531898 -0.030400716 -0.057320505 0.035265222
0.047636632 -0.03545108 -0.018392876 0.022606404 0.05933177 0.05427121 0.003635672 0.074780755
-0.051337242 0.01831431 -0.08902917 -0.057026837 0.06879464 0.028754301 0.09539449 0.04319638
0.042944904 0.07133253 -0.06249538 0.045838818 0.0314643 0.0909655 0.08321874 0.04357302
00000000: 968d 673c 01a6 2dbd eab8 c6bd 3faa 4b3d
00000010: e1ec f13c ec0a f9bc e8c8 6abd 4472 103d
00000020: a11e 433d 2735 11bd a8ac 96bc 1131 b93c
00000030: df05 733d 7d4b 5e3d 7444 6e3b a726 993d
00000040: 0047 52bd e407 963c ed54 b6bd f994 69bd
00000050: 34e4 8c3d 248e eb3c 305e c33d b0ee 303d
00000060: ffe6 2f3d ca16 923d 28fb 7fbd 7cc1 3b3d
00000070: b6e0 003d 1f4c ba3d 966e aa3d 9f79 323d

feature_extractor.5.weight f4 [32]
0.93099314 1.1298954 1.0837529 0.75921094 1.0084292 1.3986164 1.1291419 0.7813542
0.78956586 1.1560123 0.8412867 0.98029065 0.78161234 0.8823518 1.2515073 0.99358785
0.924825 0.76030517 0.9162966 0.8874303 0.7618878 1.0253595 0.7889831 0.9707471
0.8584571 1.3129845 0.750008 0.70210195 0.65716296 0.90575755 0.6895413 0.7988007
00000000: 9155 6e3f 6aa0 903f 6ab8 8a3f a65b 423f
00000010: 3514 813f dd05 b33f b987 903f d406 483f
00000020: fd20 4a3f 36f8 933f 915e 573f 54f4 7a3f
00000030: bf17 483f cfe1 613f 6431 a03f c65b 7e3f
00000040: 55c1 6c3f 5ca3 423f 6a92 6a3f a22e 633f
00000050: 140b 433f fb3e 833f ccfa 493f e282 783f
00000060: d8c3 5b3f e00f a83f 8600 403f f4bc 333f
00000070: d53b 283f badf 673f c785 303f 347e 4c3f

feature_extractor.5.bias f4 [32]
-0.24546304 -0.19190386 -0.34375295 -0.12607232 -0.15857515 -0.23358467 -0.22950292 -0.17945905
-0.2020175 -0.15296629 -0.20891827 -0.0888977 -0.22533868 0.023130078 -0.21691164 -0.1769891
0.022306414 -0.21940903 -0.14984937 -0.13713707 -0.44270825 -0.006970689 -0.047510073 -0.15824322
0.016067723 -0.12509525 -0.36326402 -0.12991533 -0.13636911 -0.1672503 -0.22200902 -0.3910317
00000000: aa5a 7bbe 7282 44be 6300 b0be 1a19 01be
00000010: 8661 22be d230 6fbe d002 6bbe 1dc4 37be
00000020: addd 4ebe 32a3 1cbe acee 55be ff0f b6bd
00000030: 2fbf 66be 4a7b bd3c 161e 5ebe a13c 35be
00000040: f1bb b63c c3ac 60be 1d72 19be a96d 0cbe
00000050: a8aa e2be 616a e4bb ec99 42bd 830a 22be
00000060: 75a0 833c f818 00be befd b9be 8608 05be
00000070: 58a4 0bbe aa43 2bbe 5556 63be 4f35 c8be

feature_extractor.5.running_mean f4 [32]
1.8360004 3.048114 1.4865503 -0.099037014 1.445977 2.2099683 1.3921834 1.8757739
3.2860808 0.7889402 -0.41646525 1.425802 -0.15922631 2.2564821 1.1411654 1.0777912
0.5138474 -1.325804 2.0050573 2.110504 2.4423642 1.1091105 -3.3516443 1.2243931
-1.0250335 1.1043104 2.849097 2.704959 2.9788904 2.3563366 1.3553222 3.3173456
00000000: 1002 eb3f 4d14 4340 4847 be3f ebd3 cabd
00000010: c615 b93f 1f70 0d40 1133 b23f 5c19 f03f
00000020: 264f 5240 fcf7 493f ef3a d5be ae80 b63f
00000030: 390c 23be 346a 1040 b511 923f 10f5 893f
00000040: 818b 033f f2b3 a9bf dc52 0040 7f12 0740
00000050: b24f 1c40 55f7 8d3f 5781 56c0 eab8 9c3f
00000060: 4c34 83bf 0b5a 8d3f 9b57 3640 0c1e 2d40
00000070: 24a6 3e40 38ce 1640 337b ad3f 644f 5440

feature_extractor.5.running_var f4 [32]
2.5692759 3.1623538 3.6162956 6.1308355 2.0134614 3.3193116 2.0809975 3.1073656
2.460398 2.911477 5.0972033 3.3168426 4.3691764 4.725583 2.3551624 2.199169
4.107003 4.2344527 2.8496203 3.237343 1.5512768 2.0462518 3.4412863 2.3103764
2.1698587 1.9534453 2.6454458 2.897319 5.5430703 3.714264 3.270943 2.556932
00000000: 046f 2440 0164 4a40 6371 6740 ce2f c440
00000010: 8ddc 0040 9a6f 5440 102f 0540 14df 4640
00000020: 2977 1d40 a455 3a40 4a1c a340 2647 5440
00000030: 4bd0 8b40 fa37 9740 fbba 1640 2fbf 0c40
00000040: 926c 8340 a380 8740 2e60 3640 a130 4f40
00000050: 3d90 c63f caf5 0240 093e 5c40 35dd 1340
00000060: f7de 0a40 7f0a fa3f fc4e 2940 ad6d 3940
00000070: d560 b140 80b6 6d40 2157 5140 c6a4 2340

feature_extractor.9.weight f4 [16, 32, 3, 3]
-0.10458623 -0.06290311 -0.09040483 -0.060764473 -0.069223516 -0.00810766 -0.035480965 -0.0994314
-0.041242387 -0.074094824 -0.054659884 -0.079846 -0.061110724 -0.0958088 -0.05935715 -0.024626838
-0.08807454 -0.04761757 -0.034829702 -0.0011256151 -0.050187845 -0.07042226 -0.103332035 -0.029621052
-0.04117232 -0.0069307624 -0.020459337 -0.0851877 -0.0538613 -0.013170599 -0.09266415 -0.104935996
-0.07878094 -0.00044144064 -0.01658608 -0.08708615 -0.027772993 -0.09380948 -0.03334293 -0.035677135
-0.028425554 -0.097336784 -0.0305114 -0.021699581 -0.064167336 -0.043791927 -0.03869271 0.1119775
-0.03776784 -0.046490885 -0.062492445 -0.06906108 -0.051075477 -0.1066829 -0.077730715 -0.07750932
-0.032296542 -0.054556064 -0.054765616 -0.092183925 -0.051806245 -0.022477629 -0.10177903 -0.069757126
-0.07717452 -0.06454187 -0.019869324 -0.06798468 -0.020772755 -0.07189006 -0.048024654 -0.016184684
-0.07016322 -0.051944807 -0.097835146 -0.022068115 -0.014738138 -0.035821393 -0.0898798 -0.06411307
-0.09047248 -0.037687607 -0.026084106 -0.04671978 -0.061933305 -0.028287143 -0.06562502 -0.09220463
-0.066116504 -0.048119795 -0.018805198 -0.070018254 -0.09937046 -0.021653896 -0.06062975 -0.008356518
-0.042646814 -0.07695053 -0.08032254 -0.10868194 -0.05847743 -0.012569378 -0.09100528 -0.01476224
-0.032329638 -0.08972775 -0.019380724 -0.039340544 -0.09498024 -0.04744335 -0.010482717 -0.04414478
-0.031788487 -0.07159136 -0.044444565 -0.017696515 -0.05873236 -0.08666856 -0.0660487 -0.08540293
0.02405572 -0.011797074 -0.07273118 0.060312588 -0.07155443 0.03112418 -0.081573196 -0.08952803
-0.060690373 -0.03402913 -0.0758969 -0.029164981 -0.03781101 -0.0861673 -0.024001798 -0.044715073
-0.0061132987 -0.006413518 -0.060488433 -0.08325845 -0.09058481 -0.06697516 -0.029857554 -0.09607499
-0.002248758 -0.08546414 -0.004795061 -0.04548504 -0.05979124 -0.07711759 0.019986 -0.07590853
-0.03374317 -0.074866176 -0.05729663 -0.00855931 -0.039803114 -0.0017320614 -0.07247483 -0.06008256
-0.098702855 -0.10907663 -0.055905696 -0.034368787 -0.009729576 -0.032559477 -0.10322981 -0.07058559
-0.09170855 -0.08548767 -0.062250853 -0.0721874 -0.013404231 -0.09165496 -0.023055874 -0.03212802
-0.0639475 -0.024148313 -0.07287332 -0.10953484 -0.085304335 -0.028816054 -0.08649381 -0.095124625
-0.08836917 -0.037147284 0.04415095 -0.010175731 -0.036699273 0.01763476 -0.017656963 -0.046784837
-0.06314589 -0.090367265 -0.034655858 -0.07039082 -0.04268383 -0.016583443 -0.088701285 -0.06515321
-0.005651454 -0.01992222 -0.034190215 -0.094070695 -0.08921805 -0.030270502 -0.012944436 -0.10657389
-0.059252754 -0.05416984 -0.017181862 -0.09989109 -0.0046584457 -0.09722695 -0.090882234 -0.054781064
-0.00686198 -0.101441905 -0.083780706 -0.05192777 -0.060135335 -0.07832104 -0.10024632 -0.094998956
-0.085677095 -0.0659439 -0.08391968 -0.074428745 0.060447816 -0.08237001 -0.07090525 -0.084819995
-0.04333553 -0.111403435 -0.09381903 -0.10162584 -0.03289696 -0.07177609 -0.047499135 -0.1058447
-0.014137953 -0.04741041 -0.058337037 -0.04489274 -0.025330037 -0.041344803 -0.011359998 -0.03859849
-0.10781597 -0.113616794 -0.005298126 -0.107159615 -0.09857334 -0.066676974 -0.011607013 -0.06592323
00000000: 4e31 d6bd 59d3 80bd 2b26 b9bd 2be4 78bd
00000010: 0fc5 8dbd fed5 04bc 7d54 11bd b1a2 cbbd
00000020: c7ed 28bd 07bf 97bd 0be3 5fbd 4d86 a3bd
00000030: 3d4f 7abd 6737 c4bd 7c20 73bd 39be c9bc
00000040: 6d60 b4bd a40a 43bd 97a9 0ebd 6089 93ba
00000050: c591 4dbd 8c39 90bd bf9f d3bd d9a7 f2bc
00000060: 4ea4 28bd 731b e3bb 579a a7bc e476 aebd
00000070: ab9d 5cbd 7fc9 57bc b4c6 bdbd afe8 d6bd
00000080: e757 a1bd 2971 e7b9 88df 87bc 395a b2bd
00000090: 3084 e3bc 2f1f c0bd 9992 08bd 3022 12bd
000000a0: b5dc e8bc 8258 c7bd 0bf3 f9bc 52c3 b1bc
000000b0: 2a6a 83bd 2a5f 33bd 3f7c 1ebd 7654 e53d
000000c0: 73b2 1abd 3a6d 3ebd 14f8 7fbd e56f 8dbd
000000d0: 8534 51bd 907c dabd 4831 9fbd 35bd 9ebd
000000e0: 6149 04bd 2e76 5fbd e951 60bd edca bcbd
000000f0: c932 54bd 0123 b8bc 8671 d0bd d3dc 8ebd
00000100: ad0d 9ebd 872e 84bd fec4 a2bc 8d3b 8bbd
00000110: a02b aabc 193b 93bd 80b5 44bd be95 84bc
00000120: bcb1 8fbd 14c4 54bd cb5d c8bd 31c8 b4bc
00000130: 3b78 71bc 74b9 12bd e712 b8bd b74d 83bd
00000140: a349 b9bd 525e 1abd 56ae d5bc 3d5d 3fbd
00000150: c7ad 7dbd 70ba e7bc 6966 86bd c8d5 bcbd
00000160: 1768 87bd 4319 45bd 5c0d 9abc bb65 8fbd
00000170: bd82 cbbd 8363 b1bc e756 78bd c7e9 08bc
00000180: 6dae 2ebd 3d98 9dbd 2580 a4bd a394 debd
00000190: 0886 6fbd cbef 4dbc fa60 babd 53dd 71bc
000001a0: 156c 04bd 2fc3 b7bd 53c4 9ebc 8d23 21bd
000001b0: 0085 c2bd f553 42bd b4bf 2bbc 28d1 34bd
000001c0: a534 02bd 7e9e 92bd 810b 36bd 48f8 90bc
000001d0: 5891 70bd 497f b1bd 8a44 87bd bbe7 aebd
000001e0: 8010 c53c 8448 41bc 16f4 94bd 550a 773d
000001f0: 218b 92bd 23f8 fe3c d90f a7bd 795a b7bd
00000200: 7896 78bd 2162 0bbd d56f 9bbd 66eb eebc
00000210: b8df 1abd 7b78 b0bd 6b9f c4bc 2727 37bd
00000220: 1152 c8bb 7d28 d2bb b8c2 77bd 6883 aabd
00000230: 8784 b9bd 462a 89bd d497 f4bc f7c2 c4bd
00000240: e65f 13bb d307 afbd e31f 9dbb 854e 3abd
00000250: a9e7 74bd d4ef 9dbd aeb9 a33c ee75 9bbd
00000260: 4736 0abd 7053 99bd dfaf 6abd 593c 0cbc
00000270: 9708 23bd 5606 e3ba af6d 94bd 2119 76bd
00000280: b924 cabd 9163 dfbd 5ffd 64bd 49c6 0cbd
00000290: cd68 1fbc 165d 05bd 276a d3bd 2e8f 90bd
000002a0: b1d1 bbbd 2914 afbd c0fa 7ebd fdd6 93bd
000002b0: 6b9d 5bbc 98b5 bbbd acdf bcbc ac98 03bd
000002c0: e8f6 82bd afd2 c5bc 9b3e 95bd cd53 e0bd
000002d0: 0ab4 aebd a50f ecbc ab23 b1bd b3d0 c2bd
000002e0: e5fa b4bd c027 18bd a0d7 343d 1cb8 26bc
000002f0: fa51 16bd c676 903c 56a5 90bc 75a1 3fbd
00000300: a252 81bd 7912 b9bd 4df3 0dbd 1029 90bd
00000310: 3dd5 2ebd 00da 87bc 05a9 b5bd 0c6f 85bd
00000320: d52f b9bb ec33 a3bc 0a0b 0cbd 23a8 c0bd
00000330: f4b7 b6bd d8f9 f7bc e614 54bc 6943 dabd
00000340: 04b3 72bd 32e1 5dbd fac0 8cbc b393 ccbd
00000350: e0a5 98bb ec1e c7bd 7720 babd 1c62 60bd
00000360: 76da e0bb c6c0 cfbd 3895 abbd 37b2 54bd
00000370: 7850 76bd c866 a0bd f14d cdbd d08e c2bd
00000380: 7977 afbd 980d 87bd 15de abbd 196e 98bd
00000390: 2198 773d 9cb1 a8bd c636 91bd 1bb6 adbd
000003a0: 9980 31bd 7c27 e4bd 3124 c0bd 3521 d0bd
000003b0: f6be 06bd 58ff 92bd 748e 42bd 1bc5 d8bd
000003c0: dfa2 67bc 6b31 42bd d1f2 6ebd 73e1 37bd
000003d0: f080 cfbc 2b59 29bd 491f 3abc 7319 1ebd
000003e0: 9fce dcbd ecaf e8bd e79b adbb 8076 dbbd
000003f0: d2e0 c9bd f08d 88bd 572b 3ebc c202 87bd

feature_extractor.9.bias f4 [16]
-0.06186533 0.027539216 -0.052005377 -0.06077723 0.008623395 -0.13324285 -0.15239972 -0.101296924
-0.12603423 -0.049158387 -0.069856234 -0.03028464 -0.01997054 -0.09101342 -0.10478114 -0.16946732
00000000: 8066 7dbd ec99 e13c 9703 55bd 8bf1 78bd
00000010: 2449 0d3c d070 08be ac0e 1cbe c374 cfbd
00000020: 1e0f 01be 4e5a 49bd c910 8fbd 7e17 f8bc
00000030: 4299 a3bc 3e65 babd 7f97 d6bd d788 2dbe

head.0.weight f4 [128, 1600]
0.07131015 -0.01376737 -0.033702698 -0.06736233 -0.037741154 -0.06959067 0.055407904 -0.06071739
-0.061406992 -0.008919769 0.07011751 -0.053042207 -0.077475056 0.043888837 -0.0595004 -0.079975605
-0.041851185 0.04971899 -0.07407909 0.005597687 0.03523923 -0.002402001 0.053174667 -0.0355562
0.07522485 -0.040237136 -0.04988507 0.07605013 0.0413883 -0.0052789715 0.044198055 0.0436851
0.07108845 0.03443382 0.072844304 -0.051665608 0.044220235 -0.037616204 -0.072596505 -0.05404189
0.07609794 -0.07103719 0.05948048 0.06976205 0.06190544 0.05704655 0.05073339 -0.076906405
-0.050709337 -0.045299683 0.038719993 0.07349839 -0.07917324 -0.041969884 -0.058163274 -0.04368608
0.063812286 -0.03699853 -0.07104429 0.057675987 0.07514441 -0.07767964 0.07185148 0.045300007
0.076796226 0.058608472 0.05991774 -0.07310787 -0.06903685 0.03560741 0.054123376 -0.06980782
-0.06740498 -0.044149864 0.050827526 0.04766464 0.067750245 -0.06694364 -0.0038139457 0.0025570316
0.038893867 -0.03525861 -0.033968277 0.041742645 0.047899377 0.060372043 0.06444023 -0.011112023
0.01488628 0.010585356 0.06973554 0.06742252 0.06342584 0.002376186 -0.06595115 -0.05516531
0.036669914 0.004002693 0.0010031759 -0.020629302 0.3676025 0.41951516 0.20930551 -0.21758266
-0.11239062 -0.06646581 0.029976243 0.21534532 0.23268163 0.0065482925 0.043186825 0.28726718
-0.060744785 -0.22110637 0.14717987 0.14241324 0.20472743 0.20226601 0.07734189 0.21746589
0.060806364 0.24631356 0.23141107 0.12648372 0.15158829 0.10747087 0.21758692 0.23507825
-0.0019736178 -0.054935325 -0.032262538 0.03100798 0.11436765 0.14511773 0.19704552 -0.037539348
-0.17046261 -0.056468118 -0.035841256 0.07986304 0.20041765 0.08974263 0.12347046 0.07484562
-0.01707573 0.24977808 0.17064583 0.08644171 0.07477654 0.21035154 -0.050396968 0.03608362
0.061137415 0.19669813 0.64085525 0.52082765 -0.049360596 0.11785475 0.24647132 0.091824025
0.04624554 -0.16069818 -0.10482422 0.2180722 0.16463107 -0.23778623 0.053124495 0.04456141
0.07052904 0.11467321 0.058528256 0.46522924 0.17413351 -0.05102614 -0.140949 -0.08463796
-0.20064798 0.04086231 0.16090767 0.026919922 0.07500136 0.21013322 0.29977873 0.03317961
0.107748866 0.07862732 -0.013257642 0.024954287 0.18712749 0.039982866 0.07944333 0.052299157
0.21418549 -0.13008603 -0.0886581 0.15419573 -0.029134994 0.19430324 0.14846954 0.06503363
0.30689478 0.06611688 0.046933267 0.019008668 0.0022034526 -0.090437 -0.057777304 -0.026112737
0.07319645 0.053642977 0.0008154824 0.06864162 -0.06699649 0.117640756 0.07715579 0.113753445
0.09140604 0.08647526 0.06273016 0.06528181 0.11761582 0.047964904 0.0006604162 0.06292067
0.00448878 -0.061697412 0.041342888 0.07806646 0.016448116 0.011612036 0.0013802154 0.09643722
0.106124334 0.091332406 0.009020597 0.045657713 -0.010947904 0.030874709 -0.01585143 0.094432466
0.005309142 0.011635246 0.053120427 -0.061086304 -0.09778918 -0.03314907 -0.01573218 -0.0049081645
-0.08036065 0.04206161 -0.059001405 0.06110543 0.07294616 0.063533925 -0.07481259 -0.015730532
00000000: 0e0b 923d 8990 61bc d70b 0abd 43f5 89bd
00000010: 7896 1abd 8e85 8ebd 66f3 623d ccb2 78bd
00000020: e685 7bbd 3924 12bc c599 8f3d c942 59bd
00000030: 3eab 9ebd c8c4 333d b1b6 73bd 40ca a3bd
00000040: 266c 2bbd 24a6 4b3d c7b6 97bd cd6c b73b
00000050: 0357 103d e46a 1dbb aecd 593d 61a3 11bd
00000060: 7c0f 9a3d b2cf 24bd 4a54 4cbd 2cc0 9b3d
00000070: c786 293d 39fb acbb 0509 353d 26ef 323d
00000080: d296 913d 7a0a 0d3d 652f 953d 519f 53bd
00000090: 4720 353d 7313 1abd 7aad 94bd 075b 5dbd
000000a0: 3dd9 9b3d f27b 91bd cea1 733d 68df 8e3d
000000b0: 8f90 7d3d a5a9 693d d1cd 4f3d 1b81 9dbd
000000c0: 98b4 4fbd 298c 39bd db98 1e3d 5386 963d
000000d0: 9425 a2bd 9de8 2bbd 9d3c 6ebd 2df0 32bd
000000e0: 04b0 823d c58b 17bd ab7f 91bd a83d 6c3d
000000f0: 50e5 993d 8116 9fbd de26 933d 808c 393d
00000100: 5747 9d3d 700f 703d 4e6c 753d 94b9 95bd
00000110: 3163 8dbd 13d9 113d 79b0 5d3d 67f7 8ebd
00000120: 9f0b 8abd 7dd6 34bd 8630 503d ff3b 433d
00000130: a4c0 8a3d bf19 89bd 64f3 79bb df93 273b
00000140: 2d4f 1f3d 556b 10bd 5222 0bbd 56fa 2a3d
00000150: 2332 443d ad48 773d 3df9 833d 340f 36bc
00000160: 95e5 733c 336e 2d3c 82d1 8e3d d114 8a3d
00000170: 68e5 813d c9b9 1b3b 6611 87bd 05f5 61bd
00000180: 3133 163d 0629 833b ff7c 833a c8fe a8bc
00000190: 6536 bc3e b1ca d63e 2f54 563e fdcd 5ebe
000001a0: 0e2d e6bd 3a1f 88bd bd90 f53c 7c83 5c3e
000001b0: 1844 6e3e 0f93 d63b abe4 303d af14 933e
000001c0: 86cf 78bd b569 62be 52b6 163e c7d4 113e
000001d0: 11a4 513e d21e 4f3e 6d65 9e3d 61af 5e3e
000001e0: 1810 793d 9f39 7c3e 06f7 6c3e f384 013e
000001f0: f639 1b3e b019 dc3d 1bcf 5e3e 5ab8 703e
00000200: d057 01bb dd03 61bd b925 04bd 7304 fe3c
00000210: 9639 ea3d be99 143e 4dc6 493e dcc2 19bd
00000220: c08d 2ebe 1d4b 67bd 48ce 12bd 3c8f a33d
00000230: 493a 4d3e fcca b73d 15de fc3d a948 993d
00000240: 67e2 8bbc d3c5 7f3e c8bd 2e3e 5a08 b13d
00000250: 7124 993d 6566 573e 0d6d 4ebd 6bcc 133d
00000260: 3a6b 7a3d 3c6b 493e 170f 243f f654 053f
00000270: 562e 4abd d55d f13d fa62 7c3e 3c0e bc3d
00000280: f76b 3d3d 108e 24be 15ae d6bd 524e 5f3e
00000290: 0c95 283e 3c7e 73be 1299 593d 0686 363d
000002a0: 8871 903d cad9 ea3d 53bb 6f3d 8732 ee3e
000002b0: 0e50 323e c900 51bd ef54 10be ab56 adbd
000002c0: aa76 4dbe 3d5f 273d fbc4 243e 2b87 dc3c
000002d0: 509a 993d 2a2d 573e 997c 993e 58e7 073d
000002e0: 70ab dc3d 5c07 a13d 9536 59bc ef6c cc3c
000002f0: 599e 3f3e 13c5 233d 2fb3 a23d a437 563d
00000300: 7153 5b3e 4635 05be 6192 b5bd 7ce5 1d3e
00000310: 83ac eebc 6ef7 463e 6608 183e 5a30 853d
00000320: 5021 9d3e 4968 873d 193d 403d 11b8 9b3c
00000330: cd67 103b 0937 b9bd e5a7 6cbd 61ea d5bc
00000340: 05e8 953d bdb8 5b3d 19c6 553a fa93 8c3d
00000350: 7535 89bd a3ed f03d db03 9e3d 91f7 e83d
00000360: 1733 bb3d f119 b13d ac78 803d 78b2 853d
00000370: 90e0 f03d d976 443d c81f 2d3a 8ddc 803d
00000380: 9e16 933b 6db6 7cbd 2957 293d 4fe1 9f3d
00000390: 33be 863c 6940 3e3c 58e8 b43a e180 c53d
000003a0: b757 d93d 7c0c bb3d 20cb 133c 9503 3b3d
000003b0: d65e 33bc f5ec fc3c dcda 81bc cf65 c13d
000003c0: 50f8 ad3b c2a1 3e3c ce94 593d a235 7abd
000003d0: b245 c8bd 52c7 07bd c6e0 80bc abd4 a0bb
000003e0: 2094 a4bd cb48 2c3d 75ab 71bd b049 7a3d
000003f0: cc64 953d 131e 823d 5837 99bd 51dd 80bc

head.0.bias f4 [128]
0.24245293 -0.016128184 0.14918989 0.056904737 0.14094508 -0.111012116 0.014897315 -0.0929392
0.11518301 -0.043892775 -0.17136447 0.0015124298 -0.14334238 -0.010811093 -0.21036884 0.019362649
-0.015008476 0.11130918 -0.005249158 0.05567324 -0.04602207 0.07415625 -0.0016771286 0.21692568
0.10823444 0.0043722475 -0.14046855 -0.09522915 0.025461117 0.09041849 0.06977709 -0.023701021
-0.20290455 0.19389018 0.06749912 -0.054861788 0.29518124 0.16534188 0.0019492097 0.1535204
0.10519827 -0.09860535 0.0014034272 0.06280954 0.19807592 0.19663475 0.11738644 -0.07695049
0.16375364 -0.036482785 0.029244153 -0.06799586 -0.115036726 -0.053658795 0.04898415 0.012860189
-0.02980138 -0.27441236 -0.052046366 -0.12529887 -0.04867302 -0.092822276 0.13799097 0.008891211
-0.081972696 0.052971944 0.13658306 0.028374711 0.10080151 -0.14620924 -0.09937817 0.21993035
-0.08431423 0.22976783 -0.021049086 0.049988918 -0.12280311 0.10041363 -0.04947208 -0.04281946
-0.07451862 -0.17439918 -0.060084186 0.022308651 -0.08476603 0.03467071 -0.05258718 -0.06446517
-0.097120024 -0.06908827 -0.15757109 0.12015285 -0.006106316 -0.12269225 0.006122744 0.09202072
0.08403849 -0.04428153 -0.02764351 -0.089136414 -0.065958165 0.14555296 -0.19147262 -0.18716052
-0.14544271 0.10695321 0.24659668 -0.115835525 -0.14400372 -0.0037277446 -0.027053175 -0.14275827
0.029771525 -0.047439374 -0.025295893 -0.14644389 0.087136485 0.15921219 -0.16211271 0.20383531
-0.06850115 0.08130107 -0.006590309 0.15508209 0.054212976 0.0026030361 -0.10744478 0.022326857
00000000: 9545 783e 411f 84bc 3cc5 183e f114 693d
00000010: e853 103e 525a e3bd de13 743c e856 bebd
00000020: 12e5 eb3d e9c8 33bd 2b7a 2fbe b93c c63a
00000030: 58c8 12be 0321 31bc ee6a 57be 6b9e 9e3c
00000040: 1ce6 75bc 11f6 e33d 2101 acbb a009 643d
00000050: a381 3cbd 3bdf 973d 19d3 dbba c421 5e3e
00000060: 05aa dd3d 1245 8f3b fdd6 0fbe 8007 c3bd
00000070: d593 d03c 542d b93d 4ae7 8e3d a528 c2bc
00000080: 36c6 4fbe 268b 463e fb3c 8a3d c1b6 60bd
00000090: ff21 973e 624f 293e a07c ff3a 7434 1d3e
000000a0: 3172 d73d 9af1 c9bd 34f3 b73a 4aa2 803d
000000b0: 6ad4 4a3e 9f5a 493e 4d68 f03d 3898 9dbd
000000c0: 09af 273e f96e 15bd 6f91 ef3c 6a41 8bbd
000000d0: 6098 ebbd 53c9 5bbd 9ba3 483d 8bb3 523c
000000e0: 0622 f4bc c77f 8cbe 922e 55bd 594e 00be
000000f0: 5c5d 47bd 9b19 bebd 814d 0d3e 71ac 113c
00000100: 4de1 a7bd 1cf9 583d 6edc 0b3e 1572 e83c
00000110: 0671 ce3d e0b7 15be c886 cbbd 6c35 613e
00000120: f0ac acbd 4248 6b3e 226f acbc 2ec1 4c3d
00000130: 3280 fbbd a9a5 cd3d 3ca3 4abd 7563 2fbd
00000140: 389d 98bd b395 32be d61a 76bd a2c0 b63c
00000150: d099 adbd e002 0e3d a865 57bd 5106 84bd
00000160: dde6 c6bd 277e 8dbd 515a 21be b312 f63d
00000170: 7e17 c8bb 1346 fbbd 4da1 c83b 5c75 bc3d
00000180: 5f1c ac3d 8d60 35bd a474 e2bc 278d b6bd
00000190: 1315 87bd d60b 153e 6611 44be 02a7 3fbe
000001a0: efee 14be 490a db3d d783 7c3e 2d3b edbd
000001b0: b675 13be 2d4d 74bb 9f9e ddbc 392f 12be
000001c0: 6ae3 f33c ca4f 42bd 5539 cfbc 63f5 15be
000001d0: 9d74 b23d 8508 233e e000 26be 34ba 503e
000001e0: 554a 8cbd 2d81 a63d 85f3 d7bb d7cd 1e3e
000001f0: 6d0e 5e3d b397 2a3b 020c dcbd d0e6 b63c
