optim/models/siamese_net_trained_[<ImagePreprocessing.CROPPING: 'cropping'>].pth (torch, 867376 bytes, 16 tensors)

feature_extractor.0.weight f4 [16, 3, 3, 3]
000000 6c 96 79 3d 4f c4 4f 3d 18 2d 32 3c f3 f4 48 3e
       0.06093447 0.050724324 0.010875009 0.1962469
000010 af ef da 3d 4f 9c 10 bd 76 89 a1 39 64 8a a0 bd
       0.10690247 -0.035305317 0.0003081073 -0.07838896
000020 b0 7d cd bc 44 6f e8 3d ec 8e ee 3d be 11 a4 3d
       -0.025084347 0.11349347 0.11648354 0.080111966
000030 85 b8 59 bd 85 13 64 3d c4 09 b2 3d 73 e9 4c 3e
       -0.053154487 0.055682678 0.08693269 0.20010929
000040 69 de 5d 3e a3 6e 85 3c 51 d2 b8 3b c5 52 bd bd
       0.21666874 0.016288107 0.005640306 -0.09244303
000050 ae d6 73 be 3f 47 53 be 70 55 e0 3b f5 64 9b 3d
       -0.23812363 -0.20632647 0.0068461224 0.075876154
000060 7d 6b 23 be 8d ed ba bd 8f 98 3e 3e 03 93 5c 3e
       -0.15958972 -0.091273405 0.18612884 0.21540456
000070 9a af 12 3d a4 55 a3 3e 39 f5 4d 3e 2d 43 6c bc
       0.035811998 0.31901276 0.20113076 -0.014420313
000080 bc 39 3a 3d cf d8 77 3e 9e b0 85 bd db 43 a2 bb
       0.045465216 0.242038 -0.06527828 -0.0049519367
000090 99 1a 48 be 9e 43 65 3d 8b 1b 5f bd 45 21 88 3d
       -0.19541396 0.055972688 -0.054469626 0.06646971
0000a0 5f 77 00 be 13 46 f0 3c b9 92 f2 bd 6b 66 50 3e
       -0.12545536 0.029330289 -0.118443914 0.2035157
0000b0 72 c1 0a 3e c2 c1 d7 3d 12 2a d6 3d f1 73 db bd
       0.13550356 0.10535003 0.10457243 -0.107154734
0000c0 eb 5a de bc ac 51 e2 bb 56 9a c5 3c 93 f9 ea bc
       -0.027142962 -0.0069067087 0.024121445 -0.02868346
0000d0 cb f2 95 3c 51 39 7a 3e 06 b7 5f 3d f2 ac d3 bd
       0.01830425 0.24435927 0.054617904 -0.10335721
0000e0 01 b9 24 3e 46 3b 11 be 9e fc eb 3d df c9 34 3d
       0.16086198 -0.14182767 0.11522792 0.04413783
0000f0 01 68 22 3e 67 43 1f be 0c d2 a3 bd 5a 6c 7d 3d
       0.15859987 -0.15553056 -0.07999048 0.06187091
000100 04 21 85 be 29 b0 af be 31 90 83 bd 3f b4 aa be
       -0.2600175 -0.34314087 -0.06423987 -0.33340642
000110 21 4f 5d be d2 64 af be a2 13 a4 be 17 3d 93 be
       -0.21612217 -0.34256607 -0.3204623 -0.28757545
000120 e4 e0 fb bc d3 a3 90 bd 3d 3b 89 3d 80 75 41 3e
       -0.030746885 -0.07062497 0.06700752 0.18892479
000130 2f cd af bb 41 c8 14 3e 29 ac 85 bd 4e 01 1d bd
       -0.005365036 0.14529516 -0.065269776 -0.038331322
000140 59 40 ae bd 9e bc 89 3e 81 bb 84 3d ed 57 90 3e
       -0.08508367 0.26901716 0.06481076 0.28192082
000150 c7 0b 9f 3e 46 0d 51 3d bf 31 e2 3e 07 91 cc 3b
       0.31063673 0.05103805 0.44178578 0.0062428745
000160 82 c2 72 3b df c7 09 3e 7e f2 05 3e f1 fa 19 3c
       0.0037042205 0.13455151 0.13080785 0.009398208
000170 2d ed 92 3c b2 6a 57 be 23 84 91 bd 04 0a 8a be
       0.01793536 -0.21036795 -0.07105281 -0.26960766
000180 a8 1a 4a be 22 18 33 be 5d 43 64 3d e2 6c d3 bc
       -0.19736731 -0.17489675 0.055728305 -0.025808755
000190 b4 fd fb 3d de 52 b5 bd 4b dd bb 3d 3b 0d eb 3d
       0.123042494 -0.08853696 0.09173068 0.11477133
0001a0 58 15 73 be 4b 83 c3 bd 0d e4 94 bd e5 57 5c 3d
       -0.2373861 -0.095465265 -0.0727006 0.05379476
0001b0 27 83 82 3d ab ee e3 bd 89 f7 59 3d 7b 2b d3 bd
       0.063726716 -0.11129507 0.053214584 -0.103110276
0001c0 26 6f 11 bc a1 7b 28 be 48 87 b9 bd 3c c5 3a 3c
       -0.0088765975 -0.1645341 -0.09059006 0.011399563
0001d0 c5 dc 49 bb 95 9c 20 3e a7 03 2c 3e 94 e4 ea bd
       -0.0030801755 0.15684731 0.16798268 -0.11469379
0001e0 b2 42 97 3d 3b 79 06 3e cd 50 a7 bd 8b 78 8c 3c
       0.07385768 0.13132183 -0.081697084 0.017147323
0001f0 3e b4 10 be 73 ba ae 3d 24 b0 53 be 4b a4 25 bd
       -0.14131257 0.08531656 -0.20672661 -0.040439885
000200 99 0c 7f be cc 5d 89 be 1b 0d b6 be d3 66 3d be
       -0.2490715 -0.26829374 -0.35556874 -0.18496256
000210 0e 07 d7 be c1 c7 6f be f6 e5 92 be 22 3c 3f 3d
       -0.4199757 -0.23416044 -0.2869107 0.046688206
000220 bb 2b bf bd 22 96 13 3e ef 59 58 3e 46 29 11 3e
       -0.09334513 0.1441274 0.21128057 0.14175901
000230 b0 75 d8 bd dc 48 1f bc 4a 87 bc 3d f1 c0 92 bd
       -0.10569322 -0.009721961 0.09205492 -0.07165707
000240 de f9 35 be e8 46 42 be f0 66 87 be b2 c0 a9 be
       -0.17771098 -0.18972361 -0.26445723 -0.33154827
000250 b3 3e 90 be f1 fb 3c be 51 6b 87 bc 34 ea b2 be
       -0.28172836 -0.18455483 -0.016530665 -0.34944308
000260 7d e4 98 bd 2f 7f 3e 3c 26 08 07 be a5 97 3b bd
       -0.07465456 0.011627003 -0.13186702 -0.045798916
000270 45 9d 21 bd 8d c0 1f 3e 35 43 71 3d f1 ea be 3e
       -0.039456625 0.15600796 0.058901984 0.3728862
000280 ee f2 39 3e c9 16 89 3e 65 91 a1 bc b8 3f 8a be
       0.18159077 0.26775196 -0.01972265 -0.2700174
000290 53 55 7b be 88 6f 2c 3e 22 d4 3c be 27 03 02 be
       -0.24544267 0.16839421 -0.18440297 -0.12696515
0002a0 35 9d b8 bd 8b 9e 69 bd 03 bf 50 be 03 92 23 be
       -0.0901436 -0.057035964 -0.20385365 -0.15973668
0002b0 2c 38 91 3d b5 d0 c8 bd fd 1e 2a be 11 c6 8e bc
       0.07090792 -0.09805433 -0.16613384 -0.01742843
0002c0 31 f9 6a 3b fe 74 db bd da 50 26 be 52 cd e7 bd
       0.0035854096 -0.10715674 -0.1624178 -0.113184586
0002d0 34 dc 80 3c 1a 09 a7 be d4 03 06 3c 81 07 a7 be
       0.015730001 -0.3262413 0.008179624 -0.32622913
0002e0 bb 27 3a be 6d cc a6 be c9 5d f0 bb 1b f9 47 be
       -0.18179218 -0.3257784 -0.007335399 -0.1952862
0002f0 dc 38 8a be 38 5e 0a 3d 09 9b 44 3e 54 93 65 3e
       -0.26996505 0.03378126 0.19199766 0.22419482
000300 74 7f 02 3d c9 b8 29 be fd a9 37 3e 02 26 a2 bd
       0.03185983 -0.16574396 0.17935939 -0.07917406
000310 97 ed 96 bd 56 8c 6e bd 3d dd 21 3d c2 4c 81 3d
       -0.073695354 -0.058239304 0.03951763 0.063134685
000320 e8 eb bf 3c 30 31 20 3b 48 ee 8e be 6a 58 58 be
       0.023427919 0.002444338 -0.2791617 -0.21127477
000330 8a b7 68 be db 3a 93 be 71 31 94 be ed 81 a7 bd
       -0.22726265 -0.2875584 -0.2894397 -0.08179078
000340 a8 6c 1e 3d 90 a9 ff 3d cb 23 cb bc c4 0b 02 3e
       0.03867784 0.12483513 -0.02479734 0.126998
000350 90 4c b5 3d 6d 06 2b 3e 20 f9 ab bd 9a 93 88 3d
       0.08852494 0.1670167 -0.08397126 0.06668778
000360 ff 02 3d 3e 1e 8e 1e bc d5 b1 00 be 53 bf 07 3d
       0.18458174 -0.009677438 -0.12567838 0.033141445
000370 d0 14 0c be cf 2f 8d be ca 11 6b 3d 67 ec 14 be
       -0.13679814 -0.27575538 0.05739001 -0.14543305
000380 3f 79 e6 bc 82 07 00 3e 92 e5 d4 ba ab 61 04 be
       -0.028133987 0.12502864 -0.0016242734 -0.12927882
000390 cb 32 05 be 96 d1 0f be fb 2a 71 bd 08 47 49 bc
       -0.13007657 -0.14044794 -0.05887888 -0.012285002
0003a0 69 e3 53 be db 54 6d be e8 5a 39 3d eb c1 2c be
       -0.20692219 -0.23176901 0.04525271 -0.16870849
0003b0 3a 40 8a 3b 9a cf fe be dd 10 e9 bd 42 d9 51 be
       0.004219082 -0.49767762 -0.113801695 -0.20493034
0003c0 74 57 c8 be cb bb ce be ce 30 38 be 98 0f 4b bc
       -0.3912922 -0.4037765 -0.17987368 -0.012393855
0003d0 d4 e4 40 3e 51 87 76 3e 38 ac 01 3e 25 91 4d 3b
       0.18837291 0.24075057 0.12663352 0.003136703
0003e0 1e aa 59 3e 0d c8 34 3e 69 30 6f 3e 73 bb 4a 3e
       0.21256301 0.17654438 0.23358311 0.19798069
0003f0 da 79 3f 3e 7d c2 45 bb ed a1 5f 3d 68 9d 3d 3e
       0.18698826 -0.0030175739 0.054597784 0.18517077

feature_extractor.0.bias f4 [16]
000000 89 12 a9 bc 62 f1 15 3e 3f 3f 0f 3d 0f 76 23 3d
       -0.020638721 0.14642861 0.034972426 0.03990751
000010 2d ec e5 3d 9b af b0 3c 2a aa b4 3c 09 4b 8e 3d
       0.112266876 0.02156811 0.022053797 0.069479056
000020 04 33 b7 3d d6 e9 00 bc ab 99 43 be 2e 52 ac be
       0.08945277 -0.007868251 -0.19101588 -0.33656448
000030 b8 fb 73 bd 19 05 44 3e 18 16 e2 bd b4 ee e1 bd
       -0.05956623 0.1914257 -0.1103937 -0.11031857

feature_extractor.1.weight f4 [16]
000000 30 43 78 3f 9c 0d 76 3f 27 70 5d 3f fd e7 92 3f
       0.9697752 0.96114516 0.86499256 1.1477047
000010 57 cb 53 3f 90 08 69 3f dd c5 46 3f 3f 54 7e 3f
       0.82732147 0.9102869 0.77645665 0.993473
000020 fe 88 50 3f e9 3e 5b 3f 40 c0 8e 3f f4 ef 8a 3f
       0.81459033 0.8564287 1.115242 1.0854478
000030 62 29 a0 3f f8 9b 7d 3f 9f 6d 3d 3f 95 1e 4b 3f
       1.2512629 0.99066114 0.73995394 0.7934354

feature_extractor.1.bias f4 [16]
000000 ba 90 57 3c 7c 0f 8b bc 7b d9 33 be c7 3a 1e 3e
       0.013157064 -0.016975157 -0.17563431 0.1545211
000010 77 0e 94 be e5 a1 c2 3c ee 25 82 be 34 1d d8 38
       -0.28917286 0.023758838 -0.25419563 0.00010305122
000020 a3 17 d3 bd b2 a7 92 bc 03 83 9b bc e7 69 00 3b
       -0.10307243 -0.017902229 -0.01898337 0.0019594373
000030 26 cb 96 3d bc dc 67 be 1d e4 22 be 68 7e 18 be
       0.07362966 -0.22642797 -0.15907331 -0.1489197

feature_extractor.1.running_mean f4 [16]
000000 cb 7b d2 3f 4d 28 01 40 72 b0 37 c0 0c d7 f9 3f
       1.6444029 2.0180848 -2.8701444 1.9518752
000010 82 c3 d7 be e1 83 f0 bf 87 9f 4c c0 11 50 82 bf
       -0.42141348 -1.8790246 -3.1972368 -1.0180684
000020 15 75 08 c0 00 be 49 40 70 a7 74 3f c6 a6 8b 3d
       -2.1321461 3.1522217 0.9556799 0.06818919
000030 b7 2d d4 be 48 07 e8 bf ff 9e 3e c0 4e 52 0c 40
       -0.41441128 -1.8127222 -2.9784544 2.1925235

feature_extractor.1.running_var f4 [16]
000000 94 f2 3d 3e e0 76 70 3e e8 67 1c 3f 01 ef 9b 3e
       0.18549567 0.23482847 0.6109605 0.30455783
000010 4f 43 94 3e 32 c2 9e 3e ac d9 54 3f 07 82 fb 3d
       0.28957602 0.31007534 0.8314464 0.1228066
000020 97 11 13 3f bb 91 1e 3f f2 fe 55 3f 34 23 7d 3d
       0.57448715 0.6194112 0.8359214 0.06180115
000030 21 d6 21 3f b5 08 f6 3e 35 b1 02 3f 7f b8 b6 3e
       0.6321736 0.48053518 0.51051646 0.35687634

feature_extractor.4.weight f4 [32, 16, 3, 3]
000000 5e 75 1f be 61 f7 ce bd 98 ff 09 3d c4 12 70 3c
       -0.15572116 -0.101057775 0.03369102 0.014652912
000010 ec d8 86 bd 38 78 47 3c 36 6a 6c be 28 ec 1f be
       -0.06584343 0.0121746585 -0.23087391 -0.1561743
000020 b7 49 ea bd 17 3a 59 bd 81 49 84 3c c9 6a 7d 3d
       -0.11439841 -0.053033914 0.01614833 0.061869416
000030 fb 8c b8 bc 6e b3 03 be 1a 52 68 bb 3a 91 2d 3e
       -0.022528162 -0.12861416 -0.0035449327 0.16949931
000040 13 75 2d bc 1c a5 54 bd af e2 63 3d 8d 2c 23 3d
       -0.010586995 -0.051915273 0.055636104 0.03983741
000050 4f eb 0d bd e9 44 9e 3d 69 b6 08 3e 92 cb 86 3d
       -0.034648236 0.07727987 0.13350834 0.06581797
000060 cb 0b 7a 3d e6 61 99 3d 8d 99 a5 3d f2 92 a8 bd
       0.061046403 0.07489376 0.08085928 -0.082311526
000070 45 1c a3 bb ab fb ac bc 18 ae 91 3c a1 8e 82 3d
       -0.004977735 -0.021116098 0.01778321 0.063748606
000080 a0 61 1e 3e 0c 2c 87 bd ec 34 08 bd 0d 98 b6 bd
       0.15466928 -0.06600198 -0.033253595 -0.0891572
000090 db 30 05 3d e9 65 bf 3d 03 90 3c 3e 3f 2a 93 3e
       0.032517295 0.0934561 0.18414311 0.2874317
0000a0 5d 30 80 3e 9f b4 82 3e 6f b9 88 3e 3a 3e a5 3e
       0.25036898 0.25528428 0.26703975 0.32274038
0000b0 e2 aa 4b 3e f7 21 3c bd 7e b2 cb 3b fa d3 1e bd
       0.19889405 -0.04593083 0.0062163463 -0.038776375
0000c0 de 6b b3 3d c3 cb d4 3d 3a 84 4e 3d d1 70 4a 3b
       0.087608084 0.10390427 0.05041907 0.0030889998
0000d0 7d 1d 14 3e 29 53 cc 3d 39 dd 9e bc a4 51 8b 3d
       0.14464374 0.09976799 -0.019392597 0.06802681
0000e0 5b c0 1f bc b9 3b 08 3e c0 f8 d0 3d 2f 2b 23 3d
       -0.009750451 0.13304032 0.10203695 0.039836105
0000f0 28 07 65 bc c2 da fe 3d 63 72 27 3d 13 64 ee 3d
       -0.013978757 0.124440685 0.040880572 0.116401814
000100 d8 ca 37 bd 4d 2b e9 3d 80 c8 b1 3d 41 9f 8a 3d
       -0.04487118 0.11385212 0.086808205 0.067686565
000110 7e 1a 3b 3e 13 7c cd 3d a5 ab 2a 3d 03 1e e6 3d
       0.18271825 0.10033431 0.0416676 0.11236193
000120 d2 f7 87 bc a0 26 c1 bd 8a d9 3e bd 11 0c 73 3d
       -0.016597662 -0.09431195 -0.04659418 0.05933768
000130 43 a4 34 3e 3b 27 32 3e 1f e3 60 3e d8 93 07 3e
       0.17640786 0.17397778 0.2196164 0.13239992
000140 18 76 ae 3e 3c 1f 88 bd ed 2a 60 be ad bc a2 bd
       0.34074473 -0.066465825 -0.21891375 -0.07946143
000150 8b 5e 55 be c7 4e d0 bd 1e 72 b2 bd b4 ce 6d bd
       -0.20836847 -0.101712756 -0.087131724 -0.058058456
000160 20 99 10 be 37 07 6e bd 7d d2 82 3e 75 4c 6f 3e
       -0.14120913 -0.05811235 0.25551215 0.2336901
000170 eb 18 96 3e a8 6f 84 3e ee 3b 33 3e 58 b3 4f 3e
       0.29315886 0.25866437 0.1750333 0.20283258
000180 76 2f 29 3e f5 ba 4e 3e a8 30 d0 3d 2d 36 bf 3b
       0.16522011 0.20188506 0.101655304 0.0058353157
000190 5f 10 b1 bd 08 16 b7 3d 58 c9 5b 3d 1c 09 cc 3d
       -0.08645701 0.08939749 0.053658813 0.09962675
0001a0 27 62 07 3e 10 24 1d be c9 49 12 bd f1 55 0a be
       0.13221036 -0.15345788 -0.0357149 -0.13509347
0001b0 e4 bc 68 3e 19 f3 ff 3c a2 f6 34 3e e1 28 b2 3e
       0.22728306 0.031243848 0.17672208 0.34796813
0001c0 6c 29 ad 3e 15 51 9a 3e 63 59 df 3e bc 45 9c 3e
       0.33820665 0.30139986 0.43622884 0.30521953
0001d0 5f aa f0 3e e2 e1 96 3d 1d 08 1c 3d db 0b 8f 3d
       0.47004983 0.073673025 0.038093675 0.06984683
0001e0 d4 60 0e 3e 23 ea b8 3d ae d9 a8 3d 12 52 6a 3e
       0.13904124 0.09029033 0.08244644 0.2288287
0001f0 c0 1d f5 3d 66 21 27 3e db 35 55 bc 11 b1 c2 bb
       0.11968565 0.16321334 -0.013013328 -0.005941518
000200 40 50 e6 3d e1 9c 4b 3e 00 9b 2a 3e 48 75 d8 3d
       0.11245775 0.19884063 0.1666069 0.105692446
000210 d3 7f db 3d 71 ab 52 3d cd 76 f5 3d 19 71 0c be
       0.1071774 0.05143303 0.1198555 -0.13715018
000220 93 1e b2 bd f7 40 c1 bd 3f ad 66 bd 4c db 10 3d
       -0.08697238 -0.09436219 -0.056317564 0.035365388
000230 59 ce 3c 3c 6a 5a 02 be 00 fd b1 bd 3d cb 5d be
       0.0115238065 -0.12729803 -0.08690834 -0.2165956
000240 e3 be b9 bc 3b 64 39 bd d0 d3 c8 3d 17 91 ce bd
       -0.02267403 -0.045261603 0.09806025 -0.100862674
000250 72 b8 f7 3d dc 86 0e bd f8 ab 13 3d ab 76 6d 3d
       0.12095727 -0.03479658 0.036052674 0.0579745
000260 88 cc 18 3d dc c9 f3 bd 2f bc f6 bb b5 98 0f be
       0.03730443 -0.11903736 -0.0075297575 -0.14023097
000270 ce af 34 3b f2 da 3a 3d e0 22 da bd c6 c9 a6 3c
       0.0027570608 0.04561896 -0.10651183 0.020359885
000280 a3 b3 33 bd ec d6 45 3d fd 96 19 bd da 58 36 3e
       -0.043872487 0.04830067 -0.03749751 0.17807332
000290 91 32 d4 bd 6a a1 31 3d 1e 6e f9 3e b7 65 88 3d
       -0.10361207 0.043366827 0.48716825 0.066600256
0002a0 10 8d 22 3e 65 c0 63 3e af 8c 23 bd e2 44 c6 bd
       0.15874124 0.22241361 -0.03992909 -0.09681107
0002b0 ac 15 02 3c 61 46 f9 3c 1e b1 fb 3d db ae b4 3e
       0.007939737 0.030429067 0.12289642 0.35289654
0002c0 0a c0 d3 3d 4f 22 45 3d b2 e7 c3 3d 31 cb 81 3d
       0.10339363 0.048128422 0.09565677 0.06337584
0002d0 60 01 b4 bd 1d 51 b4 3b 2a 16 cb bd c9 c0 9c bd
       -0.08789325 0.0055028335 -0.09916337 -0.07653958
0002e0 db 74 bd 3b 96 de b2 bc 7a 7e 1f 3e d0 63 9b 3d
       0.0057817525 -0.021834653 0.1557559 0.07587397
0002f0 0a 20 58 bd af 98 8f be 73 da 08 3e c3 3c 5e be
       -0.05276493 -0.28046176 0.13364582 -0.21702866
000300 2a a9 16 3d d3 01 8b 3e c2 5c df 3b d5 ec ba b9
       0.03678242 0.2714983 0.0068164775 -0.00035653138
000310 2a cf 93 3e e7 6d 08 be 01 ee e7 bd f4 67 ac 3d
       0.2886899 -0.13323174 -0.113246925 0.08418265
000320 a2 d6 89 bd 47 d9 d5 bb 5a 4d 1d 3e 48 54 b1 3d
       -0.06730391 -0.0065261456 0.15361539 0.086586535
000330 1c 55 0a 3e 5c 05 73 3e 45 80 f3 3c f4 b4 de bc
       0.13509029 0.23732513 0.02972425 -0.027185895
000340 a4 ff 88 3e 09 23 3b 3b fe 8a b0 3d b3 93 15 3f
       0.26757538 0.0028554818 0.08620261 0.58428496
000350 15 09 88 3e 5d c5 11 3e 37 91 d2 3d 09 3a 30 bd
       0.2656943 0.14235444 0.10281604 -0.043024097
000360 5c 92 84 bd f6 cb af 3d a7 a7 ce bd d8 f6 95 3d
       -0.06473228 0.08583824 -0.10090571 0.07322472
000370 20 55 5c 3e 07 3a a9 3d 66 77 4e 3e bf 57 2b 3e
       0.21516848 0.08263021 0.20162734 0.16732691
000380 a6 2a bd bd 91 18 66 bd 7c 92 a0 bd e7 f3 88 3e
       -0.0923665 -0.056175772 -0.0784044 0.26748583
000390 6d ec 08 3d 1a 37 d0 3c 9e 69 77 3d ab 3a 00 be
       0.0334286 0.0254169 0.06040346 -0.1252238
0003a0 78 26 6d be 36 16 03 3e 6a 86 0c be 70 d5 f7 bd
       -0.23159206 0.12801442 -0.1372315 -0.12101257
0003b0 fc 4f 95 be 53 11 96 bc f7 36 8c bc b5 2e 90 be
       -0.29162586 -0.018318808 -0.017116053 -0.28160635
0003c0 b1 25 ba 3d 1e 42 20 3e 62 c1 03 bd b3 4b 01 be
       0.0908922 0.15650222 -0.032166846 -0.12626533
0003d0 35 08 60 3e ec c3 64 3d cb 9c 1b 3d 8d 0d 71 3e
       0.2187813 0.05585091 0.037991326 0.23540325
0003e0 6a 9f a1 ba b6 e1 47 3e c2 72 4a 3e 4f 2e d3 3d
       -0.0012330834 0.19519696 0.19770339 0.10311567
0003f0 dd 61 bb bd b9 79 ce 3c 9e 5f 18 be 46 b2 bd 3c
       -0.09149525 0.025204526 -0.14880225 0.023156296

feature_extractor.4.bias f4 [32]
000000 e5 43 29 3d 3c 90 4e 3d 4e 63 94 3d 95 f5 a2 3d
       0.041324515 0.05043052 0.07245503 0.07956997
000010 5f 36 aa bd 0e 0f 0e 3d 53 a0 3e bd 99 f0 ac 3c
       -0.08311152 0.034682326 -0.046539616 0.02111082
000020 58 d0 1d 3d d5 30 b1 3c 69 62 54 3d a1 33 02 3b
       0.03852877 0.02162973 0.051851664 0.00198672
000030 6e e9 09 bd 16 07 95 bd fe f6 48 3d eb 2e 64 bd
       -0.03366988 -0.07276742 0.049063675 -0.055708807
000040 70 5c 99 bd 1f 62 13 bd 7a 52 07 3d 7c 10 2a bd
       -0.07488334 -0.035982247 0.03303764 -0.041519627
000050 13 05 4e bd b6 d8 ed bc 0e cd 4f bd bf 5d 66 bc
       -0.050297808 -0.029034 -0.050732665 -0.014060437
000060 b5 29 f1 bb a8 5d c9 3c 8e 2b 75 3d f8 3f 22 3d
       -0.007359708 0.024580792 0.05985599 0.039611787
000070 34 6d cf 3d 35 91 a9 3d 75 47 18 3c 28 ec a5 3d
       0.10128251 0.08279649 0.00929438 0.08101684

feature_extractor.5.weight f4 [32]
000000 2f 05 2e 3f 80 54 74 3f a2 e9 51 3f 36 03 4b 3f
       0.6797666 0.95441437 0.8199712 0.79301775
000010 93 7c 81 3f cc b9 88 3f e1 f4 7f 3f 24 dd 91 3f
       1.0116142 1.0681701 0.9998303 1.1395612
000020 2e b4 58 3f f8 a9 6f 3f 9a 6d 31 3f f4 cb 9d 3f
       0.8464993 0.93618727 0.69307864 1.2327867
000030 31 ef 61 3f f3 d0 91 3f 53 53 84 3f 2d 44 4a 3f
       0.882556 1.1391891 1.0337929 0.7901028
000040 ee 64 73 3f 6e 64 5b 3f cc 1a 8d 3f 6d 9d 77 3f
       0.9507588 0.8570012 1.1023803 0.9672459
000050 90 06 53 3f b1 5c 71 3f 42 4c 81 3f 9d 73 57 3f
       0.8243189 0.9428206 1.0101397 0.84160787
000060 92 7c 64 3f fd ce 56 3f da 27 79 3f 7a 96 53 3f
       0.8925258 0.8390959 0.97326434 0.82651484
000070 21 b4 92 3f fd 2e 80 3f 09 ae 85 3f 72 5f 61 3f
       1.1461221 1.001434 1.0443736 0.88036263

feature_extractor.5.bias f4 [32]
000000 ae 29 bc bd d7 40 1c 3d 4b 59 d7 bd 00 c3 a5 bd
       -0.09187637 0.038147774 -0.10515078 -0.08093834
000010 7d 0b 09 be 8e 94 bd bb 64 d4 f2 bd 9a 86 0c be
       -0.13383289 -0.0057855314 -0.118569165 -0.13723221
000020 75 30 d9 bd 92 37 c0 bd 8a d9 f2 bc 45 de e4 bd
       -0.106049456 -0.09385599 -0.029644746 -0.11175207
000030 e3 fd 01 be 6e c1 5d bd e9 83 24 be e9 29 f6 bc
       -0.12694506 -0.054139547 -0.16065945 -0.030049281
000040 26 30 dd bd 2e ac f8 bd ec 14 03 be 82 60 d5 bd
       -0.10800199 -0.12142216 -0.1280095 -0.10418798
000050 49 39 fa bd 1e fd d5 bd 1d 5f 40 be 53 f9 d9 bd
       -0.122179575 -0.10448669 -0.18786283 -0.10643258
000060 6f 0c 96 bd 37 78 d8 bd 15 ac 22 bd f1 b3 be bd
       -0.0732659 -0.10569804 -0.03971489 -0.09311665
000070 06 a5 9c bd d9 12 8d be aa 82 37 bd e3 63 a8 bd
       -0.07648663 -0.27553442 -0.044802345 -0.08222177

feature_extractor.5.running_mean f4 [32]
000000 f7 dc ad 3f 98 63 76 3f 49 7a 89 bf c6 39 94 be
       1.3583058 0.9624572 -1.0740443 -0.28950328
000010 c6 30 e0 3e 27 9b 4c 3f e3 d2 65 3f 9a 6d 07 3f
       0.4378721 0.79924244 0.8977491 0.52901614
000020 45 05 a3 bf 40 6d 55 be 59 8a 35 3e 0b 7c c2 3e
       -1.2735983 -0.20842457 0.17728557 0.37985262
000030 ed ff 81 bf d0 1d ef be d1 aa 84 3e 7d 5a 26 3e
       -1.0156227 -0.46702433 0.25911573 0.16245456
000040 a1 27 fc 3e 4d 0a 29 bf 7a 33 92 3f 16 8a e0 3e
       0.49248984 -0.6603134 1.1421959 0.4385535
000050 f2 e1 85 bf fa dd cd 3e 1b d7 1a 3f ef e2 7a bf
       -1.0459578 0.40208417 0.60484475 -0.98002523
000060 6a 5a a7 3f 57 63 d4 be e9 b3 34 3f eb 85 8d 3f
       1.3074467 -0.4148204 0.7058702 1.1056494
000070 aa a2 24 3f b2 ea 94 3f fd 56 d6 bd 13 ce 84 bf
       0.64310706 1.1634123 -0.104658104 -1.0375389

feature_extractor.5.running_var f4 [32]
000000 af aa 44 42 61 99 46 41 b8 65 7e 41 52 b1 59 41
       49.166683 12.412446 15.899834 13.605791
000010 e2 26 d0 40 d5 35 f5 40 6e 0c c4 41 3d c8 86 41
       6.5047464 7.6628213 24.50607 16.847773
000020 ae 20 28 41 f6 a5 9e 41 27 64 43 41 72 cd a1 40
       10.507978 19.831036 12.211951 5.056329
000030 64 83 0b 41 1c e1 79 41 cf 9a 21 41 57 56 14 41
       8.719578 15.617458 10.100295 9.271079
000040 fa 7b 29 41 ad 12 1b 41 50 81 94 41 fe 95 c9 40
       10.592768 9.6920595 18.56314 6.2995596
000050 28 db 11 41 c7 07 bc 41 4a 54 7d 41 99 d0 33 40
       9.116005 23.503798 15.833078 2.8096068
000060 ce f9 4a 41 d9 be a1 40 58 35 fe 40 58 5e de 40
       12.685987 5.054547 7.9440117 6.9490166
000070 42 bc 2f 40 c8 59 af 41 3b 82 2b 41 82 ea b8 40
       2.7458653 21.918839 10.719295 5.7786264

feature_extractor.9.weight f4 [16, 32, 3, 3]
000000 07 68 0c bc 81 f6 9b bd 9b a8 99 bc a1 88 c3 bd
       -0.008569724 -0.07615376 -0.018757155 -0.09547544
000010 c3 3e d8 bd 66 13 29 bd cc 3c dd bd 1c 74 b0 bd
       -0.10558846 -0.041278265 -0.10802612 -0.08615896
000020 cd 13 c8 bd 95 6d cf bd 22 0d 37 bb 2d 98 30 bd
       -0.09769402 -0.10128323 -0.0027931412 -0.043113876
000030 2d 57 1f bc 46 29 e7 bd 3c 44 52 bc 46 84 cd bb
       -0.009725374 -0.11287169 -0.012833651 -0.0062718717
000040 82 85 c6 bd 03 78 3a bd 03 ab b4 bd a9 ba 0f bd
       -0.09693433 -0.04552461 -0.088216804 -0.035090122
000050 dc d5 2f bd 9b 14 88 bd 4f 48 54 bc de ef 06 bc
       -0.04292856 -0.06644555 -0.012956693 -0.0082359
000060 31 af c6 bd 56 cd aa bd 71 82 00 bd e0 89 3e bd
       -0.09701384 -0.08339946 -0.0313744 -0.046518207
000070 5a fc 98 bd e4 9f be bd 2c 09 47 bc 5e 7c b2 bc
       -0.07470007 -0.093078405 -0.012148183 -0.021787819
000080 84 cb e7 bd a9 3b c7 bd c1 68 e2 bd 35 0b 8c bd
       -0.113181144 -0.09728176 -0.110551365 -0.06838075
000090 43 cc 07 bd 0b b0 8f bd 5d c7 95 bd eb d0 9b 3d
       -0.033153784 -0.070159994 -0.07313416 0.07608207
0000a0 10 39 a4 bd f1 9e 61 bc e6 a9 a6 3d ad ae 5d bc
       -0.08018696 -0.013770805 0.08137874 -0.0135304155
0000b0 1e 52 5b bd ef 0c f6 bc 6a 3f 71 bd a7 bd a7 bd
       -0.05354511 -0.030035464 -0.058898367 -0.0819047
0000c0 e7 1a 60 bd 29 01 11 bd 3b 96 a3 bd 6f 05 4c bd
       -0.054713156 -0.035401497 -0.079876386 -0.04980987
0000d0 58 e9 2a bd 1f b4 ab bd 45 c6 f6 bc 4e 6f 4c bc
       -0.04172644 -0.08383965 -0.03012384 -0.012477709
0000e0 8a c4 3e bc d7 76 b0 bd 06 03 62 bd bf 04 26 bc
       -0.011643538 -0.08616417 -0.055178665 -0.0101329675
0000f0 7e 68 d7 bd d5 9f b9 bd 56 e3 06 bd 33 dd cf bd
       -0.10517977 -0.09063689 -0.03293165 -0.10149612
000100 73 ff 0f bc 96 17 ca bd 1d 88 ca bd 91 5d 94 bd
       -0.008788931 -0.0986778 -0.09889243 -0.07244409
000110 55 d3 9b bd 15 c1 ce bc 15 68 dc bd 67 be a1 bd
       -0.07608668 -0.025238553 -0.107620396 -0.078976445
000120 6c 35 88 bd 43 bd 96 bc 76 82 b3 bd 31 07 ee bc
       -0.066508144 -0.018400794 -0.08765118 -0.029056164
000130 f5 cd 60 bc e9 e7 d0 bc d0 7f ee bc 2b fb 25 bd
       -0.013720979 -0.025501208 -0.02911368 -0.040522736
000140 bb ce b3 bd 16 fc 20 bd e5 cf 66 38 45 cc 84 bd
       -0.08779665 -0.039302908 5.502989e-05 -0.06484274
000150 36 27 61 bd 57 f5 e2 bd ea 42 96 bc 4e df 05 bd
       -0.054969035 -0.11081951 -0.018342454 -0.032683663
000160 82 7e 6b bc 0a 2c 9e bd 94 38 89 bc 50 8e f6 bb
       -0.0143734235 -0.077232435 -0.016750611 -0.007524289
000170 2c 42 03 bd af f9 40 bd e9 ca 27 bd 9b 30 17 bd
       -0.03204553 -0.047113117 -0.040964995 -0.03691159
000180 75 dc 01 bd 5f 80 6f bd 57 a7 88 bd 5f 47 bd bc
       -0.031704385 -0.058472034 -0.066725425 -0.023105321
000190 fe ba 34 bd ba 91 1e bd de bb 88 bd a1 43 90 bd
       -0.044123642 -0.038713194 -0.06676458 -0.07044149
0001a0 c6 98 9c bd c4 3d 6b bd 14 8e 39 bd b6 e0 dd bc
       -0.07646327 -0.05743195 -0.045301512 -0.02708469
0001b0 c3 22 99 bd bd 2e 18 bd be 63 98 bc 0c dd 90 bc
       -0.074773334 -0.037153948 -0.018602248 -0.017683528
0001c0 80 4b dc bd 1f 81 0d bd 73 e1 3d bc 88 28 63 bd
       -0.10756588 -0.034546968 -0.011589396 -0.055458575
0001d0 b3 14 a0 bd 8a ef 02 bc 07 19 28 bc f9 ef 9e bd
       -0.07816448 -0.007991681 -0.010259873 -0.07760615
0001e0 65 73 37 bd 96 20 02 bd b9 86 42 bd 8d 02 7e bd
       -0.044787783 -0.031769358 -0.047491763 -0.06201415
0001f0 1c bf 90 bd 78 21 d3 bd 9e 31 61 bd 17 09 d6 bd
       -0.07067701 -0.10309118 -0.05497896 -0.104509525
000200 54 c3 91 bc f0 f3 89 bd ff 66 aa bc d3 b5 b9 bc
       -0.017793335 -0.067359805 -0.020801065 -0.022669708
000210 08 b3 56 bd 10 1c 46 bd f4 71 ce bd 5a ce 38 bc
       -0.05241683 -0.048366606 -0.100803286 -0.011279667
000220 c0 29 2e bd 31 b7 e2 bd 12 ad e2 bd 5a e9 16 bb
       -0.042520285 -0.11070097 -0.11068167 -0.0023027272
000230 6a 62 1c bd dc 10 7f 3b 33 cb 77 bd 89 da d4 bd
       -0.038179792 0.003891996 -0.06049652 -0.10393245
000240 64 07 96 bd 2c e8 b5 bc 01 4d 3a bd ab d8 0b bd
       -0.073256284 -0.022205435 -0.045483593 -0.034142178
000250 56 1e 22 bd 11 2d b9 bd 1c e3 17 bd 4e 4f bf bd
       -0.03957971 -0.09041799 -0.037081823 -0.09341298
000260 df 7b 05 bd b7 64 19 bd 79 34 a6 bc b4 c1 2f bb
       -0.032588836 -0.037449565 -0.020288693 -0.0026818337
000270 5a e3 d3 bc 27 0e 69 bb ac e2 c6 bd 2b 46 ba bd
       -0.025865246 -0.0035561414 -0.09711203 -0.09095415
000280 f6 29 db bd c1 20 73 bd 5f 2d 6b bd 6f 2c 9a bc
       -0.10701363 -0.05935741 -0.057416316 -0.018820016
000290 3d 3b c2 bd 69 2f d1 bd 3d 36 e5 ba 82 9a d0 bc
       -0.09483955 -0.10214121 -0.0017487478 -0.0254643
0002a0 2f 52 d3 bd e2 87 56 bc aa 25 9b bd e1 35 e8 bc
       -0.1031841 -0.01309392 -0.07575543 -0.028346004
0002b0 29 47 ab bc b5 68 92 bd a3 6f 54 bc fe ea e3 bc
       -0.020907955 -0.071488775 -0.012966069 -0.027822014
0002c0 c3 32 c7 bd 97 cf a5 ba 82 02 b8 bd fb a5 a3 bd
       -0.09726479 -0.0012650368 -0.08984853 -0.07990643
0002d0 e4 96 de bd 0a c3 e3 bd 76 a2 72 bd 28 2c 80 bd
       -0.10868624 -0.11121185 -0.059236966 -0.06258422
0002e0 a2 33 9b bc 77 ca ef bc df 47 49 bd 8f 5f 17 bc
       -0.018945519 -0.029271347 -0.049140807 -0.009239092
0002f0 fd 63 ba bb b0 7a c3 bd bc bd 08 bd 03 55 9c bd
       -0.005688189 -0.09544885 -0.03338407 -0.07633402
000300 9c 21 ae bd 9a 1c c0 bd bc 1b 04 bb 6b 51 90 bd
       -0.08502504 -0.09380455 -0.0020158133 -0.07046779
000310 4c bd 35 bd d7 c2 c0 bc 37 48 a0 3c 44 6f 4a bd
       -0.04436998 -0.023530407 0.019565685 -0.049422517
000320 04 e0 5c bd a8 f6 ab bd 4e e9 d9 bd 43 3c 59 bd
       -0.053924575 -0.08396655 -0.106402025 -0.053035986
000330 30 a9 ba bd 16 d6 04 bd 3e c9 ba bb ae 72 b1 bd
       -0.09114301 -0.03243073 -0.0057002595 -0.086644515
000340 90 2d 11 bd 38 d3 e5 bc 66 e5 03 bd 7f 0d ba bd
       -0.035443842 -0.028054819 -0.032201193 -0.090846054
000350 6f 12 24 bd c5 7e 61 bd 82 70 db bd 26 22 bb bd
       -0.040056642 -0.055052537 -0.107148185 -0.09137373
000360 0c 7d 32 bd b9 1c 66 bc 5f c6 26 bd 03 b5 6a bc
       -0.043576285 -0.014044934 -0.040716525 -0.014325383
000370 98 f5 c5 bd fe dc ad bd dd da 3c 3d e5 b1 48 bd
       -0.09665984 -0.084894165 0.04610716 -0.04899778
000380 ff 10 e2 bd f4 4b 04 bd 1d 5a 11 bd d6 46 c3 bb
       -0.11038398 -0.032298997 -0.03548633 -0.005959372
000390 c9 a0 ea bc 4a b9 ce bd 79 55 65 bc 5b 07 6a bd
       -0.028641121 -0.10093935 -0.013997429 -0.05713592
0003a0 c8 ee 95 bc 00 fc 9a bd 10 a0 a9 bd b7 3b b2 bd
       -0.018302336 -0.075675964 -0.082824826 -0.08702796
0003b0 fe ff c1 bd a6 38 c7 bd 11 a7 84 bd 86 cc db bd
       -0.09472655 -0.09727602 -0.06477178 -0.10732369
0003c0 da dc 20 3b 8b 80 e1 bd 4d a1 dd bd 29 fd 90 bb
       0.00245457 -0.11010846 -0.10821781 -0.0044247103
0003d0 89 08 44 bd 3c 17 91 bd ae 85 df bb 34 05 19 bd
       -0.047859702 -0.0708451 -0.006821356 -0.037358478
0003e0 0b dd f9 ba 53 80 11 bd 09 5a c4 bd 0d fc 4f bc
       -0.0019063068 -0.03552277 -0.09587485 -0.012694371
0003f0 84 41 42 b9 36 e8 3a bd 88 60 10 bd 99 ea 74 bd
       -0.00018525688 -0.04563161 -0.03524831 -0.059794042

feature_extractor.9.bias f4 [16]
000000 2a 0f fc bc 72 17 69 bd bb 6e ca bc cb 75 09 be
       -0.03076895 -0.056907125 -0.024711004 -0.1342384
000010 11 87 c4 bd 6d fc 10 be d4 1d bf bc 57 5d b5 bd
       -0.095960744 -0.14158793 -0.023329653 -0.08855694
000020 d5 9a d7 bd a9 3d 93 bd 6c af 0c bd 40 21 13 bd
       -0.10527579 -0.07189495 -0.034346983 -0.03592038
000030 12 58 7f bd 13 e2 9a bd b1 ee 81 bd 43 20 3e be
       -0.06233985 -0.075626515 -0.06344355 -0.18566994

head.0.weight f4 [128, 1600]
000000 81 3e 92 bd ef 9d 7b bd 20 90 6a bd 9e 1d 82 bd
       -0.07140828 -0.061429914 -0.057266355 -0.06353305
000010 8f 0d 9f bd cb 02 24 bd ec 76 71 bd ba 9e 8f bd
       -0.07766258 -0.040041726 -0.058951303 -0.070126966
000020 35 41 8c bd 92 72 86 bd f0 b7 1b bd ba d7 b2 bb
       -0.06848375 -0.06564821 -0.038017213 -0.0054578455
000030 ae 58 ed bb 38 17 45 bc 9d 74 ad bc 29 cb 64 bd
       -0.0072432375 -0.012029462 -0.02117377 -0.05585781
000040 cf 91 0f 3d 0d 38 99 bc b4 cb 84 3b ed 4d b2 3c
       0.035051163 -0.018703485 0.0040526036 0.021765674
000050 73 81 54 bd 5b 5f 08 3c cf 96 70 3b a6 6a b2 bc
       -0.051881265 0.008323516 0.0036710983 -0.02177937
000060 99 2e 2e bd 20 d7 9d 3d 42 64 86 3d 3e 93 8d 3d
       -0.042524908 0.077070475 0.065620914 0.0691285
000070 38 3e 0e bb 37 b9 57 bb 5d e4 3d bd d7 8d 92 3c
       -0.0021704566 -0.0032916793 -0.046360362 0.0178899
000080 cc 5a b8 ba 20 39 25 3d 62 72 3b 3d 44 9d 44 3d
       -0.0014065146 0.04033768 0.04576338 0.048001543
000090 54 73 a4 bd 9e 96 9f 3d 92 bd 86 bc ee 40 a6 bc
       -0.080298096 0.077924 -0.016447816 -0.020294633
0000a0 f3 50 23 bd ab 81 6d bb ac bb 9e bd 36 15 a3 bd
       -0.03987212 -0.0036240618 -0.07750639 -0.0796303
0000b0 75 47 0a bd df 69 9a bd 9f cb 2d bd 6b 86 94 bd
       -0.033759553 -0.075397246 -0.042430516 -0.07252201
0000c0 2c 9f 3b bd 8a c8 85 bc c1 2f 2e bd fc 02 af bb
       -0.045806095 -0.016330976 -0.04252601 -0.005340932
0000d0 1a 8b 9c 3d f6 08 17 bd e0 4d 64 bd 21 2c 26 bd
       0.07643719 -0.03687378 -0.05573833 -0.04056943
0000e0 a2 98 6b bd e3 0c a5 bd c0 d3 52 bd 76 b9 be 3b
       -0.05751861 -0.080590986 -0.05147147 0.0058204485
0000f0 dc 6c 89 bd 6d c2 1d bc 68 61 88 3d c1 51 58 3d
       -0.067102164 -0.009628874 0.06659204 0.05281234
000100 62 c6 19 bd 84 d8 90 bd 1b 1e 8f bd b4 70 4b bd
       -0.03754271 -0.07072547 -0.06988164 -0.04966803
000110 a6 bc 89 bc 80 3d ad 3a 87 f0 66 bd ce c9 3e 3b
       -0.016813587 0.0013217181 -0.05638173 0.0029111984
000120 ea c1 7b 3c 36 0f 77 bd 68 71 5e bd 6a e6 62 bd
       0.015366057 -0.06031724 -0.05430737 -0.05539552
000130 4f 93 2b bd 36 98 8e bd ee b0 7a 3c b4 37 8c bc
       -0.04188853 -0.06962626 0.015300972 -0.017116405
000140 94 52 0e bd 4b 75 20 bc 76 26 8d 3c 5d b3 a3 bd
       -0.03474672 -0.00979359 0.017230254 -0.07993195
000150 3e f7 0f bd 8d 03 e1 3c ea 65 26 bd f8 12 d0 3b
       -0.035147898 0.027467513 -0.040624537 0.0063499175
000160 3c 49 6d bc 30 e3 7e 3c cf 18 34 bd de f6 24 3b
       -0.0144827925 0.015557095 -0.04396897 0.0025171558
000170 f3 6d af 3c a1 bc 9c 3c 66 8d 82 3d f2 17 4f 3d
       0.021414733 0.019132914 0.06374626 0.050559945
000180 03 61 5a bc 4e 31 8f 3c 97 74 30 3c 62 05 18 bc
       -0.013328793 0.017479565 0.010769985 -0.009278627
000190 3a e9 0b bb 57 85 86 3c 6c 2b f5 bb 30 77 49 3b
       -0.002134873 0.016421003 -0.007481983 0.0030741207
0001a0 a2 20 6b 3c 61 40 b3 3c 2f 00 81 3c 78 2b a4 ba
       0.014351042 0.021881284 0.015747158 -0.0012525162
0001b0 a1 a7 03 3c b6 c2 ac 3c d5 4e 5e bd 19 ca 25 3d
       0.008035571 0.02108894 -0.0542744 0.04047594
0001c0 08 e6 77 3d 3b 06 72 3e e2 03 48 3d 99 03 d1 3d
       0.06052211 0.23635189 0.048831828 0.10205764
0001d0 6a bf c3 3d 44 e3 6f 3d f1 d4 40 3d d5 10 28 3d
       0.09557994 0.058566347 0.047078077 0.041031677
0001e0 7a f9 59 bd 68 cc 99 3d 18 4b 99 3d 3c 72 1c 3e
       -0.053216435 0.075096905 0.07485026 0.15277952
0001f0 2f af 97 3d 02 6f b8 3d 6a ed 26 3e 05 e3 bd 3d
       0.074064605 0.09005548 0.16301504 0.09271816
000200 a5 ab 92 3d 5f 76 32 3d 97 42 fa bc 9c 38 9a 3d
       0.07161645 0.04356992 -0.03054933 0.07530329
000210 d2 89 d5 bd 41 09 27 bd e4 4d ef 3c 57 61 93 bd
       -0.10426678 -0.04078031 0.029211946 -0.071963005
000220 59 32 da 3d 89 eb 82 bd c6 cc b3 be be 8f a5 3d
       0.10654134 -0.06392581 -0.35117167 0.08084057
000230 c8 7d 80 bd 24 57 69 3d 28 13 07 bd 42 69 a4 bd
       -0.06273991 0.05696787 -0.032977253 -0.08027889
000240 31 1d 95 bd 03 f9 92 bc 38 c0 82 bd cb 3f 25 bd
       -0.072809584 -0.017941004 -0.06384319 -0.04034404
000250 cd ee 27 be 30 4c 63 3d 5e ca 75 bd e6 c8 47 3e
       -0.16399689 0.05549258 -0.060007446 0.1951023
000260 14 b4 a6 3d a9 89 39 be 99 1b 3d be 8f fc 68 bc
       0.08139816 -0.1811892 -0.18467559 -0.014220371
000270 e2 b3 43 bd 7a 0a d0 38 54 40 85 be c7 2e a2 3d
       -0.04777897 9.920164e-05 -0.2602564 0.07919078
000280 6a 5f 96 bd 97 2f 4a 3d 99 35 87 3d d4 c7 62 be
       -0.073424175 0.04936179 0.0660202 -0.22146541
000290 cc 53 db bd 42 11 23 be 86 9d c5 bd 20 7d cf bd
       -0.10709342 -0.15924552 -0.09649186 -0.101312876
0002a0 a5 b5 ad 3d 10 e9 81 3d d9 37 9c bd 06 a9 28 3d
       0.084819116 0.06343281 -0.076278396 0.04117682
0002b0 9e 2a d7 3d 92 89 26 be 53 4c e2 bd 2e a5 a6 bd
       0.105061755 -0.16263416 -0.11049714 -0.08136974
0002c0 d4 8d 2e be 80 0c 3d be 7a 74 96 3d 8a bb 7d 3d
       -0.1704629 -0.184618 0.07346435 0.06194643
0002d0 cb 20 87 bd 94 41 91 3d 72 37 a5 3d 6b 30 8c 3c
       -0.06598052 0.07092586 0.08067216 0.017112931
0002e0 03 03 2b be d7 5d 7d be 30 10 a7 3e a7 3d 25 3d
       -0.16700368 -0.24742828 0.32629538 0.040342
0002f0 ac 90 89 3d 25 1a 13 3d b4 29 f6 bc 15 10 50 3d
       0.06717047 0.035913605 -0.030049182 0.050796587
000300 96 33 4d 3d 5e 75 77 3d 18 fa 40 3c ea 59 6c 3c
       0.050098024 0.060414664 0.011778377 0.014425734
000310 27 ea 9e 3d 28 55 7a 3d 1a e9 31 3d a5 c0 98 3d
       0.07759505 0.061116368 0.043435194 0.07458619
000320 e4 a9 06 bd af 67 9d bd 56 71 87 bd 9e de 6f bd
       -0.032876864 -0.07685792 -0.06613414 -0.058561914
000330 4f a9 a0 bd f9 3c 26 bd 91 63 31 bd 32 4a 12 bd
       -0.07844793 -0.04058549 -0.043307845 -0.03571529
000340 69 b7 8c bd a7 a5 93 bd 67 8a 72 3d 32 49 29 bd
       -0.0687092 -0.0720933 0.059214022 -0.04132957
000350 88 37 62 bd 1f 25 d7 bc 7c d1 f3 bd 07 70 2e 3e
       -0.05522874 -0.026262818 -0.1190519 0.17034923
000360 3a a3 3d bd 32 04 a5 bd 6a c7 98 bd 64 72 47 bd
       -0.046298243 -0.08057441 -0.0745991 -0.048693076
000370 f9 e9 c4 3d be fe a0 bd d1 79 99 bd c3 8c fa 3d
       0.09614939 -0.07861088 -0.07493938 0.122338794
000380 5e fa ac 3c ad 73 bc 3d e4 f2 3d 3d db a5 a5 bd
       0.021115478 0.09201751 0.046374217 -0.08088275
000390 81 18 61 bd b7 d8 7f bd f9 4a d1 3d 28 6c 3f bd
       -0.05495501 -0.062462535 0.10219378 -0.046734005
0003a0 75 5d 03 bc f3 d7 0e be 75 43 c1 bd 95 ea 48 be
       -0.008017887 -0.13949566 -0.094366945 -0.19620736
0003b0 72 36 ac bc 3b bd c5 be cc 0a a2 bd 28 e7 89 bd
       -0.021022055 -0.38620934 -0.079122156 -0.06733543
0003c0 d6 f3 99 3d 23 6d 6b bd af a5 cc 3d 44 19 53 bd
       0.07517211 -0.057477128 0.09992539 -0.051537767
0003d0 ed cf a1 bd 59 0f 04 bd 81 3b 25 bd c4 5b 5c bd
       -0.07900987 -0.0322412 -0.04033995 -0.053798452
0003e0 92 11 7e bd d0 df 43 bd 71 5e 8f 3d 19 84 13 bd
       -0.062028475 -0.047820866 0.07000435 -0.03601465
0003f0 30 26 bd 3c 9e e1 93 3c ea e7 1b bd 20 a2 35 bd
       0.023089498 0.018051919 -0.038062967 -0.044344068

head.0.bias f4 [128]
000000 70 97 59 bd dd 0e 2e bd 1b 09 ee bd 38 f3 c2 3b
       -0.053122938 -0.042494643 -0.116228305 0.005949404
000010 58 13 cd 3d 14 46 84 3c d4 e4 25 3d a6 28 2e bc
       0.10013455 0.016146697 0.04050143 -0.0106298085
000020 5c b8 2a bc bd 82 b3 bd fc c1 74 bd a6 ca d3 3d
       -0.010419931 -0.08765171 -0.05975531 0.103413865
000030 e8 07 0c bd 5a c6 00 bd 2d 7a 90 3c 58 99 87 bb
       -0.034187227 -0.031439163 0.017636383 -0.004138153
000040 7b 8a 6c 3c 9f 7b af bd d7 43 e7 bd 48 23 1f 3d
       0.014437313 -0.08568501 -0.11292236 0.038852006
000050 6c 9b 7d 3d 1a 6a 79 3d 84 1c 89 3d b0 e0 72 bc
       0.0619158 0.060892202 0.06694892 -0.0148240775
000060 89 ec 9f 3d e7 06 d9 3d b1 98 56 3c 9f 12 e2 3b
       0.078087874 0.1059702 0.013097928 0.0068991925
000070 5c 3b 26 bd e0 9b 17 3d 44 3f de bd f9 5b 00 3d
       -0.040583953 0.03701389 -0.10851911 0.031337712
000080 c4 b0 12 bd 66 88 f6 3c 31 c0 b8 bd 10 1a 00 bb
       -0.035813108 0.030094337 -0.090210326 -0.0019546784
000090 2d 5b 85 3d ad 4d 9f bc 65 51 57 be e4 28 a6 3d
       0.06511531 -0.019446218 -0.21027143 0.08113268
0000a0 61 29 bf 3b 01 2c a7 3d 73 5d d3 3c ba d4 d8 3d
       0.00583379 0.0816269 0.025801396 0.10587449
0000b0 b4 3a db 3c b8 4f f7 bb a8 53 d2 bd d8 ec d9 3d
       0.02676139 -0.007547345 -0.102698624 0.106408775
0000c0 e5 cd af bd 1f 56 ca 3d 39 ef 4b 3d d3 b8 f6 b9
       -0.08584193 0.098797075 0.049788687 -0.0004705848
0000d0 80 16 f8 3a e1 aa 19 bd b2 47 bf bb e6 5d d9 3d
       0.0018927604 -0.03751648 -0.005837404 0.10613613
0000e0 c3 68 70 bd fc 4c 82 bb a4 b5 a5 3c 55 21 5b 3c
       -0.05869366 -0.0039764624 0.020228215 0.013374646
0000f0 01 5c 5d 3c c1 bb 97 bd f0 bb 33 bd 6b d8 26 be
       0.013510705 -0.07408858 -0.043880403 -0.16293494
000100 04 f4 90 bd 4c 5c 56 bc f8 cd 94 3a 7a f6 25 3c
       -0.07077792 -0.013083529 0.0011352887 0.010129565
000110 87 00 66 bd ad 2c af bd d7 83 30 3d e4 3c 24 3d
       -0.056152847 -0.08553443 0.043094482 0.040097132
000120 17 1d e1 bb 1c 66 57 bd cf 01 8c 3d cb 29 75 bb
       -0.006869923 -0.052587613 0.068362825 -0.0037408944
000130 ef b5 dc bd 23 c9 95 bd 97 a5 39 3d 5c d2 de bd
       -0.107768886 -0.073137544 0.045323934 -0.108799666
000140 1e 0f 29 bd 1b 94 53 bd 2c 1c b6 3d 28 5b 27 bc
       -0.041274182 -0.051654916 0.08892092 -0.010214604
000150 67 77 72 3d d7 51 0f bd 0b 29 71 bd f6 8b e2 3c
       0.059195902 -0.034990158 -0.058877032 0.02765463
000160 ff 7c 67 bd 44 0d 10 bc e1 67 4e bc 92 c5 d0 3c
       -0.05651569 -0.008792225 -0.012598009 0.025484834
000170 f2 3c 1d 3d 01 a7 4a be 83 bc b6 bd da ba 60 bd
       0.0383882 -0.1979027 -0.089226745 -0.054865696
000180 56 e0 0d bd 03 ed b8 bc 18 2a c3 3d 8e 31 ec bd
       -0.03463777 -0.022573953 0.09529513 -0.11532889
000190 ab fc a7 3d 54 1a 4c bd f1 f7 d9 bd a8 03 ac bd
       0.082024895 -0.049829796 -0.10642994 -0.08399135
0001a0 40 74 6a 3d 28 58 9a 3d 57 0c 44 bd a2 2a 34 bd
       0.05723977 0.07536346 -0.04786333 -0.04398597
0001b0 5e 20 a2 3c f9 a0 35 bc 9f 7a ba bc a2 84 42 bd
       0.019790825 -0.011085742 -0.022763548 -0.04748977
0001c0 89 01 a8 bc dd 1a dc 3d c1 85 8a bd 13 0c cb 3d
       -0.020508545 0.10747311 -0.06763793 0.09914412
0001d0 22 4c 06 3d 6b b7 b7 bc 8b 52 32 bd 2e 95 8a bd
       0.03278745 -0.022426328 -0.04353575 -0.06766735
0001e0 8f 31 8b bd 98 64 90 3c 4a d0 0e 3d 4c 90 47 3d
       -0.06796562 0.017626092 0.03486661 0.048721597
0001f0 bf fc 4f bd d5 87 1e bd 99 9c 88 bc 21 86 81 3d
       -0.050778147 -0.03870376 -0.016676234 0.06324411
